ResNet-18实现CIFAR-10图像分类/sever copy/Experiment3/model2/bn0_bias.npy (npy, 592 bytes, 1 tensors)

array f8 [64]
00000000: 0219 c1ca b6db 553f 826d d6c9 c3f0 7c3f
00000010: 6a31 516f 4f00 7bbf 9b2e 6867 fd3d 70bf
00000020: 103d e204 44b0 303f 2d28 c8c9 6a36 9b3f
00000030: e3eb 0bbd c176 92bf f5af 2515 183d aa3f
00000040: f67b 3358 3ae2 80bf 7651 d5b6 8c2e 9e3f
00000050: 21b3 6700 f914 993f 3857 fe60 aea3 773f
00000060: 4c82 de49 a5f1 6d3f 5f0e c7cd 2ac4 44bf
00000070: 404d abfd fb12 65bf 262b 93b7 f360 76bf
00000080: fe83 38ca eebc 6b3f 9997 7e00 9809 58bf
00000090: bb17 73b4 9444 85bf 7f61 d524 fb82 463f
000000a0: 621d 9b4c fbce 65bf 748e 864e 51a7 7d3f
000000b0: 05c3 9648 a3d5 793f b826 155c 83d2 6d3f
000000c0: 2aa3 2663 db5a 73bf edb9 7c01 1e7f 74bf
000000d0: 5701 6eca 28df 5a3f 0470 4c6f 3495 7abf
000000e0: fb1b fa34 73b4 933f d41c 294a a101 913f
000000f0: 1ff6 919e 9883 7d3f 2109 9e9b 9ea1 943f
00000100: d084 7a03 081a 893f 1f67 d464 591a 85bf
00000110: b462 22bf cd14 6ebf 9344 8205 4293 97bf
00000120: 5397 2899 6ca3 40bf 009d 5258 1129 88bf
00000130: 1611 413e 40d0 2d3f bfa3 0f75 ea5f 75bf
00000140: 44e1 db22 4751 2a3f 4953 2ef1 9afb 943f
00000150: 16d7 ada6 78a3 813f 11ee 3841 254c 7ebf
00000160: 6849 df48 b666 79bf 8826 23ad 96a7 73bf
00000170: 8c3e 7188 e37f 93bf f27b 149b 57e7 4f3f
00000180: 8e2c 1eec aa1b 99bf 38b2 b752 2283 663f
00000190: a9d9 5775 a57d 76bf 589b c443 fe4f 883f
000001a0: 97ce bc1a db3a 943f 8f3a 96ba 9a42 733f
000001b0: 3f85 a2d0 8b53 8d3f cbde 5d1b 0677 73bf
000001c0: 2bd7 00f0 0f1f 933f a442 e1f1 1bb2 9a3f
000001d0: 7d69 98f2 78a1 9fbf 25d9 a48a 796a 80bf
000001e0: 46d3 1168 83f3 633f 73fa 5ff2 cc0c 933f
000001f0: 2a0c f769 2a35 8cbf 7ac7 5ae7 cb03 823f
0.0013341221883976244 0.007065548704669468 -0.006592092792811458 -0.003965368136515625 0.0002546468794059767 0.02657477242068056 -0.018031146205412695 0.05124736078400353
-0.008243995491680405 0.02947444787908312 0.024494066858028355 0.005771332900527608 0.0036552646915455674 -0.0006337365153332267 -0.0025725290009660784 -0.0054635544012835765
0.0033859886041374123 -0.0014671310800422387 -0.010384713894733602 0.0006870008743744964 -0.0026621730984037065 0.007239644627052056 0.006307256533020893 0.0036404195422264606
-0.004725319844887813 -0.005004040918534331 0.0016401193949776205 -0.006489949057847614 0.01924304972501643 0.016607780600932667 0.007205578012074137 0.020147779701354843
0.012256682020338167 -0.010304163350656701 -0.0036720293511048555 -0.023022681795343457 -0.0005077629342096025 -0.011797080524344583 0.00022745880335340506 -0.005218425606451526
0.0002007865272657482 0.02049104783107517 0.008612577997819264 -0.007396836782898501 -0.006201469468538036 -0.004798496798864023 -0.01904254455831604 0.0009736230623821325
-0.024519606267443587 0.0027480764745091667 -0.005490919420017817 0.011871324961772053 0.019755767352036626 0.0047021907897845236 0.014319507889299586 -0.004752181868631754
0.01867318060268201 0.02607005752389803 -0.03088940602001732 -0.008015584510400029 0.0024354521306641256 0.01860351781214793 -0.013773280485912382 0.00879630374706485
