ResNet-18实现CIFAR-10图像分类/sever copy/Experiment3/model2/bn10_bias.npy (npy, 1104 bytes, 1 tensors)

array f8 [128]
00000000: 258d 7b0a 3946 20bf 2d67 3b47 6fa7 5c3f
00000010: f312 94a0 917d 503f dda1 e125 7049 59bf
00000020: 18cd e61e 1700 31bf e21f 9726 6bbf 263f
00000030: d7f5 853a 9c4c 3cbf 5ec3 5fcf 5f4d 5b3f
00000040: 1eb7 8b53 f5b3 453f a51e 3018 e1ff 573f
00000050: 7977 6f52 bc07 4c3f 80cb ada0 9126 503f
00000060: 4232 049e c01e 5b3f 5c01 48ef 1370 203f
00000070: a905 d6dc b21d 323f 5e36 ae8d 27c4 3b3f
00000080: 3801 b039 f765 683f 0e53 187c e09a 5d3f
00000090: fa34 6ce7 5485 373f 4e12 471a 73db 613f
000000a0: 5233 8ad3 0661 533f 3353 f9d4 fa50 453f
000000b0: b9cc b66f 64dd 3e3f b42b b2c5 8ebe 503f
000000c0: 412b 8777 1227 5ebf 2ef0 5914 45b0 413f
000000d0: 6df4 9d5c 094a 3ebf faa6 7240 ae28 413f
000000e0: e8b7 1c6c 9a1e 2c3f 007d 9417 3506 12bf
000000f0: 4744 b463 fb3a 32bf 0744 d3fc 8df1 593f
00000100: 64b1 7e3c 09e9 503f 4d31 ad75 080e 533f
00000110: 826f bf3e c868 233f 4c1c 3339 ab6b 243f
00000120: 052d dc37 e357 323f 9ec5 e977 dd90 513f
00000130: 8631 05c7 d2bf 623f 7b52 a87d 81e5 1bbf
00000140: 0ec1 2bc2 c0a9 f73e a0b0 195e eb9b 623f
00000150: f4d4 a543 8763 533f 537f 6872 b58c 743f
00000160: 45c4 3c7d a5fc 193f ff6f 3164 00e3 47bf
00000170: 20e9 b275 4c83 173f ec78 ffcb 861b 383f
00000180: 56d9 8853 f739 513f a910 ff6e 4a25 4cbf
00000190: d781 2b25 3f24 4f3f 212c 618b 5cbc 413f
000001a0: 8078 0059 82e1 393f b6d5 5089 b359 5e3f
000001b0: 7375 f223 345c 423f 1a29 191c d6f6 5a3f
000001c0: 3d02 b99c 86f2 393f 9b1c 5e56 06e1 57bf
000001d0: bc1a 0196 6303 5b3f 44e9 8628 f3f6 3ebf
000001e0: 0ebd 6e43 a637 723f d208 d8ac 28ae 1c3f
000001f0: ad24 7ff5 ae70 4f3f ea03 7dac 514d 5d3f
00000200: a97e a1ae edf6 53bf dfc6 e0d7 9749 5d3f
00000210: 1811 65b7 ae3c 3f3f 52df 62f9 f15f 523f
00000220: 9574 846a f947 4f3f 745a 2b53 07dc 403f
00000230: 1062 34de d267 4d3f d9a5 3324 4123 46bf
00000240: 9fc9 d4cd 746a 4e3f 3ae8 7963 e9f8 5d3f
00000250: 0237 1ba3 6254 43bf b7d5 67b6 bb7f 453f
00000260: 6178 cbcd 4b9b 023f 17ed 605c bf65 3f3f
00000270: 09f5 d57e 21f4 4fbf ab4f 23c6 f0f0 3f3f
00000280: e101 c77a 7376 47bf 1923 a851 1623 33bf
00000290: 8856 2f40 00bd 513f af70 724d 90e9 5ebf
000002a0: c535 ba94 6b97 303f 2938 9b5d c327 103f
000002b0: d21e 8422 a028 543f ba42 3a94 9d33 483f
000002c0: 7c3a 21c4 675b 353f 686a ad81 ab62 283f
000002d0: 6bb4 d3f4 3fb0 673f b7f7 6ba2 f24a 673f
000002e0: 2a8e f5f5 36c4 41bf 88a0 692f 601b 573f
000002f0: 5c24 fc83 de3a 52bf a7cb 3621 4853 0f3f
00000300: 287b 85d2 6b12 563f 6aed 29b4 f929 4e3f
00000310: 5b7f 67f4 b8de 323f 543b c4f8 45e3 443f
00000320: ebe9 a5db da07 483f 7dcd 23fd b1fa 54bf
00000330: 23a5 6a0a 421c 4a3f 6840 10e0 f3f5 50bf
00000340: b794 73eb 3996 50bf 88a8 a577 1635 413f
00000350: e7b5 7ecd d7f3 4bbf a2b8 5a8c 1fb6 483f
00000360: 69bb 6ad1 6cb2 663f 5354 d4f7 300e 43bf
00000370: 9ab5 335e 9ca8 38bf 9a1a 8e70 f4d7 363f
00000380: f23e ac6f 960d 403f dd8e 7347 9011 30bf
00000390: 0842 7b79 e0e9 48bf 9c3a 62ab ac0a 4d3f
000003a0: df16 29b3 c2f0 523f 34e5 7795 c499 613f
000003b0: 7671 cc2a 3011 443f fc19 5962 44b9 653f
000003c0: 34b1 eebe 5dfb 523f 3cc8 e971 488f 4cbf
000003d0: c1e5 fd48 32e9 623f 6282 b282 c296 363f
000003e0: e085 0f29 a05a 4b3f 2a0b 734f 147c 453f
000003f0: c8ba 1474 477f 453f 2587 e180 cbd6 573f
-0.0001241631155074276 0.0017489039136564064 0.001006500448341882 -0.0015433879084644144 -0.0002594047972721155 0.00017355139725183573 -0.000431812421559955 0.001666396679407898
0.0006623218424388377 0.0014648149669955004 0.0008554143467980189 0.0009857580323255621 0.0016552811649176579 0.00012541049331106057 0.0002764283825272504 0.0004236790243162587
0.002978308546062316 0.0018069450601433975 0.00035889933444439826 0.0021798370455335175 0.0011828009284357744 0.0006505226865082036 0.0004709596830380736 0.0010219949970486754
-0.0018403702107316485 0.0005398118307335992 -0.0004621765952988525 0.0005236483420009979 0.0002145350936699202 -6.875704811592012e-05 -0.00027817380369394125 0.0015834700200694234
0.0010321226309129789 0.0011630137075427538 0.00014808124922082935 0.00015579667215190535 0.0002798967105809988 0.0010721361901711922 0.0022887341257613074 -0.00010641672944473352
2.2566888342846285e-05 0.0022716137908017214 0.0011833973827298202 0.00501700284669922 9.913215700120641e-05 -0.0007289649878532422 8.969453976962307e-05 0.00036785164775022974
0.0010514178558317009 -0.0008589375920498205 0.0009503658605716736 0.0005412532689289576 0.0003949111205673386 0.0018524411473327235 0.0005603079406630143 0.0016457644382109116
0.0003959253924428507 -0.001457458676186885 0.0016487572211347076 -0.0004724830291952429 0.004447602716864963 0.00010940669309181535 0.0009594778339244901 0.001788453826478293
-0.0012185402979624593 0.0017875655025928955 0.00047663941895261094 0.0011215079335169143 0.0009546249248476741 0.0005145107046143475 0.0008973865155069167 -0.0006755893777185509
0.000928217919556485 0.0018293646989193794 -0.0005898934961920679 0.000656096130852538 3.5489321566593115e-05 0.0004790870847306157 -0.0009751475860607937 0.0004873836352434722
-0.000716024767420772 -0.0002920083512952129 0.0010826590012035526 -0.0018867406086320695 0.00025316597450672176 6.16276733140525e-05 0.0012303890053448241 0.0007385749272135957
0.00032588275292236963 0.00018604606233448289 0.0028916596553388205 0.0028433550791069034 -0.0005421894419836472 0.0014103354748389602 -0.0011126683238578327 5.9748305058524805e-05
0.0013471653893117417 0.0009205312019981264 0.0002879334973879732 0.0006374446543605341 0.000733358253725056 -0.0012804735347885226 0.000796825643950037 -0.001035202178403716
-0.0010123792288195107 0.0005251273826563244 -0.0008530429577057714 0.0007541326565012783 0.0027706265785449225 -0.0005815257169695755 -0.0003762609250788862 0.00034856527104702164
0.0004899010230889607 -0.0002451874965585363 -0.0007603021685672071 0.0008862822640070714 0.0011560345998459715 0.002148517563679642 0.0006124005500143654 0.002651818812213989
0.001158563183461925 -0.0008715728507253727 0.002308462346203938 0.00034467934410468113 0.0008347780259294023 0.0006556605502726399 0.0006560419934994116 0.001455019697026613
