ResNet-18实现CIFAR-10图像分类/sever copy/Experiment3/model2/bn11_bias.npy (npy, 2128 bytes, 1 tensors)

array f8 [256]
-0.0009619656992561573 4.7371773842349653e-05 0.0010206661564156141 0.0020321169652918625 -0.0010323046974050631 -0.0021931778344263346 0.011102259154304527 -0.000356355772272439
-0.0009623784247260444 0.0024531825017376223 0.00044329897203920505 0.0004636705564853553 0.0022995546511085305 -0.0010203456879743032 0.0033032856138084437 0.0021133229898603104
0.0012868770322141956 -0.0013299681820563868 0.0006001217946561176 -0.00036855955778207516 0.000401404053665745 -0.000801470021899587 0.00010767865365941931 0.0016451274346591255
0.0007395372534631008 -0.0021524424125235987 -0.0012295303315333769 0.0005410728694490828 0.0018423347672869058 -0.0011524423760475133 0.002755441130533 -0.0009590642873518715
0.0006533713269871167 -0.001248467661459385 0.0017078156647292615 0.0010827594458292782 0.0005026878702335765 -0.0006844061182613037 0.0009361499592319998 0.0022401291501006177
-0.000599577315376078 -0.0013956987503713281 0.0001288472188887423 -0.00212133753590538 0.00013341699504121178 -0.0013973692028160728 0.0014421867129464502 -0.0014422174792624821
0.0016109600604079031 -0.0003275633927240551 -0.0020247204336400417 0.0018755494122285785 -0.0003610020829205001 0.0005823197020897861 0.0019763277096108726 -0.002047318701616414
-0.000978286238723207 0.0011227098780166333 -0.0006916358739182582 2.0474196720123316e-05 0.0011858874382808318 -0.0003577183777570422 -0.002343738467505874 0.002230235289323544
-0.0023627681300184317 0.00047920909481604794 0.00048132262287197027 0.0011568525809917216 0.0024348392850992743 -0.0003633927832766454 0.000520790357714753 -0.0011920863894901226
-0.0010363720046391975 -0.0037041848809878436 -0.0018201672301141726 0.0007167207810296916 9.273257375326809e-05 0.0013393555409424566 -0.0002890804419950038 -0.0004216360250245331
-0.0014585564268850416 6.8709767230538e-05 -0.0016064587046230503 0.0006789262961973871 -0.0011904107747442035 0.002397989297868219 0.0005435268452452718 -0.0006664607547661937
0.0012008948188647894 -9.058274854060558e-05 0.0009682569549942068 0.001039006311696951 0.0013780220003894764 -0.0010600173809515467 -5.6352242680949946e-05 0.0015637899786653511
-0.0011871567023786249 0.0012201108190278407 0.0006789500019521753 0.0001643155977650766 -0.00012937345368955393 0.00033895900214549434 0.0023513666217856778 0.0009398342104187795
0.001738240711174297 -0.0012996849762621412 0.0004977334427940399 0.0015530078222577238 0.000253425285083531 0.000655112537399786 0.0006488803839244988 5.3276664319361365e-05
-0.00032736684543147943 0.0007517773701255148 -0.001081417022268542 -0.0005038623177535884 0.0015172258494024293 -0.001701277522560822 -0.0011149138591007974 0.0005108400466167352
0.0010284685545845196 -0.001479221703321324 0.0033572068751120303 -0.0014782434708346805 7.792099997111213e-05 -0.001617993634752539 -0.0005885559543180671 -0.0019673764411670598
-0.0014333617695842515 0.0009107724678720679 0.001954803994960806 -0.0001058250044655724 -0.0024941174049008478 0.001190555096595906 0.001630861088193259 -0.0017638482335192922
-0.0012880210191132185 0.0018837909206665432 0.0008494022423042265 0.00012433608402957769 0.0004111255559125149 0.004571272540454575 -0.002016909400377913 -0.001721102643570515
0.0007012845770933944 -0.0004381931950145313 0.0027873173401669546 -0.0007560651943031228 0.0010026423216164943 0.0007276030693974197 -0.000246914936479606 -0.00044510830769080555
0.0004903755868688566 0.003556143293483167 -0.0012445218375926814 0.0008268334576046006 0.002743955962212492 0.0006208819250660612 -0.0009411919657285447 0.0017790889619999045
-0.0018502139790145312 0.0019404306487291992 -0.00041690433936022813 -0.0012508389862054081 0.0019506358559403664 -0.000880503865421679 -0.0004938365461662194 0.0005123656870046034
0.0011417164767751657 -0.0019139794797169523 0.0019752748197080514 0.002000622389217208 0.002183414122308149 -0.0006246299091231837 -0.0014577665616420329 -0.0004141721150953666
-0.0004096438633305789 0.001354209830403148 -0.0006268976337670884 0.0002982773999670134 -0.0017970604714711684 0.0002749391460251107 0.00017285476465301675 0.0004650707861144142
-0.00104880811179948 0.0007522952473919716 0.0009869961647110703 -0.001385289606367157 0.0002951922176215346 -0.00040988364717558026 -0.0022796917054220636 -0.0015133441394149384
0.0015894811786665323 0.0027531261704916185 0.0007514194636353215 0.0022578593855810806 -0.0003783259457912816 0.0017772344528647135 0.0007163536858122449 0.001803322835315899
-0.0010041355623611335 0.003480238818789321 -0.001234602867588175 0.0006177538281291648 9.378898954189041e-05 0.0025201584308795198 -0.0016046617299078718 -5.6841502124650954e-05
0.0013237461220779623 3.545212466344603e-05 0.00016553028133112462 0.0014122632578289756 0.00032994798592299074 -0.00119520081452229 -0.0006540405311145961 0.001020425391858796
0.0004256605178887197 0.0032472168396987895 0.0010565240362794264 0.0004745512661774101 -0.0006374222491976811 -0.001551871342536593 -0.0015592335544478955 0.0006197822605137396
0.0025695374250603144 0.0008168464347278891 0.0031601740280161688 0.0006912477658669436 0.0008837606790320397 0.0005508021124467996 -0.0028183048338969283 -0.0012995463267383763
0.0005851521137145136 -0.0011732655324427183 -0.0015816580812355423 0.0025280188151169856 0.00014024987197313102 0.0015122461031356878 0.0017381488376114 -0.0016297206309099062
-0.0010227923384579876 -0.0011724330072837878 0.00021443100090688054 0.001130338893821356 5.544976166918254e-07 -0.0014466979483537873 0.0006930647239757014 0.000666975068535824
-0.0004862053553282279 0.001129431106008365 0.0009894090731014224 -0.0008536101505390129 -0.0003444577246680844 0.0011847975642020028 -0.0011598388273537938 0.0007596264885378652
00000000: d449 ed9b 8d85 4fbf 8524 58c1 21d6 083f
00000010: 259c c3f0 fbb8 503f 64db 0a7d a8a5 603f
00000020: 0519 8dba cce9 50bf 586f 5762 6df7 61bf
00000030: 46ec d5ff c7bc 863f b517 3d63 a85a 37bf
00000040: f34c 27ee 0389 4fbf c1f2 b653 b218 643f
00000050: ce97 5696 520d 3d3f de21 50e0 1963 3e3f
00000060: f034 b300 84d6 623f a8d8 11d7 a3b7 50bf
00000070: 0eec c7f5 7d0f 6b3f cb20 13a4 f54f 613f
00000080: 01fe 1bb1 8d15 553f 0a8f 2f76 4aca 55bf
00000090: a331 a7bd 2faa 433f 0433 4f3f 6727 38bf
000000a0: e420 7148 714e 3a3f d43c 32c4 3743 4abf
000000b0: 5214 0c2f 313a 1c3f 452f e521 2af4 5a3f
000000c0: 2b98 ad28 b03b 483f 7603 96b8 ffa1 61bf
000000d0: c159 0e24 0625 54bf 6579 b723 d9ba 413f
000000e0: 13d4 b8e4 4f2f 5e3f 3396 3394 b1e1 52bf
000000f0: 848b 5531 9492 663f e931 dddf 366d 4fbf
00000100: f68d a33d e068 453f 6752 abf1 7374 54bf
00000110: cbf0 5d1b 19fb 5b3f 7d82 311a 6cbd 513f
00000120: d45c 3bfb d978 403f 8f1d 93f2 366d 46bf
00000130: 1d41 c2ba feac 4e3f db2d 082e e459 623f
00000140: 0fdc 007b 9ea5 43bf 1ff7 391f fcdd 56bf
00000150: 11e2 bf2e 65e3 203f 084d e56a c460 61bf
00000160: c40f c842 bb7c 213f e4b5 b2c1 fde4 56bf
00000170: 41c1 1331 f8a0 573f ecc6 0e3a 19a1 57bf
00000180: 2347 9331 db64 5a3f 5244 220f 9a77 35bf
00000190: 710d 7981 2596 60bf 51ae cdd8 9fba 5e3f
000001a0: cb8b d223 9ca8 37bf 79f0 c309 da14 433f
000001b0: 066b 20dc a830 603f a918 c6db 89c5 60bf
000001c0: 143e b1d9 3a07 50bf 8ae3 5f8d fc64 523f
000001d0: aeb2 c7ba dca9 46bf 2575 cf15 0078 f53e
000001e0: a0e3 e7f0 f86d 533f 1923 d0bb 8471 37bf
000001f0: b4a2 2f02 2d33 63bf 1634 2974 2445 623f
00000200: c933 167b 155b 63bf b3e1 e263 cb67 3f3f
00000210: 1f33 8fec 408b 3f3f a813 1b00 31f4 523f
00000220: 4670 3763 3af2 633f 3e9d a91e b8d0 37bf
00000230: 7972 f8c6 b410 413f a0b4 a303 f987 53bf
00000240: 3759 73f7 dbfa 50bf 8e80 821d 3d58 6ebf
00000250: b478 80ae 55d2 5dbf 1430 4e28 4a7c 473f
00000260: d014 767c 2d4f 183f 3a84 bf0f aaf1 553f
00000270: c20c 560b f7f1 32bf 6e27 34f0 e0a1 3bbf
00000280: 4329 c809 a1e5 57bf 860a 0cd0 0803 123f
00000290: d699 51e6 f951 5abf ab34 891e 3f3f 463f
000002a0: 464f 2ad6 f180 53bf 7f3b 89b3 f2a4 633f
000002b0: bd83 2d03 6fcf 413f b730 a992 add6 45bf
000002c0: 80fa 44fe eaac 533f aa6a 2fc5 e7be 17bf
000002d0: 6876 58fa 53ba 4f3f eec7 4288 e805 513f
000002e0: 9199 30db d793 563f 8a0e 00ff 085e 51bf
000002f0: 7fb5 a150 788b 0dbf f74b 3cb4 029f 593f
00000300: 0c7b 90cd 4b73 53bf fa91 2c04 84fd 533f
00000310: 1d98 e906 723f 463f b23e bc3c 8489 253f
00000320: 187d 5081 0df5 20bf 2dc5 32d4 c936 363f
00000330: cd2a ba57 2c43 633f 7ac0 4499 e6cb 4e3f
00000340: 29d3 73c0 b57a 5c3f d824 f61d 464b 55bf
00000350: 9448 f16d 4a4f 403f 675d a673 c971 593f
00000360: 3bc7 b84f c59b 303f 55bb 2f76 7b77 453f
00000370: 2d93 9403 3443 453f 031c 443f acee 0b3f
00000380: a6aa 19e5 4d74 35bf b8d6 f99b 5da2 483f
00000390: de62 9daf cab7 51bf c388 9516 b482 40bf
000003a0: a956 d8d9 b4db 583f e04a 88d4 acdf 5bbf
000003b0: 3632 03a4 4944 52bf 7228 98a5 3cbd 403f
000003c0: 7654 a4b3 b5d9 503f 1011 b735 4e3c 58bf
000003d0: 6a20 81b7 9280 6b3f be77 37d7 3338 58bf
000003e0: 2b8f 1096 306d 143f 7afd c46f 5b82 5abf
000003f0: 454c af49 2a49 43bf edd2 282f e31d 60bf
00000400: 00eb 1d7b f47b 57bf 9e7f 57fb 1cd8 4d3f
00000410: b06f 4f67 8503 603f 8268 adbb cbbd 1bbf
00000420: 7443 f715 8b6e 64bf 78c5 0dcd 8c81 533f
00000430: d060 70c2 53b8 5a3f 5ebe 989e 1de6 5cbf
00000440: a16e d509 5a1a 55bf 1297 6419 31dd 5e3f
00000450: d347 096d 4dd5 4b3f 020a 49d4 064c 203f
00000460: 71a1 33d1 8af1 3a3f 3468 ffa0 53b9 723f
00000470: 0a5c 3cfd c385 60bf 30ea 4ce4 d332 5cbf
00000480: e573 7229 cdfa 463f af7b 2171 a9b7 3cbf
00000490: 7016 3a9a 6dd5 663f c41a 3fa4 55c6 48bf
000004a0: bb87 c7fe 626d 503f ca9e 9ab1 93d7 473f
000004b0: 361c bb93 8b2e 30bf 2ffd ec9f ad2b 3dbf
000004c0: 5eb1 de8d 9111 403f c21d a7e4 c521 6d3f
000004d0: 6113 dd25 e763 54bf 4e6c 6f54 fb17 4b3f
000004e0: 76da d123 7e7a 663f b704 0bc8 5558 443f
000004f0: 6ed9 245b 4ad7 4ebf ee46 243a 0a26 5d3f
00000500: 1a36 f321 5c50 5ebf 72ec 4a8b c1ca 5f3f
00000510: dcfd cb80 7e52 3bbf a9bc 7322 667e 54bf
00000520: 4072 4a4d 8ff5 5f3f d79a 2aa7 33da 4cbf
00000530: f380 5de8 992e 40bf e17a 44ef 08ca 403f
00000540: 919d 75bb b4b4 523f 2b80 51d1 cf5b 5fbf
00000550: 024f 0a98 732e 603f 6177 77f7 9b63 603f
00000560: eb4c f787 f3e2 613f 189d 1184 c677 44bf
00000570: eaf0 46ed 50e2 57bf e4ab 72b0 a724 3bbf
00000580: 4aa3 fafe aed8 3abf 5284 bebb f72f 563f
00000590: 3d47 e06a cc8a 44bf b607 91ad 438c 333f
000005a0: 35bf 0cfd 6a71 5dbf 0444 fca3 b604 323f
000005b0: 5011 4e1f 0ba8 263f 795c 12d1 977a 3e3f
000005c0: 2bad 8e22 052f 51bf a198 03be b5a6 483f
000005d0: 8ae3 ea0f c32b 503f 666d 8263 53b2 56bf
000005e0: 3830 b4eb 8058 333f 40d3 1adc b4dc 3abf
000005f0: d564 3b2a dcac 62bf c341 87e5 6ccb 58bf
00000600: 0ccc 846b c40a 5a3f 0714 a65b b98d 663f
00000610: c657 cd02 5d9f 483f dd8b 0a07 137f 623f
00000620: 4da3 7c90 41cb 38bf 205e 8df6 421e 5d3f
00000630: 0f4c 93d3 3579 473f 8e15 8426 af8b 5d3f
00000640: 427c ab59 a673 50bf d847 16fd 9682 6c3f
00000650: 9a52 26bc 4c3a 54bf a2c9 903e 183e 443f
00000660: 0814 3c92 1296 183f 3ddf 52c1 27a5 643f
00000670: 2693 ab69 704a 5abf efe0 3524 23cd 0dbf
00000680: cdad 5c93 31b0 553f dae4 5fba 4d96 023f
00000690: 5c2c 254a 46b2 253f 78ae 5d20 7623 573f
000006a0: d466 15cf 9b9f 353f ff0d 461a 0995 53bf
000006b0: 2ca7 7f58 7d6e 45bf aa1a e86b f9b7 503f
000006c0: 875f e700 66e5 3b3f 5615 2544 e899 6a3f
000006d0: fd7f ba0b 624f 513f 804c 232b a619 3f3f
000006e0: b8e2 65db 15e3 44bf 029b 7b2a 056d 59bf
000006f0: 772c e247 e68b 59bf 2ce4 0f45 1c4f 443f
00000700: 5a80 9be6 b50c 653f 849b 8b5c 34c4 4a3f
00000710: 132f 3383 5de3 693f 7158 1f46 9ba6 463f
00000720: 202b 629b 85f5 4c3f 4f92 9e87 760c 423f
00000730: 5995 efe2 6916 67bf 9846 453e b14a 55bf
00000740: effd 8598 9c2c 433f b1ee d845 0839 53bf
00000750: b0ff de6e f4e9 59bf eba4 4ec4 a3b5 643f
00000760: 7c9e 0e3a 0162 223f 7939 9de3 d1c6 583f
00000770: a694 701a 537a 5c3f 748f ed33 8bb3 5abf
00000780: 2ad3 3be9 e6c1 50bf 8c00 135b 8a35 53bf
00000790: 1c9d b445 1c1b 2c3f f360 4525 fc84 523f
000007a0: 0028 7d27 199b a23e 1c0f 0618 e4b3 57bf
000007b0: d604 6829 d9b5 463f c95a a50d feda 453f
000007c0: f39b ab19 2cdd 3fbf aeff 746a 2d81 523f
000007d0: 3722 20e7 e135 503f 5f79 0dd7 99f8 4bbf
000007e0: 2ec1 8ca9 0a93 36bf 72a6 99b2 6669 533f
000007f0: 8461 4175 b700 53bf 1bff 7476 35e4 483f
