ResNet-18实现CIFAR-10图像分类/sever copy/Experiment3/model2/bn12_bias.npy (npy, 2128 bytes, 1 tensors)

array f8 [256]
0.0018579969671677164 0.0007142354184911096 -0.00033230719078132477 -0.0008923706998672614 -0.00046604374157923814 -0.0021214480300766826 0.00026132865950969335 -0.0005443823143128432
-0.0010517741337057356 -0.0008543586317541953 -0.000332518930322308 -0.0025944116999041594 -1.138971012664441e-05 -0.0007635644394896379 0.0020379003812137724 -0.0002764352913557195
0.0011694330495168196 0.00023053991125843772 6.615664985672927e-05 -0.0009095733968438372 -0.0007071583373242159 -1.0286333759541515e-05 0.0009133990543284107 0.0013769995610073147
-0.00037173574376586844 -3.5211585804270115e-05 0.001555503060139882 -0.001344690722765813 -0.00043969271178609224 -0.00039239517936326195 -0.00022769661336476054 -0.0003989473707880195
0.0015259603324909517 -0.00129143760958761 0.00024699093926277546 -0.0009266489493389477 0.0008988734465163714 -0.00015834696926090834 0.0019915318618762214 0.0005408596726037745
-0.002209399647429596 0.0009846355166515462 0.0003190851358571419 -0.000841682012501646 0.0009267109921357744 0.002073081525632488 -0.00039794088030125973 -0.0011993651041532969
-0.0005115147735940629 0.001092655043220727 -0.000678178802430346 -0.0008374041183806959 0.000968854187166026 0.0013618593550710472 -2.1281562710265203e-05 -0.0002309106580619531
-0.0011598890967198243 -0.0006281821662605477 0.001204258834359824 -0.000954311205299543 0.0003364294878741919 -0.0003602333066527068 0.000656811808676052 0.0009576229943593245
0.00079951510880064 0.0007965853048296837 0.0005361885906270976 -0.0014447904995075998 -7.868119328002624e-05 -0.00025235955654822674 0.00047332850472106043 0.0006120588104035362
-0.0009579031462261507 0.00036233651371291525 0.0004814118240942283 5.817851253379952e-07 0.0004842490931612691 -0.0001117489098757811 0.00024642042225433893 -0.000525278966183171
0.00036447897898157506 0.0017897005112671555 0.0007672282690251655 0.0007230306096918875 0.000248753838543188 0.001065128872449005 -0.000888963373045921 -0.0010094498079040463
-0.0008289446608947394 0.0004997809783410083 0.0008684510667805977 0.00010434568990245593 0.0012572943546625816 0.0013921204109585187 -0.0006660102930248353 0.00020773777649687707
-0.00035130864757925876 0.001576191352558522 0.000579079963114535 0.00021776489037691156 0.0004995469863846875 0.0006614547990900338 0.001197721141295221 0.0004280193642791498
0.00093309550001269 0.000536444182191115 0.0009347403591217344 0.001605124352334165 -0.0007251395112152191 0.001860137652499279 -0.00024249421704094877 -0.001452473935503334
0.0014181117163832684 -0.0002256221348945228 0.0005362739584949459 0.0010656840458499802 0.002773853128433524 -3.613251150597444e-05 0.0004482772248737609 -0.00021559221163476168
-0.00012238034780549556 0.0017652377070451243 -0.0010337364663153853 0.00017584962080496533 9.607655534197719e-05 -0.000920039468078334 0.00026712734503203775 0.000588279159479105
-0.0008845047127774985 0.0009366225073929196 -0.00016259938104889413 0.00034866207655868194 0.0021855445627955426 0.00017525696636495983 -0.0014692934251804997 0.0012052694528015425
9.226534426073353e-05 0.000210835812319566 -0.0003025752972859703 -0.00012885942908474456 0.0005345142276169416 -6.0866341364474505e-05 0.0012371606651431345 0.0011974456725446652
0.0016486092939645809 -0.0017271448519007356 0.0014418147711199821 0.0007373937807759025 0.00039887856494671807 -0.001272670248778708 0.0002522701537298888 -0.0002756963098367201
0.0006577403968737666 8.119500445669777e-05 9.36395144808869e-06 0.0014855812529920628 0.00023737749242373293 0.0021915385448985332 -0.0010286833788617938 0.0009538310310110029
4.378976179647232e-05 0.00100000833754631 -0.0013476602644589442 0.00010554980131549023 0.000955814676372145 -0.0003338116257254431 -0.00043155523471274704 -0.0012257202700763827
-0.00018274220219773477 -7.046558882692073e-05 -0.0004715523693379781 0.0009370615620860374 0.00011303164762041595 0.0012227322956425116 0.001121439725269024 0.002353883150806763
0.0008191795299306371 6.434827525578466e-05 -0.0014424139533459007 0.0006955864539293002 0.00014474968482170337 -0.0004146580487721043 -0.0005410622628491975 0.0020126629580702713
0.0008520229762755676 0.0007898825716700151 0.0008682123489068755 0.0013467010334598912 0.0003788593623741661 0.000242504363257147 -0.0016260042910671163 -0.0010303581122870031
0.001901204147252713 0.0012659299254749222 -0.0006973104678958526 -0.0009681020991507026 -0.0005690816491277973 0.00014443367147674445 -0.0012787896604312219 0.0009300068470476155
-0.0016716664965354766 -0.0004019702523558929 0.0018608964775519092 -0.0008689018459137747 0.0014419640192441727 0.0015889403768201114 -0.0002076334369257769 0.000552343177485028
-0.0017219938488843075 -0.0005067461443994292 -0.0002113196877960003 -0.0006678700814484629 0.0010311560103830853 -0.0012591717073771357 0.0012486089515896448 0.0003767071879123786
-0.0008423434567434274 2.766102681641597e-05 -0.00040012257076107863 0.00044995168204353295 0.000376179151041836 -0.00033739160527793865 -0.0010265015316050848 0.00024066243792796713
-0.000542238348904755 -0.00025321009993488624 -0.001277056013683073 -0.0005883218604788745 0.00014907822875293527 0.00046113962139400375 2.1434355903620558e-05 0.0009611691973394782
0.00039981605870586785 -0.00032745748644870393 -0.000590053817235765 0.002327361326366443 -0.0001457008801297936 -0.00019156131332794007 -0.0003341807511149643 0.001982258527842558
0.0009824290336373012 -0.0014581897053567393 0.0006691226800485074 -0.0003404593278475583 -0.0003102826106790407 -0.00045012173257332004 -0.0009204504006248971 9.175486941374563e-05
0.0004354340829868749 9.372057459071071e-05 -0.001396575124670008 -0.001411061038652142 0.0017975380407960235 0.0005312206169689421 -0.0010915325145348538 0.0007471987551227152
00000000: 2880 710d 0171 5e3f f9da cce1 7067 473f
00000010: f8f4 4184 30c7 35bf 6134 657c bf3d 4dbf
00000020: bd29 eba0 ea8a 3ebf 7156 19bd ff60 61bf
00000030: 6151 cd0b 5e20 313f 4573 451e 9cd6 41bf
00000040: 4f6c 73e0 753b 51bf b0c7 f330 e1fe 4bbf
00000050: ea52 58ee bdca 35bf 0e0c e92c e040 65bf
00000060: 6e6d 14d7 cde2 e7be 2937 e325 3e05 49bf
00000070: 1399 ac6f c9b1 603f c45a 2c89 d01d 32bf
00000080: c45a f62c f528 533f e0b0 30c2 a237 2e3f
00000090: 2ab6 1697 b257 113f 2ca0 12ff 0dce 4dbf
000000a0: 3a8a 48f7 122c 47bf 9ef5 6cf2 6e92 e5be
000000b0: f34f 8488 25ee 4d3f 8447 3105 8e8f 563f
000000c0: 2604 bbdc b05c 38bf 199e 31e0 0476 02bf
000000d0: 8e8e 6ab1 407c 593f b762 5cab 0a08 56bf
000000e0: e3d5 41d1 d1d0 3cbf d9a5 6476 4cb7 39bf
000000f0: e7e1 ff03 3bd8 2dbf d255 0de9 3925 3abf
00000100: a251 466e 5700 593f 057c 1293 ae28 55bf
00000110: 97bb ac01 d22f 303f 2c11 5577 4b5d 4ebf
00000120: e902 2c07 4c74 4d3f 93d5 d91b 3ec1 24bf
00000130: 7104 e786 8b50 603f b3f0 824d 0fb9 413f
00000140: de18 5867 7219 62bf a37e eb55 dc21 503f
00000150: 031b 2039 5ce9 343f e656 d15b 8a94 4bbf
00000160: 8876 b8b3 d05d 4e3f 4456 582b 91fb 603f
00000170: d903 0f11 5714 3abf dbc7 7d79 80a6 53bf
00000180: cd45 ac9c e5c2 40bf 70d5 4a6b ede6 513f
00000190: 01df 7de3 f938 46bf 914e a7a6 a770 4bbf
000001a0: 134a 3486 56bf 4f3f f8f3 1259 0d50 563f
000001b0: edcf 83da b950 f6be 0476 0873 1344 2ebf
000001c0: 028a 316f ed00 53bf 591e 15ee 9295 44bf
000001d0: 20c2 ce13 07bb 533f 1634 5fb5 5745 4fbf
000001e0: 852a d8a5 590c 363f 2779 6045 b69b 37bf
000001f0: 1330 739e bc85 453f 9470 a9b8 1f61 4f3f
00000200: 27bd 5a9f d132 4a3f 367e 96ea 3d1a 4a3f
00000210: 11a4 093b e091 413f 702b 7afc e3ab 57bf
00000220: 7f3f 989b 34a0 14bf a41f ce0a e489 30bf
00000230: a1d9 b272 2205 3f3f 8ff1 7549 520e 443f
00000240: f288 c757 7963 4fbf 5bc3 fe79 ffbe 373f
00000250: 4728 570a c08c 3f3f 10d2 3505 7f85 a33e
00000260: 79b9 ab04 5abc 3f3f 1fe8 32a7 574b 1dbf
00000270: f011 97a7 3f26 303f b580 92fd 5b36 41bf
00000280: ce5c 784b f1e2 373f 31fe 974a 8c52 5d3f
00000290: c5ce 7929 fa23 493f c70e 4c69 38b1 473f
000002a0: 50a1 ee99 654d 303f 959b 156b 7973 513f
000002b0: 085d aa4e 2a21 4dbf 8797 5c7a f089 50bf
000002c0: 7ce2 b71a b129 4bbf 6a7b 837a 7760 403f
000002d0: e034 0a77 1875 4c3f be9a 6c4d 855a 1b3f
000002e0: b945 9f88 7999 543f 963e c7e8 f9ce 563f
000002f0: 811c b336 e6d2 45bf 8dc3 92e9 853a 2b3f
00000300: b99f f326 fb05 37bf a23c ef93 06d3 593f
00000310: b9a2 6dc0 acf9 423f bf7a 2e2a fa8a 2c3f
00000320: 1041 13fc 805e 403f 6c82 6c5d afac 453f
00000330: b1fb 6b48 9b9f 533f f82e f02b f90c 3c3f
00000340: e671 0b54 5f93 4e3f cf67 fc1b 0594 413f
00000350: 7426 e7a2 2ba1 4e3f d1bd 5a26 614c 5a3f
00000360: e0a3 2b3e e9c2 47bf 54f6 8b98 fb79 5e3f
00000370: bf23 9c76 c1c8 2fbf b128 4803 1ecc 57bf
00000380: b085 69dc fd3b 573f 47b0 9961 9f92 2dbf
00000390: b7f2 848e 9792 413f 9da2 fc87 cd75 513f
000003a0: 6893 0e0f 31b9 663f 2122 55a4 9ff1 02bf
000003b0: 6542 3705 d860 3d3f 67c9 19ff 1242 2cbf
000003c0: a6c9 d82e 670a 20bf 15d3 2b8e f1eb 5c3f
000003d0: 0d45 3114 ceef 50bf 844f a1bd 880c 273f
000003e0: d64a 05a7 962f 193f e01d 95b6 d925 4ebf
000003f0: 15ac f535 a781 313f 68df 1ce0 d746 433f
00000400: 85c1 4268 c3fb 4cbf 948c db84 f5b0 4e3f
00000410: 22cf 430c ee4f 25bf 743e 5737 94d9 363f
00000420: 3d1f 7a4d 6be7 613f 22ea bbe0 a5f8 263f
00000430: 4673 66cd a912 58bf 4658 7d38 44bf 533f
00000440: 67f6 6b8b d22f 183f 1bd8 64d6 79a2 2b3f
00000450: cec9 a401 5fd4 33bf 6027 4111 cee3 20bf
00000460: 18ff 3c90 d483 413f f539 9090 57e9 0fbf
00000470: 3920 3026 0745 543f 45f2 2580 739e 533f
00000480: b1e9 17c0 c402 5b3f 182c e1a9 2b4c 5cbf
00000490: ea84 7cd2 689f 573f 683d 1b16 b529 483f
000004a0: e2c1 3a64 1224 3a3f 39d5 3646 f7d9 54bf
000004b0: 00ea 5d0f 6488 303f 2d81 66a2 6a11 32bf
000004c0: bdd9 35bf 868d 453f e9e1 118e e748 153f
000004d0: c1a7 f8af 3ba3 e33e 98ee 6ab9 fa56 583f
000004e0: 5335 2f22 111d 2f3f 3aba 1a4c fdf3 613f
000004f0: caf0 165e 9cda 50bf 8ddc c38a 5041 4f3f
00000500: 269e 2ec2 5cf5 063f ce53 c0c6 5662 503f
00000510: 4d1d c430 7f14 56bf 305e 6cc7 53ab 1b3f
00000520: bfc6 5563 f451 4f3f b8d0 f803 6ee0 35bf
00000530: d521 989e 4b48 3cbf d861 561e 0b15 54bf
00000540: a152 6790 cff3 27bf 38d7 1799 dd78 12bf
00000550: 1543 3101 56e7 3ebf 254f ba61 a4b4 4e3f
00000560: 3918 76eb 6ca1 1d3f f2d5 2dce 8208 543f
00000570: 3120 72bc a85f 523f 0e9e d764 7348 633f
00000580: 3e89 32a5 c6d7 4a3f b3f8 7bf3 56de 103f
00000590: 694a 7130 eca1 57bf b0ff 1b89 00cb 463f
000005a0: a420 2853 fef8 223f 9d03 2dc2 ce2c 3bbf
000005b0: 113f ad5c c2ba 41bf 5927 a632 dc7c 603f
000005c0: fa0d c668 49eb 4b3f 3c7c 10e8 03e2 493f
000005d0: be3b 80d2 1773 4c3f b655 5b39 7910 563f
000005e0: e4e1 3892 34d4 383f 6a13 609e 18c9 2f3f
000005f0: c5e2 35d0 f4a3 5abf a9e7 4e99 a2e1 50bf
00000600: 3d8a ab68 3a26 5f3f 1498 40e8 b1bd 543f
00000610: 778a cfd3 76d9 46bf 98fd 716d 07b9 4fbf
00000620: af5a 2f89 cda5 42bf 684d 76ca 63ee 223f
00000630: 2ded 47f1 a1f3 54bf 35bd 1e7f 7679 4e3f
00000640: a913 ad3b 7a63 5bbf 6040 7c16 f157 3abf
00000650: 63f7 c960 2a7d 5e3f 7f36 7d81 e078 4cbf
00000660: e096 7f13 09a0 573f f503 0abd 7f08 5a3f
00000670: b212 6ea4 0537 2bbf aa71 15f1 6319 423f
00000680: 9da6 f3d0 9036 5cbf a485 0c0f e59a 40bf
00000690: bac3 d14b b6b2 2bbf 9ab9 3214 80e2 45bf
000006a0: 71e8 dd55 fbe4 503f 8f2c 6853 59a1 54bf
000006b0: 5c5a 34a7 0b75 543f 9c5f 600d 19b0 383f
000006c0: 679d a2cc 169a 4bbf a418 ef49 3301 fd3e
000006d0: e661 165b f138 3abf ba1f 58c2 ef7c 3d3f
000006e0: ff88 b226 3da7 383f 87fa 1de9 7d1c 36bf
000006f0: 9d7f 7ba0 75d1 50bf f9ce bd99 4a8b 2f3f
00000700: 95cb d2fc 9fc4 41bf 3213 2619 2998 30bf
00000710: 5b69 1774 5cec 54bf 9c54 3c93 3347 43bf
00000720: bb98 ec3b 3c8a 233f e93c c097 a338 3e3f
00000730: de78 ccb8 bd79 f63e 9510 5e22 df7e 4f3f
00000740: cac7 84e5 cc33 3a3f ffe0 f331 d375 35bf
00000750: 3d3c 88ec ba55 43bf d508 0c99 d410 633f
00000760: f082 c207 e918 23bf 0a4a df26 bb1b 29bf
00000770: ee3b a165 9fe6 35bf 77df 93f1 183d 603f
00000780: a0bb 7c24 9b18 503f 6bc0 2246 17e4 57bf
00000790: d89c 8f03 02ed 453f 2bd1 c0ad f54f 36bf
000007a0: c29a 56aa ad55 34bf 0f09 e11e ca7f 3dbf
000007b0: 7c9a 232f 4c29 4ebf 184b 4da7 900d 183f
000007c0: a8c1 5f25 5f89 3c3f 1beb 1836 7b91 183f
000007d0: 02cb 281f a9e1 56bf 3ffb df40 6b1e 57bf
000007e0: 0d65 4ec6 6b73 5d3f d2c6 a296 3368 413f
000007f0: cbe7 f41c 38e2 51bf df32 c21b f57b 483f
