ResNet-18实现CIFAR-10图像分类/sever copy/Experiment3/model2/bn14_bias.npy (npy, 2128 bytes, 1 tensors)

array f8 [256]
00000000: d2e0 efe2 5d80 0cbf 9c06 6281 c293 353f
00000010: 69c6 f34c 2a6a 483f 9d6f 47df 00e0 4d3f
00000020: afb2 52d4 05b3 193f 0a2e a479 7e59 3d3f
00000030: 9c20 9c38 1933 3bbf edb6 b82e 32f3 42bf
00000040: 687b 1c2b 7efc 3d3f 633e 587e 214c 26bf
00000050: 0560 1a7f 77a1 48bf 2413 c407 53b1 293f
00000060: 7a68 2d63 0550 0abf 0e04 c43d 31c0 36bf
00000070: 69f4 017a 76f1 383f 167b 9cc4 bc4f 3ebf
00000080: b921 35c9 283e 43bf b458 8f88 dc0a 3cbf
00000090: cda2 2a5e 7846 423f 1698 17dc 6262 ffbe
000000a0: 2a91 6222 bc4e 0a3f 3290 1934 d2c4 613f
000000b0: e09a 35c7 cff5 5dbf e1b9 15f2 1492 4ebf
000000c0: 864e ac2e 51f6 353f 16a8 24ea 7e08 283f
000000d0: 24a1 527c efa4 4abf 44ca 9eb3 f8f7 44bf
000000e0: ea21 16f6 90c6 323f fb1f fd35 2ba6 3bbf
000000f0: 85c3 b798 d1e9 3a3f bbbd 1ad1 1174 30bf
00000100: ee25 03f8 ae5b 4b3f 12b4 6a6d 29fa 26bf
00000110: daca 827f b83b 33bf 2cb5 00b4 4d5d 503f
00000120: 3584 5ffd 5374 54bf fa23 2946 e2eb 3bbf
00000130: 29c6 9733 0a01 503f e72f 4385 49e3 353f
00000140: e0a7 4b07 3e14 2abf 9304 5943 78f0 273f
00000150: 9c68 a3b0 2c2f 56bf 8994 4e7f a7c2 453f
00000160: 65b7 532a 5021 573f 8cde 2133 afe0 19bf
00000170: 9f54 5803 e7e8 56bf f052 8b54 6582 3a3f
00000180: def3 c955 573d 4f3f ba08 dfe5 256a 453f
00000190: 1d5f 08a4 596b 2abf 35b9 cbf1 78e9 44bf
000001a0: 1e23 fd19 e701 1d3f 4af1 4456 150d 3ebf
000001b0: b22f 0b10 d748 36bf 2cb6 86be 6356 643f
000001c0: a422 5cab 282c 423f 0fc8 f372 270f 4a3f
000001d0: 0ce6 1d8d a8aa 2b3f 0c64 47df 4933 59bf
000001e0: 4f6a 0d87 cd10 503f 9545 e9fd 0c73 54bf
000001f0: 72f2 473b 948e 4ebf 9565 1cb0 03ec 5bbf
00000200: 7e1d 3f39 ef67 343f b9f1 b4dc eaf4 42bf
00000210: 9657 a7f4 cf3f 253f 7dda 4e73 1ce5 59bf
00000220: dbc6 8e8c 60ce 303f be78 5ac4 e03b 2cbf
00000230: d8fe 6997 d8f6 443f 0db7 596c 354e 513f
00000240: 3d34 3b09 dc37 39bf ddf2 4623 b114 4cbf
00000250: 0aeb 95ef 6566 0e3f df1d 5ffc c3bd 24bf
00000260: ed63 9e04 1dd9 4cbf 3f82 e802 aea1 503f
00000270: 91ab 8358 5fdc 37bf 8949 f041 6ebb 58bf
00000280: d6f4 4223 67cf 273f 93fd 1454 c8f8 5b3f
00000290: 02f4 e38e dbae 2b3f 9676 6bb7 ce1c 233f
000002a0: 59e9 dda3 8e44 47bf c36f 54c9 c920 37bf
000002b0: acd0 060d c806 2f3f f096 71c7 5e32 31bf
000002c0: 8afb 8f56 467b 42bf a7bb 7741 026e 56bf
000002d0: 0e95 498f d4c9 28bf a153 1040 2f7f 44bf
000002e0: 01a9 9001 9d38 50bf e0ce 38ce bac6 c2be
000002f0: 016d 2e92 869d 1d3f c2f2 377c f20a 583f
00000300: c93e d012 f6f5 533f 2e46 6f2c 5550 513f
00000310: 9164 9f3e 1b26 473f 82f9 13fd 64bb 04bf
00000320: 615c 7d9c ffc5 51bf e1c3 ac33 6e59 4e3f
00000330: 233c bce7 0404 53bf 2541 0705 bb07 57bf
00000340: 7245 93e1 3411 20bf 8afd 660e 4a8f 593f
00000350: fb26 80ce 5ab9 49bf 1c2f 152f 2793 47bf
00000360: 6727 0779 0b69 343f 622a 7a1a 1168 533f
00000370: fa20 8cb6 81e8 4cbf 36c9 18d1 ee53 3cbf
00000380: a036 9b0a eec1 273f 6a39 8887 1314 36bf
00000390: 7f23 c771 81a8 27bf 126a 4c04 1899 5a3f
000003a0: 2c60 0157 fa72 073f 1446 19ad 1081 573f
000003b0: 19eb 79d0 bad8 42bf a93c 51ea c702 22bf
000003c0: fe5a 723a 7a02 173f 8947 a89b 7966 453f
000003d0: 8f62 e7ac bf70 01bf c9af 54f9 eacd 04bf
000003e0: ba05 6e1b 859c 383f fdb6 c902 7de5 393f
000003f0: 36d1 9c3d 0135 4f3f e486 f21c 9c73 43bf
00000400: 2cf5 c275 ae56 3d3f 5a54 f86a 3636 453f
00000410: a8a3 7605 4e47 3a3f 7fbe 08dc 1112 2ebf
00000420: 64fe ef06 05a0 4d3f ccb8 987c 4063 453f
00000430: f34f 561e 9a61 3d3f c2e2 716b 41a5 38bf
00000440: 067e ee1a 69e7 25bf cb14 3ce9 fe01 5c3f
00000450: 924f 6b04 d482 1dbf 1c47 3c34 42cd 423f
00000460: 8d8b be3e 409b 553f dce9 14c3 814d 2ebf
00000470: 453a dd4b 4c8c 47bf c6fa faf6 b4dc 503f
00000480: 6ae8 aff2 7fd0 53bf 1aae 6e23 6ae4 343f
00000490: 3d8f 64f1 35fb 35bf 330d a898 a77f 2abf
000004a0: 7758 25f9 4e5e 493f 44bb 4696 065c 183f
000004b0: e8e4 0e4b 4783 563f 291e d5c1 0915 fc3e
000004c0: eee4 4c28 e49c 21bf 9022 c656 25ec 42bf
000004d0: 3bbb 7011 db71 263f a29a c72c 9401 213f
000004e0: 8296 ed6a 1ec3 613f 1c17 4692 5e80 43bf
000004f0: ad69 d320 8590 05bf d1ed 7e60 00fc 21bf
00000500: 3257 c58e e261 5b3f 91bc 6321 9b5c 4abf
00000510: 15e9 28da da35 44bf a17c eecf 33c6 32bf
00000520: c107 3c55 85dd 513f d8ab 210d d239 45bf
00000530: f266 90a2 23e8 3d3f 159d a7d7 92fa 3f3f
00000540: eae2 dcbe a4f2 3abf ff51 78b5 516d 213f
00000550: 4099 80a9 5cba 20bf 108a ab91 a9a0 5b3f
00000560: 7a3d 122a a4c2 373f 711a 3f2d 074c 4e3f
00000570: 3f4b be24 0b11 26bf 2edc d08f 9072 44bf
00000580: c76d c883 1d7e 603f 2b65 bd57 a555 393f
00000590: 1424 692c 2d99 583f 8b49 fc40 d7bd 473f
000005a0: 1467 fd13 d1ad 163f 4b4b 4c32 0c1d 42bf
000005b0: 849b 6aa6 a08a 4b3f e706 ad2d 192d 35bf
000005c0: caa4 5421 6a21 533f dbe6 e593 59b9 4abf
000005d0: 00b4 5c74 5999 6f3f 8516 7a68 d92e 3ebf
000005e0: a39a 5dc3 c2d2 2ebf 8b2d 75e0 28c1 41bf
000005f0: 9291 ddea 8ef2 553f 63f5 6e6b e960 04bf
00000600: ba4d 693b 89a2 5a3f cb64 b1df bd26 403f
00000610: 20e0 fa8c 90c5 433f a115 84fe 489b 5ebf
00000620: 9222 4af1 3424 633f 9d7e f1fe f7be 663f
00000630: d1c7 5d90 f0c6 353f 9c71 8a4e f763 2d3f
00000640: d06d dd68 976d 333f 66ea 53ef bbf3 513f
00000650: c789 4539 2a97 f53e c531 b0a9 fdd9 5f3f
00000660: fe35 d1c5 2bd7 1dbf 4cfa 66ea 4688 523f
00000670: 08e1 4910 d083 50bf 738c ac2a 2cb5 303f
00000680: ad25 ccfc 6fe0 363f b33b bef5 664f 383f
00000690: bb6b ae74 60f6 28bf e4d3 cd8d 57c2 273f
000006a0: 03e7 a951 0c69 463f e22c 8fac c463 3d3f
000006b0: 80f8 8f93 839b 2bbf ebab d81b 9283 50bf
000006c0: 21c6 aaec d6ff fbbe 0342 a866 8b42 50bf
000006d0: d971 4292 a2a9 543f a5f1 8c83 bf2f 503f
000006e0: d867 1d41 c68c 553f 8edd 0b5a dc1e 3a3f
000006f0: e246 acc9 4baa 16bf 20d8 5716 2e83 c4be
00000700: 13ef a4b1 2837 353f 72ad dd7f 0edf 2a3f
00000710: 2a01 141d ff6f 503f c1e8 6d7a f32a 45bf
00000720: c061 a31a 7112 41bf 2db5 6d60 14b0 503f
00000730: fe1a 204c b3c8 473f 10b3 8d20 79b3 38bf
00000740: 4480 ebf5 9ddc 433f 521d 2cdc a6b9 323f
00000750: 94b9 1649 5b05 623f e457 05ad 5104 3f3f
00000760: 9cca cc80 6e41 41bf e99f eea3 0998 4b3f
00000770: f215 bed1 947e 4b3f f269 0ce7 c0b8 223f
00000780: 9b2b f2fd 758d 383f f30b 5eb5 c910 41bf
00000790: 21ce 92cb ae5a 2d3f fad5 cb33 5b70 f4be
000007a0: 2de7 1064 06f4 45bf d1da be74 359a 563f
000007b0: d0da 2759 2155 393f 50ac a25c 38b1 513f
000007c0: d764 fe53 12e7 37bf 595f 8bef 6aee 4abf
000007d0: f327 9a0b 73f6 46bf 4b30 bf54 c5e7 37bf
000007e0: 2aa5 1abb 9e29 3ebf bc5d ad88 30ba 373f
000007f0: 6381 f0b5 2a2b 583f 26f2 bb02 04e4 44bf
-5.4362168491141374e-05 0.00032924173991242547 0.0007450777574417702 0.0009117130526265952 9.803507880929806e-05 0.00044783914349075303 -0.00041503301382351545 -0.0005783076316611936
0.0004575546291664596 -0.00017011555534950364 -0.0007516702155099258 0.00019601954034711392 -5.018726769519338e-05 -0.000347148916048979 0.0003806032418721185 -0.00046251638979015583
-0.0005872439527730345 -0.00042789348713990626 0.0005577171071609821 -2.9930420856326486e-05 5.017768516893597e-05 0.0021690469300654986 -0.0018286255916223834 -0.000932941653599969
0.0003351162146582948 0.00018335866213564704 -0.0008131188739257983 -0.00063991206774567 0.0002864936742175405 -0.00042189173654039153 0.0004106651983582443 -0.0002510589120942837
0.0008349041309198538 -0.0001753020830696233 -0.0002934766230381754 0.000998807794540933 -0.0012484379017154827 -0.00042604707974597223 0.000976810419498606 0.00033398194251499234
-0.00019896752532783026 0.00018264263205661612 -0.0013540207315175029 0.0006640737398028322 0.001411751066651112 -9.871548971484618e-05 -0.0013983016955354877 0.00040450071223334296
0.0009533573571186523 0.0006535229729183391 -0.00020156354186506238 -0.0006381836461437975 0.00011065457374316272 -0.00045854350016207425 -0.0003400349669788707 0.0024826000337359235
0.0005545805531435755 0.0007952635404804303 0.00021107966909621222 -0.001538107052615925 0.0009805686097112026 -0.001248133361191205 -0.0009325240885683218 -0.0017042194380735055
0.00031137075825112676 -0.0005785128391049755 0.00016211904069390594 -0.001580503257384485 0.0002564416614020245 -0.00021540755021915396 0.0006397779059880938 0.001056244059693015
-0.0003847992131625377 -0.0008569588595076189 5.7983384929868596e-05 -0.00015824334530932426 -0.0008803741159112401 0.0010151099519434407 -0.00036408736970255327 -0.0015095307096585095
0.00018165716176624683 0.0017072635967706237 0.00021120481637373906 0.00014581702608656007 -0.0007100769505392997 -0.00035290647913810094 0.0002367133333912632 -0.00026240171377476997
-0.0005640119026110041 -0.001369001582016452 -0.00018912048075773357 -0.0006255131448847825 -0.0009900601637676256 -2.2383079441248317e-06 0.00011297353607491249 0.0014674537677585174
0.0012183096944261998 0.0010567504666493355 0.0007064469366425842 -3.9543170382560895e-05 -0.0010848041728957136 0.0009261882872576532 -0.001160626211404788 -0.0014056516994181503
-0.0001225831081570861 0.0015600417333273297 -0.000785035456830146 -0.0007194463088721933 0.00031143694016277094 0.001184479429783857 -0.0008822091450335905 -0.0004322488831319972
0.00018125563410935786 -0.0003368899993184878 -0.00018049793369659045 0.001623414472482158 4.47256705917168e-05 0.0014345801213447905 -0.0005751526050084859 -0.00013741197941150488
8.777495405563535e-05 0.0006530851163139988 -3.326497027317687e-05 -3.9681180320577285e-05 0.0003755402535078018 0.0003951482965821455 0.0009523635919550858 -0.0005936157484891205
0.00044767150189868837 0.0006473317825476208 0.00040097861116322265 -0.00022942035686089946 0.0009040855928787559 0.0006527008892527552 0.00044832241686631953 -0.0003760609356003136
-0.00016711385748367796 0.0017094601980159215 -0.00011257571268724471 0.0005737851392686208 0.0013187529939180126 -0.0002311917210507515 -0.0007186291256660668 0.0010291831239751955
-0.0012093781940607736 0.0003187903525325456 -0.00033540789572071903 -0.00020216866353459927 0.0007741819011169011 9.292402461967298e-05 0.0013740726683251717 2.6781253940981256e-05
-0.00013437543034359268 -0.0005774671858925374 0.00017123984500374577 0.0001297467591847195 0.0021682352157082483 -0.0005951368116689812 -4.1131079436335225e-05 -0.00013720993615416605
0.001671286819222084 -0.000804496524123526 -0.0006167715658372009 -0.0002864719862660324 0.0010904123382151495 -0.0006477618828858401 0.0004563414573240796 0.00048795781154216514
-0.0004111911974749432 0.00013295767233557906 -0.00012762433175445877 0.0016862541148660072 0.0003625536720130645 0.0009245905916877695 -0.00016835461644556547 -0.0006240087383336862
0.0020132614574898985 0.000386574618223517 0.0015013638636836068 0.0007245350879847996 8.651341067658316e-05 -0.0005527791550739928 0.0008405002998487098 -0.00032312264163546076
0.0011676346233094209 -0.0008155524626964576 0.003857302394769224 -0.00046055610480553343 -0.00023516299705335806 -0.0005418252557460186 0.001339568679633894 -3.8869021799818234e-05
0.0016256656796443795 0.000492899619881326 0.0006033855260829703 -0.001868077548409765 0.002336600688355902 0.0027766078633673767 0.0003322923006329167 0.00022423166162334203
0.000296449151269332 0.0010957083989625803 2.0590293915554046e-05 0.0019440629173487084 -0.0001138325182676522 0.001131123784588478 -0.0010079891082153698 0.0002549393490644598
0.0003490708739240744 0.0003709436766649546 -0.00019044806898879476 0.00018126791737996175 0.0006839094306336505 0.00044845153439316947 -0.00021062832982460603 -0.0010079314082627143
-2.6702283131901692e-05 -0.000992427953523501 0.0012611472712143938 0.0009879465344076823 0.0013153015210804943 0.00039856795960654327 -8.646094867639399e-05 -2.4452712519230712e-06
0.0003237223005674177 0.00020501186366615357 0.0010032645553224675 -0.0006459893091766076 -0.0005209972635170021 0.0010185431471783732 0.0007258296466269019 -0.0003769083710299251
0.0006061335842240186 0.0002857239125408545 0.0021998198432903824 0.00047327989616030423 -0.000526598888973179 0.0008420989105291074 0.0008390642792483456 0.0001428351856923162
0.000374642664561159 -0.0005208001045818852 0.0002239549992616311 -1.9492046010113528e-05 -0.0006699591832621581 0.001379539683495846 0.0003865438858662697 0.001079850235820929
-0.00036472508872404996 -0.0008218786379883088 -0.0007007657761317606 -0.0003647667660942085 -0.0004602444197226602 0.0003620499125438178 0.0014751355263414527 -0.000637533148136142
