ResNet-18实现CIFAR-10图像分类/sever copy/Experiment3/model2/bn15_bias.npy (npy, 2128 bytes, 1 tensors)

array f8 [256]
00000000: 5be5 3091 3528 5c3f 3ec8 12b0 b503 4b3f
00000010: 7356 912f b4d9 32bf 431b 53de b530 49bf
00000020: 23f4 1336 6c88 51bf 4a45 712c 78ac 2ebf
00000030: f490 f72c 70b4 373f 6522 6794 abf5 57bf
00000040: 2ea8 69d1 7242 47bf d9cb 2bc3 5bc3 39bf
00000050: b7ef 4cf2 fde2 3d3f 4876 a0c5 87eb 30bf
00000060: fc5b e56f b36f 403f af81 78a4 507a 50bf
00000070: c9b3 c6e2 7768 1e3f 3255 a9c6 c8ce 453f
00000080: 3cad 6fbf 1831 223f 3e22 5826 33c4 4d3f
00000090: 46fe c664 fd43 24bf c240 9582 a59c 26bf
000000a0: 0761 0aa8 1a8e 50bf ff28 06ab bb4a 523f
000000b0: d504 95f0 5140 403f b5c6 9479 a2f7 493f
000000c0: b820 bef9 1df9 2cbf f38a 2965 4a57 35bf
000000d0: 4dd8 5fab b2fe 533f 771f 19a6 b77e 46bf
000000e0: a19e 9250 4895 4ebf f09c f9db 0d81 e1be
000000f0: d0c6 70a1 89b2 1cbf e172 9382 a023 413f
00000100: 7430 8def a6bb 3d3f a768 e4ac cdf5 0ebf
00000110: 8de3 8c21 9761 433f 86a5 5e02 d6be 223f
00000120: 003d 90ec d490 24bf 447a 54aa 7962 50bf
00000130: 56dd ea28 3883 4a3f cb5d d5c3 9010 52bf
00000140: 5b53 f817 921b 42bf f4e7 79f1 8dc6 5e3f
00000150: 64d2 6622 23f0 4dbf 098b b8b7 210b 223f
00000160: a476 fbca 5b2c 0abf 8d81 0b15 228a 593f
00000170: 86b5 489c 09b3 50bf 0ce5 3488 5b05 60bf
00000180: 081e 8827 797f 4ebf 7a0e c54b caf5 56bf
00000190: 83e5 91aa cfa9 55bf 832e 78a4 deb3 4d3f
000001a0: 6f75 f882 d8d0 513f 9cff 2927 0876 453f
000001b0: f37d 4991 c26c 303f bf18 a148 b12b 50bf
000001c0: 8a28 90c7 608d 32bf 8c15 327a 7c90 21bf
000001d0: dfa4 a5c0 b3c4 34bf 5248 e603 0834 4dbf
000001e0: 39fb b46f e657 3cbf c7b9 89a6 5030 1cbf
000001f0: 6570 4d0a 0d46 2cbf aaf7 b5cf 5a00 49bf
00000200: f90a 7cd4 2172 453f 3da3 44c0 064a 3dbf
00000210: 7ffa e7a7 bd43 25bf c09c 2f82 c3fb 41bf
00000220: 0fca 5495 4941 2b3f 465c 6550 ad55 383f
00000230: f91d 07a8 851d 20bf caab 19f9 a66d 15bf
00000240: cceb 1aa6 5bbb 17bf a90a 0e31 a469 1dbf
00000250: b356 6ec0 cead 153f 7fab fb68 332b 3fbf
00000260: 51ec 767e deca 373f 59da d209 2721 41bf
00000270: 9a19 46a4 42e6 4cbf a662 454c 0092 193f
00000280: 1dc8 e725 6111 10bf 261a 544b a663 00bf
00000290: a9bb 1389 d2bf 51bf a0e8 6ed2 3c49 493f
000002a0: cf27 d4de 81bf 513f 5cbc c3e6 5016 2a3f
000002b0: 4141 610d fc2c 57bf e29e 58c6 8936 46bf
000002c0: ab0a 1b33 ff42 46bf 9c0f 2998 9272 583f
000002d0: 0aa2 7782 5e2c 5f3f 74d0 1750 137a 24bf
000002e0: 3a82 5889 e43b 38bf 8c98 6619 5e30 223f
000002f0: 6d85 e58d 37b7 31bf a564 5e36 dd1e 043f
00000300: c51b ac46 212a 1e3f ac90 5660 873e 4a3f
00000310: 4ab9 907d 2bb3 383f 748f bf25 9d7a 493f
00000320: cc1f 6a9e 852d 523f 66a2 8cd1 2a43 503f
00000330: 49e4 2d73 9af4 363f f640 3600 605a 573f
00000340: a0e8 281d 0428 4d3f ced6 d5ac 9665 433f
00000350: ba64 ba0c 30ef 47bf c55e 3801 e5c6 623f
00000360: 3eab 1263 139f 45bf cf65 9a58 6aba 413f
00000370: 1f90 1675 d406 08bf 2814 c913 4059 163f
00000380: 2921 e7ba 67d1 4e3f dc84 24a2 c405 3fbf
00000390: a2dd cec4 854c 523f fe96 1e52 5a09 5b3f
000003a0: 8008 ad28 f56f 523f 7934 766b a708 393f
000003b0: b727 8004 4054 47bf acd3 d19d b8e0 333f
000003c0: 8e45 91b3 7ca4 52bf 7b9d 1708 2ab7 403f
000003d0: 40f2 ce37 48da 403f 9fd4 0e3b 8e22 363f
000003e0: 4edd e649 f6ab 36bf 72c7 4d4b abdf 42bf
000003f0: 55e9 7ed6 3335 06bf fcc3 3583 133c 443f
00000400: d980 1636 48bd 443f 2dc6 e5ad 4529 31bf
00000410: 989d c95a 2f0e 34bf aee7 dc4a a0b1 4b3f
00000420: 7014 7523 14d6 383f e41d 3e70 2bed 42bf
00000430: f59c 6c05 aabe 49bf 4283 386b 8bab 44bf
00000440: f8ca 59b0 cab4 4dbf 86f1 a9bb 5d71 053f
00000450: 9c75 756c 85d0 2fbf a898 115d c629 37bf
00000460: a710 b78e 0e55 523f 5b2a f8a4 ed98 47bf
00000470: be45 0fb8 00c6 303f 53e7 8778 cdf4 563f
00000480: e413 fb65 f969 253f d75e a83f e7e4 53bf
00000490: 2178 57d1 4548 393f f10b bd55 abef 413f
000004a0: 180d 50fe fba0 f6be d70a 414f b50a 45bf
000004b0: 9385 d78d 8bd0 34bf be3e 3b81 57d9 263f
000004c0: 1b15 17dc 2d3c 2f3f 4bec 57d5 9d68 333f
000004d0: a1bb a520 79fa 3dbf 0ef9 a0aa 02a7 e6be
000004e0: c34a e36f 63a3 023f f5ac 4802 92fe 40bf
000004f0: c62d 6830 d97c 393f edba e251 b507 263f
00000500: cfb3 6a2a b16e 213f a54a a84c fc6a 3c3f
00000510: 1a8f a03b eded fb3e d4da 8aba a3f1 063f
00000520: 6afa ca93 2204 523f aa91 292e 512b 17bf
00000530: 7406 4112 8bbf 3bbf 0d13 ef3d f9ec 43bf
00000540: 6f6f af06 2208 3c3f b5ce d030 b0e8 28bf
00000550: bd88 8887 ada9 4cbf fb9e fa9d 97a0 5a3f
00000560: 1e83 1dd2 2b8a 363f 74aa 4f8f cab2 5cbf
00000570: 8a95 7f1f e86b 1f3f 4c01 81f2 f482 373f
00000580: d4b3 504e c66b 26bf 3559 c322 b32e 4bbf
00000590: 75de 5d27 0b70 3bbf 4b08 eb72 15f9 333f
000005a0: 60e4 d1b2 a6af 353f aea5 4e66 e9ac 4fbf
000005b0: 7f2c 7056 a233 48bf 5a6d e0a2 9352 3e3f
000005c0: ae81 9cd5 8636 51bf d1cc e1d5 9d0e 33bf
000005d0: 4483 6b87 4d8b 4c3f 67ee 682e b8ad 5d3f
000005e0: 5eda 4700 e3c0 523f bb71 28e6 b7ab 383f
000005f0: 8c6f fa16 4f36 50bf 54a5 774a 9c7f 17bf
00000600: dba1 4a8e e4c7 523f 83ed 3944 8860 2c3f
00000610: b707 49c7 44a3 44bf 4c9e 5b7d 575f 52bf
00000620: e097 1b40 7cc1 ad3e b45a 7af6 6904 33bf
00000630: e0e0 7240 159e 493f 1604 3c7c 2498 413f
00000640: d04a f4d2 d9db 59bf 6b9b 5893 e1de 43bf
00000650: 91c6 cfa3 5c2b 533f 1880 d21f 705d 3bbf
00000660: 81b3 ea35 00eb 513f b8c0 242c 468d 4e3f
00000670: 4888 cc88 750e c03e 6e8f 85ab 6498 4cbf
00000680: bc67 c7a2 7f7b 37bf cd4d 70ea 42d5 5ebf
00000690: 2da4 4377 4db3 d83e aa7f 65a1 7732 2ebf
000006a0: c56e 0620 25b6 3c3f 5f72 ec4a 3a5a 23bf
000006b0: e06d 93f1 0fcc 0cbf e7aa 9080 05e9 4e3f
000006c0: 89e8 b852 adf1 22bf e025 bbaf d838 43bf
000006d0: e98d f041 deb2 50bf 2dad b4fd 0e36 4abf
000006e0: 8bd9 9496 1a07 34bf 2951 b1e9 bf11 21bf
000006f0: e6ea 8054 d6d2 2fbf 6edd ac51 149a 10bf
00000700: c8dc 0abe 9189 df3e ec53 6d5b b895 42bf
00000710: 2f69 5712 8125 22bf 0c17 3f18 2961 52bf
00000720: ca5e ee4a 3dcc 423f 999c 7b8d 267c 41bf
00000730: e37f 7453 8a26 413f e7c7 a783 9a65 273f
00000740: 6f4a e81a 6b12 22bf b6a3 30e5 fb06 4d3f
00000750: a709 d328 d3ef 41bf af1c 9a07 31d8 323f
00000760: b2de 4c2c 07d0 41bf 33cf 8318 cff3 4abf
00000770: 9f80 8c3f 8ba2 593f 9ab9 cfd7 fc2f 573f
00000780: f648 d32f 14a5 463f ac19 9a3a bcd0 41bf
00000790: e026 a4cb d82e fcbe 9a62 307e 902b 42bf
000007a0: d26e 8021 82a3 41bf 8d45 0950 27c1 2fbf
000007b0: 9807 3e2f e29b 45bf 0161 16c2 119c 40bf
000007c0: 685d d69f 8105 423f b50e 5864 8be4 413f
000007d0: 04cf 685a 918a 48bf 7dab 67c0 140c 2b3f
000007e0: 0beb 41d7 ea86 543f 0ecb 320e 29b2 153f
000007f0: 764a dc5b 920a dd3e 5b64 7490 110a 323f
0.001718571006462297 0.0008244168422122456 -0.00028763436381971165 -0.0007687461881225949 -0.001070123362580285 -0.00023402182543689538 0.00036170710242645833 -0.0014623809416766328
-0.0007098255762916278 -0.00039311399738933616 0.0004560346590556335 -0.000258179328399642 0.0005015970380480845 -0.0010057246707973857 0.00011599761700749259 0.0006655197478930063
0.0001387922963823426 0.0009083986048504312 -0.00015461414512961592 -0.00017251510989036404 -0.0010104427639472961 0.0011164505668568856 0.0004959488007118216 0.0007924598059274231
-0.00022104731476369432 -0.0003256374958821438 0.0012203926867164927 -0.0006864926073797258 -0.0009333232020667001 -8.346613753219882e-06 -0.00010947194128687753 0.0005230458965815554
0.00045368981914318336 -5.905183717143494e-05 0.0005914676613435352 0.00014301645677265387 -0.0001569042126736489 -0.0010000408304403777 0.000809099599641631 -0.0011025823326543556
-0.0005526030872170339 0.001878393761130412 -0.0009136363558384761 0.00013766085236096456 -4.992156152437463e-05 0.0015588124116946184 -0.0010192483761203032 -0.0019556796775331894
-0.0009307233404464718 -0.0014013743921887077 -0.001322224425420821 0.0009064519044285766 0.0010873903628472977 0.0006549396333212945 0.0002506232279184388 -0.0009869796072208695
-0.00028308499128171986 -0.00013400573252312883 -0.00031690014352265915 -0.0008912123810651629 -0.00043248535049038615 -0.00010753147365403288 -0.0002157107275263553 -0.0007629817404646206
0.0006544747529634013 -0.0004469171983765735 -0.00016223611960693507 -0.0005488114005601993 0.00020793936952541488 0.0003713176851269411 -0.00012295013949724357 -8.174258825881169e-05
-9.052988891770848e-05 -0.00011220039983865039 8.269857799655493e-05 -0.00047559743050722825 0.00036304409010385225 -0.0005227509133394855 -0.0008819413565539947 9.754301851695266e-05
-6.12941307520935e-05 -3.126002540381296e-05 -0.0010833316812825877 0.0007716700537152739 0.00108325655611673 0.00019902932707036274 -0.0014145337531950716 -0.0006778881767716927
-0.0006793733684492173 0.0014921599946697622 0.0019026682801898142 -0.00015622602226950425 -0.00036978082184372133 0.00013877056762829178 -0.0002703199987959735 3.8376928201696866e-05
0.00011506870366072206 0.0008009110467139999 0.00037689029483347193 0.0007775561639360288 0.0011094860907707614 0.0009925764226840438 0.0003502728533742489 0.001425355673607296
0.0008897800528935469 0.0005919442861983205 -0.0007304176919717055 0.0022921059369414875 -0.0006598324454406346 0.000541021277246029 -4.582725399451836e-05 8.525327297899453e-05
0.0009404903883530091 -0.0004733662664354163 0.001116877206397728 0.001650179103742599 0.0011253255967891562 0.00038198554417407483 -0.0007119476877062079 0.0003033114169917427
-0.00113784959673455 0.0005101161224815709 0.0005143025042496155 0.00033775303296163824 -0.00034594309718323924 -0.0005759798428768127 -4.2358059374208536e-05 0.0006175132061071449
0.0006329157442231072 -0.0002618594279716082 -0.00030602127188791286 0.0008451492956062978 0.00037897102034307236 -0.0005775892354770687 -0.0007856683904251804 -0.0006308012729655326
-0.0009065618221043284 4.0898964887656076e-05 -0.00024272564608455733 -0.0003534421239862564 0.0011189119494341788 -0.0007201347706893945 0.00025594251206681104 0.0014011389304173407
0.00016337556279757894 -0.0012142427718852455 0.0003857775166958861 0.0005473696323651229 -2.1580548395417042e-05 -0.000642145662375827 -0.00031760603982718924 0.0001743239705462775
0.00023830470858691378 0.0002961526236899311 -0.00045743424620686186 -1.080149862186773e-05 3.554961402731573e-05 -0.0005186284002482155 0.00038891127079018447 0.00016807640435475367
0.0001329985872947901 0.0004336229291378813 2.6635552537026317e-05 4.3762024977513824e-05 0.0010996186894513212 -8.83835123573542e-05 -0.0004234041719009881 -0.0006080834390266035
0.0004277308532303269 -0.00019004011883937624 -0.0008747193633704891 0.0016252022395892285 0.0003439290031704167 -0.0017516115306032394 0.00011986355082135004 0.0003587577834913882
-0.00017105861403035486 -0.0008295416532984381 -0.0004186656218432069 0.0003047635426974878 0.0003309041956707833 -0.0009666576048534181 -0.0007385771431257653 0.00046268562698666626
-0.0010505978338600608 -0.0002907882061499836 0.0008710983809941748 0.0018114374776264876 0.0011446205909330302 0.00037644614909184874 -0.0009895107613493185 -8.963958190801497e-05
0.001146290968941802 0.00021649993333370748 -0.0006298147041621159 -0.0011213640586279659 8.867920089055768e-07 -0.0002901800821545717 0.000781784416992639 0.0005369356299241869
-0.0015782954395190847 -0.0006064034884659513 0.001170006245271447 -0.00041755664262588385 0.0010936262184870484 0.0009323685301634499 1.914081684610057e-06 -0.0008726588776366403
-0.0003583132372831884 -0.0018819001650215328 5.889034458508375e-06 -0.00023038587887480355 0.00043810278295962026 -0.00014764749126862633 -5.492614418197892e-05 0.0009433056703803373
-0.0001445316387263566 -0.000586610607080814 -0.001019208000578748 -0.0007999013136318671 -0.00030559920431318864 -0.00013022868810942084 -0.00024279466947681806 -6.333111779787345e-05
7.519097352463168e-06 -0.0005671644383747876 -0.00013844681340808562 -0.0011217976871064654 0.0005736636429558236 -0.0005335987325140345 0.0005233931941894778 0.00017850409660941023
-0.0001378780120409764 0.0008858423192395967 -0.0005473881771183479 0.0002875442220120023 -0.0005435977005623009 -0.0008225213250896201 0.001564632401091649 0.00141524974537397
0.0006910656517453973 -0.0005436820112699101 -2.6877399002456638e-05 -0.000554509690462518 -0.0005382905392283483 -0.00024226765528338433 -0.0006594519058895519 -0.0005068861684547622
0.0005499728137462858 0.0005460434555861401 -0.000748940442298424 0.00020635369601448495 0.001252869927184266 8.27634390130722e-05 6.923984470013681e-06 0.0002752583390744406
