ResNet-18实现CIFAR-10图像分类/sever copy/Experiment3/model2/bn16_bias.npy (npy, 4176 bytes, 1 tensors)

array f8 [512]
000000 6b 1f 69 0a ee fd 20 3f 8a cc 21 79 0b 07 41 3f
       0.0001296380116448907 0.0005196386357638899
000010 fa e1 c3 70 54 68 18 bf eb 6a a3 88 46 2f 25 3f
       -9.310737022250734e-05 0.00016162620551692734
000020 04 64 53 e4 12 19 50 bf 44 a0 cb 6b 9e 25 52 bf
       -0.000982540558928103 -0.0011076018410509795
000030 6e a8 dc 7d 0f 58 43 bf 91 10 23 cd b4 54 4d 3f
       -0.0005903316157163227 0.0008951075381209585
000040 b2 0f e8 8f 1c ba 25 3f 58 6c e0 aa 08 3a ec be
       0.00016576384219046735 -1.3459536912610395e-05
000050 79 0e 62 a7 b8 74 4f 3f c9 5c 7b dd 3f a2 55 3f
       0.0009599591856077192 0.001320421570133056
000060 2c 1c a8 c0 69 a1 50 bf 6a 57 af 90 b8 bd 45 3f
       -0.0010150463809866046 0.0006634856412073124
000070 f7 05 b8 85 08 fc 35 3f 7c c9 68 c8 11 93 3f 3f
       0.0003354569250576251 0.00048178848411164327
000080 b9 70 16 8b 3c 7c 35 bf 62 a5 dd e7 8e 01 02 bf
       -0.00032783964260275526 -3.43438850752369e-05
000090 d1 de f6 77 18 43 67 3f 48 73 b6 ec 80 7f e0 be
       0.002839610853438625 -7.866888515556427e-06
0000a0 5e dd 4f 3a 78 e5 43 bf 70 1f c6 5c 9d 15 5b bf
       -0.0006071888971054642 -0.001653102564064892
0000b0 12 10 59 1f 2b 04 36 bf 63 67 46 c0 f3 39 48 3f
       -0.00033594181818252897 0.0007393303099434253
0000c0 47 13 04 f1 08 0a 5f bf 43 08 39 a8 72 a8 43 bf
       -0.0018944823569324186 -0.0005999145364017428
0000d0 f0 8b de 05 24 ac 48 bf f7 9e eb e1 63 fc 44 3f
       -0.0007529426472853134 0.0006404388148810437
0000e0 c1 ee 46 7f bf f9 50 3f 14 31 f4 33 1c c8 54 3f
       0.0010361070718393625 0.0012684131068594938
0000f0 20 4d d8 04 e0 6e 44 bf e6 ee 6c 7e a6 81 53 3f
       -0.0006235689012918134 0.0011905790249348513
000100 de ef f3 8b 89 ab 2f 3f 4b 77 72 f1 0f 98 43 3f
       0.0002416234401393371 0.0005979612204958044
000110 d7 27 57 ca 35 16 40 bf c2 b7 90 55 b5 27 61 3f
       -0.000490928902473482 0.0020941297230114573
000120 32 f6 87 98 00 c5 35 3f 6b a4 bf f8 3d 51 51 bf
       0.0003321768240594796 -0.0010569672767764225
000130 91 c9 30 9c 1b 7f 40 bf 16 55 f2 ae ed 9b d0 3e
       -0.0005034336867367086 3.959916951808549e-06
000140 d0 ed 4e e8 84 c1 40 bf a9 a9 e3 e7 ba 1b 4d bf
       -0.000511350532739591 -0.0008883154512465036
000150 be 69 13 bf 81 95 50 bf d0 0a 49 d4 e8 ea 42 3f
       -0.0010122077040280865 0.0005773197995682881
000160 a0 6e 80 ac af e8 d2 3e b4 bb dc 3b 56 9e 35 3f
       4.508240358826583e-06 0.00032987218206675527
000170 e5 21 0a d1 e0 43 33 3f 93 1d 5a c0 d0 b8 32 bf
       0.00029396284757201983 -0.0002856740614806893
000180 a1 6d 2b d7 32 05 36 3f bb f8 22 01 cf 10 52 3f
       0.0003360032198267086 0.0011026402976735256
000190 81 45 72 be 8f 71 49 3f 67 ee 21 ef 22 67 3a bf
       0.0007764770388282578 -0.00040287592776853124
0001a0 aa f2 97 e9 62 bc 34 bf f3 d2 65 7c 43 2c 25 bf
       -0.00031640448432294444 -0.0001615364437374183
0001b0 09 df 24 2a 7e ac 50 bf 26 fb ec ae b8 da 34 bf
       -0.001017687995568952 -0.0003182125937434714
0001c0 f4 7e 91 41 81 cc 1e 3f 50 7a 9f f8 9a ce 52 3f
       0.00011748827854906799 0.0011478913679564724
0001d0 bf 08 f9 79 8e a9 3e 3f 34 81 62 2a a7 a4 5a bf
       0.00046787002972704586 -0.001626170394537563
0001e0 71 c5 79 1d f0 25 30 3f 17 6c 17 a9 63 ee 3a bf
       0.00024640190301913114 -0.00041093762510308176
0001f0 5c e8 21 5d 96 45 3b bf bb 84 e5 16 e8 61 3e bf
       -0.0004161350344770215 -0.00046359935995183747
000200 02 8e ab 59 0e 69 19 bf 98 5d ed 86 8d 17 37 3f
       -9.69328888618601e-05 0.00035235600710367123
000210 b6 11 5c d1 1f de 51 3f 50 c3 24 5e e4 89 61 3f
       0.0010905562134563124 0.002140947371252734
000220 bc 93 80 82 05 6c 38 bf 2a 93 92 47 c4 94 36 bf
       -0.00037264952198006926 -0.0003445605467027763
000230 e0 06 61 0a c9 e5 57 3f da 28 a4 ed 94 f7 5d 3f
       0.0014585936819603781 0.0018290476205629542
000240 80 15 ee 12 8e fa 42 3f 24 59 6d 15 7c 3e 53 3f
       0.0005791848869739907 0.0011745654826050356
000250 42 d0 5a d4 a6 90 15 bf 81 26 fa 1a 0d 2c 4d bf
       -8.226412054562849e-05 -0.0008902610770331194
000260 fa 04 36 6a bf 1b 40 bf b9 1c f5 06 bb 2f 1a bf
       -0.0004915890353204549 -9.989336989689708e-05
000270 9e dc 10 7c bb c4 4c 3f 4a cc 6c b0 40 0a 47 3f
       0.0008779445125871759 0.0007031265130080868
000280 34 9d c9 3c 49 7e 48 3f eb 9d f9 73 f1 95 26 3f
       0.0007474763493292903 0.00017231533455518087
000290 8c ff 13 08 a7 27 39 3f 4b 30 94 95 d9 39 5c 3f
       0.00038383319777323603 0.0017227768751722102
0002a0 5d f5 66 a6 a3 d2 10 3f 95 1a b5 e2 94 1b 41 bf
       6.41739257849125e-05 -0.000522086809191818
0002b0 ad bc 6e bb 14 16 1d bf c0 71 0c fc c8 c8 50 3f
       -0.00011095525301983945 0.0010244333972827396
0002c0 88 56 e2 df 49 e3 3d bf 94 60 ea 02 3e 7b 20 bf
       -0.00045605233743493305 -0.00012574321722947214
0002d0 3b 20 48 a4 5e 34 52 bf c8 7b c6 9a e2 29 56 3f
       -0.0011111187205887902 0.001352759641214384
0002e0 21 7e fc cf 29 c6 54 bf d0 17 6e 89 38 ed 5c bf
       -0.0012679489445374186 -0.0017655422322788612
0002f0 b4 51 f6 3a cb b9 50 bf d1 81 e3 0a 8f 79 47 bf
       -0.0010208592101196125 -0.0007163952302811587
000300 0b 73 55 cf b5 c7 31 bf 6e 8a 8b 0d 0a df 53 3f
       -0.00027130306928828456 0.0012128446743921123
000310 bc 79 1f 43 0b 51 4d 3f f1 43 d1 81 c0 c9 38 3f
       0.0008946709624487108 0.0003782362926517116
000320 cc 0c 33 8c 15 7e 51 bf 6f 89 c9 c5 30 56 4c 3f
       -0.0010676584650333608 0.0008647668979160759
000330 4c 2b ef 3c 00 31 49 3f 07 6e b8 93 10 e2 2f 3f
       0.0007687808191517514 0.00024324848514899208
000340 36 6a 4f 80 8a 5b 20 bf 2a 82 da 5e c2 75 27 3f
       -0.00012479844750042248 0.00017898557364494475
000350 a1 c6 07 af 95 5b 3b 3f dd a2 7e 42 81 8e 41 3f
       0.0004174461783171633 0.0005357867385003785
000360 17 5d b4 a2 b0 80 50 bf 9f 8b e3 a6 86 73 3e bf
       -0.0010072445828138204 -0.00046464955711494367
000370 f3 73 91 d1 5c e1 35 bf 77 e8 16 ea ce 64 5e 3f
       -0.0003338672264073243 0.001855089249473111
000380 06 9b 16 53 c3 7b 4a 3f 85 92 0d 0c e3 4c 45 bf
       0.0008082107289525138 -0.0006500347736673884
000390 3a d6 e1 8a aa 11 36 3f df 10 2e fe 50 d3 48 bf
       0.0003367463458582052 -0.0007576127503488259
0003a0 33 e1 9e b3 25 68 49 3f 4d d3 dc 9a d4 06 48 3f
       0.0007753547754339229 0.0007332361326236409
0003b0 e2 cd 58 23 27 64 41 bf 59 25 1a b9 3c b2 24 bf
       -0.0005307379821659043 -0.00015789977310402372
0003c0 84 3f b6 ac 5d 33 5b 3f 59 9c b8 04 df 4d 61 3f
       0.0016601958076058751 0.002112327177900702
0003d0 7a 66 02 f1 4d 89 43 3f 98 1b 9e 8b 76 74 59 3f
       0.0005962019513560811 0.0015536458654154869
0003e0 54 a7 6b 7e b2 2f 4c 3f 72 13 a5 f3 a1 94 4c 3f
       0.0008601781417756174 0.0008722105770081325
0003f0 1f d0 2f db 3f 0a 3d 3f 84 bf 3d 22 98 67 4e 3f
       0.0004431157969400096 0.0009278767433737877
000400 50 7c 23 a5 72 38 cb be cc 17 69 f6 3c 4e 44 3f
       -3.2449363881327685e-06 0.000619678274980323
000410 08 84 12 29 f1 f2 3d 3f 60 26 6c b0 92 e1 52 3f
       0.00045698535638832903 0.001152413607714918
000420 9c f1 16 d5 12 32 61 3f 31 c5 4d 8d 19 aa 26 3f
       0.002099072248453916 0.00017291604913397812
000430 47 cc b2 4a 84 6c 2f 3f 94 24 0a 9f 01 76 09 3f
       0.0002397452820780152 4.856293151529151e-05
000440 3c 11 74 4e b6 37 4f 3f 4c 3f d6 09 51 6a 29 3f
       0.0009526863258604644 0.00019390334356871942
000450 17 fa 28 4c 44 29 38 bf 42 85 20 92 af 33 40 bf
       -0.00036867062968673605 -0.0004944426802958939
000460 42 9d a4 b3 ee 4d 17 bf 41 4b 70 be 51 62 1c bf
       -8.889932079069344e-05 -0.00010827659535576647
000470 a3 ec 45 70 95 b7 42 bf 86 39 11 22 eb 6f 64 3f
       -0.0005712012939932575 0.0024947731440427305
000480 aa fe cc 98 88 33 4a 3f 05 f5 08 d6 2f 1c 48 bf
       0.0007996003128951286 -0.0007357820105153018
000490 d7 c9 f6 fc 11 ef 2c 3f c9 d9 59 77 4d 5e 58 3f
       0.000220747896020847 0.0014873272424701259
0004a0 ea 04 66 bc 59 8c 3f 3f af 09 78 2b b4 7e 58 3f
       0.0004813880044807888 0.0014950522871691565
0004b0 d7 72 26 22 05 ec 03 3f 00 9c 8a a7 16 8d 55 bf
       3.7998110445890895e-05 -0.0013153763995121803
0004c0 ec 70 39 f6 4b c4 34 bf bc e4 28 3d 6a f1 4a bf
       -0.000316875977864019 -0.0008222359413771123
0004d0 04 c3 9d 86 f7 63 49 3f 61 3f c7 5f b6 9d 59 bf
       0.0007748564359940373 -0.0015634804723169903
0004e0 18 d0 0f 83 90 20 52 bf c4 97 09 94 5f eb 3c 3f
       -0.0011063967942819327 0.00044127543882266037
0004f0 ea 2f 15 21 49 f7 42 bf f9 11 34 ec 40 84 50 3f
       -0.0005787951542202106 0.0010080942163891422
000500 15 43 5d 2c 66 ba 48 bf f8 93 52 0e 14 2c 32 bf
       -0.0007546423810059511 -0.0002772854771342921
000510 2a 7c 26 9b 1a 0f 52 3f f7 a4 e1 fe c2 b9 30 3f
       0.0011022338700070835 0.0002552128852416203
000520 04 db 67 73 59 11 44 3f 08 d7 9e 6b 94 d3 42 bf
       0.000612419774198653 -0.0005745386799762284
000530 b1 c6 b2 3d ab 36 46 3f b2 86 09 d5 8f 3e 51 bf
       0.0006779037606945063 -0.0010525135623073276
000540 48 4e 8b 7c c9 81 44 bf c5 9a fe a0 e5 1f 01 3f
       -0.0006258233853153128 3.266257783645291e-05
000550 bd 17 00 ba c7 19 42 3f aa 3c f3 f8 12 b7 4a 3f
       0.0005523896434176317 0.0008152811659786392
000560 4c 57 56 6a 4d 5a e8 3e 15 d6 d7 58 f6 40 47 3f
       1.1612293131329055e-05 0.0007096484056876041
000570 c4 9d 97 8f 9f e1 31 bf c8 a6 7a 16 59 b2 40 bf
       -0.0002728476098056954 -0.0005095419882838676
000580 25 3c 85 5e 89 9e 4e 3f 7b 73 c1 7f b1 3a 35 3f
       0.0009344263790270797 0.00032393296692650287
000590 6f b9 ac c8 01 a6 49 3f f4 4c e1 ac 2b 9d 17 bf
       0.000782729025876878 -9.008006165460767e-05
0005a0 67 b2 0d 5a b7 dc 4d 3f bd e9 10 72 52 fd 46 3f
       0.0009113211891481177 0.0007015850607168733
0005b0 34 8c 03 cd 1d 02 3c 3f ee a3 c0 83 25 68 40 bf
       0.00042737224158723446 -0.0005006964852373155
0005c0 11 6c a7 1d 69 b8 3e 3f 67 19 f0 71 dc 6a 44 3f
       0.0004687554007014048 0.0006230903999274007
0005d0 ce 7a 82 a5 d4 58 33 bf 4e d0 54 01 16 db 34 3f
       -0.0002952117115543718 0.0003182343219407844
0005e0 36 bd 61 d8 e5 9d 4d 3f 64 9c 32 f8 18 7c 38 bf
       0.0009038326541154554 -0.0003736077271220882
0005f0 3f b0 f6 c6 d5 f5 22 bf 2b a0 a1 01 30 95 57 3f
       -0.0001446555574892167 0.0014393776714545319
000600 9b 6e b8 40 98 69 51 bf 20 d3 08 5c 9f 06 42 3f
       -0.0010627734035385864 0.0005501058695417151
000610 88 16 d5 ee 1f ab 3b bf d2 83 b3 54 c4 86 2e bf
       -0.0004221871339108248 -0.0002328982030581893
000620 ea da 0a e0 ad ed 4b bf 50 f2 7f a9 75 a9 53 bf
       -0.0008523081779319961 -0.001200070289996042
000630 33 8b ac 54 b3 87 51 bf 66 e4 f9 32 ef b1 44 3f
       -0.001069951179211781 0.0006315629925232158
000640 da f8 9f ba f0 29 3c 3f d1 f9 93 31 fc eb 58 3f
       0.00042974593327461746 0.001521106989741495
000650 2f aa 82 6e 16 0f 59 3f 5e 09 ad a4 5e 33 14 bf
       0.001529476076067692 -7.705941349648223e-05
000660 4a 35 93 76 2a e4 67 3f 30 56 6f 30 e4 a5 30 3f
       0.0029164151534134862 0.00025402852082598553
000670 03 8e 6e dd 1a 33 26 bf 5a bb ce d7 01 ab 46 bf
       -0.00016936972562318916 -0.0006917723654761107
000680 48 1f 5d c0 c0 e3 21 3f e7 a5 cd 3f fe 71 2e bf
       0.00013648727343195722 -0.00023227909687344105
000690 62 fa 1f 6b 6c 77 56 3f 7a ff f3 da 07 33 43 3f
       0.0013712462209693123 0.0005859173160445007
0006a0 17 45 1e 48 94 ab 52 3f a5 81 69 3a 9c f6 49 3f
       0.0011395404876320453 0.0007923376877663658
0006b0 4a 31 f3 86 32 cb 17 3f 26 f6 b7 ee d2 27 4d 3f
       9.076591389884262e-05 0.0008897571510144183
0006c0 78 9e 78 b8 57 d5 51 bf ca 3f eb 70 89 a1 43 3f
       -0.0010884625097648242 0.0005990906809873961
0006d0 b7 33 12 cf dc df 11 bf c5 fc b0 82 da bc 55 3f
       -6.818566522977144e-05 0.0013267644778947468
0006e0 57 97 43 dd 89 09 53 bf 04 7c 15 12 4f 27 4b bf
       -0.001161942132108481 -0.0008286605918036431
0006f0 36 3e 92 4c ce fb 49 bf ac cf bd b5 a1 f0 32 3f
       -0.0007929570503097453 0.00028900096889760796
000700 1c 00 a1 ee 84 43 3f bf f2 f6 6f 8c b6 99 3b bf
       -0.0004770469228141409 -0.0004211493182423163
000710 eb 43 a7 41 96 82 51 3f 06 a5 7c 44 3b 8e 29 bf
       0.0010687320087650008 -0.0001949736927085237
000720 be 9f c9 0e d9 ec 41 3f 38 61 01 54 66 ee 31 3f
       0.0005470332958568064 0.0002736091446471525
000730 3d 45 fa c0 86 56 55 bf 38 60 b6 d9 37 0d 48 3f
       -0.001302367778326221 0.000733997603151521
000740 e8 d8 32 f3 ea 6a 02 bf c1 34 6a cc ab 84 43 bf
       -3.51288748787081e-05 -0.0005956496105043106
000750 e6 32 13 48 8a 4e 18 bf 97 ac 71 c1 21 34 4d 3f
       -9.272307399328279e-05 0.0008912243673767803
000760 8d 4e 05 7b e4 3a 54 3f 45 f3 0a aa 50 9a 3d bf
       0.001234744191681711 -0.00045170277921240495
000770 ed df d2 31 eb 6d 61 3f 73 db b0 55 8c b4 47 bf
       0.0021276086468695527 -0.0007234273174451092
000780 e4 9c d2 9c c2 65 38 3f a8 95 09 64 8f ba 2f 3f
       0.00037227631839660395 0.00024207115531564333
000790 d4 75 01 d6 bf 98 57 bf 53 37 44 9c 83 68 3c bf
       -0.0014402268789334054 -0.00043347561974448507
0007a0 86 41 e4 c4 43 f9 41 3f fc 14 8f 64 17 28 3f bf
       0.0005485134986731733 -0.0004754120932911191
0007b0 80 78 84 9b 5b c2 f9 3e 2d 15 1c 0c b8 f0 47 bf
       2.456589729248797e-05 -0.0007306002300714647
0007c0 7e 92 4b cf 2f 68 3a bf 62 a1 8b b5 cd f1 56 bf
       -0.00040293853025578214 -0.0014004238966497042
0007d0 fa 20 f1 9b 1a 37 42 3f fe be a6 bc 24 49 32 3f
       0.0005558853080254438 0.00027901789567418
0007e0 46 48 e5 07 90 4e 3b bf 1c fd 54 19 a1 62 21 bf
       -0.00041667000177370397 -0.00013263908901171232
0007f0 3c 9d 7e a6 0c f6 3f bf 65 79 34 7d d6 4d 52 3f
       -0.0004876881489459144 0.001117190801614842
