ResNet-18实现CIFAR-10图像分类/sever copy/Experiment3/model2/bn17_bias.npy (npy, 4176 bytes, 1 tensors)

array f8 [512]
000000 db 7e 3a e5 e4 02 51 3f 44 c3 eb 52 8f 47 64 3f
       0.0010382876688836337 0.002475528649818067
000010 68 70 d1 33 4c f0 55 3f 59 af a2 0e 7a df 63 3f
       0.0013390297092632734 0.002425897972974694
000020 78 2d 36 c1 a2 6d 5e bf 2e 6a bf 33 0c fc 57 bf
       -0.001857193889778978 -0.0014639014398115757
000030 2c b1 33 33 2e 83 f0 be 03 c0 5d 05 65 54 71 3f
       -1.5747474390191324e-05 0.004230875599986919
000040 58 69 f8 b8 27 39 6b 3f cc 9f a7 da 10 0c 20 bf
       0.0033231521445148786 -0.00012242990244648447
000050 1f 05 46 1c 60 e9 57 bf 6f 66 b5 86 8d 94 5d 3f
       -0.0014594496325062779 0.001805437287507063
000060 ff 82 77 b7 1c 7d 21 3f ba 14 69 28 08 a0 5f 3f
       0.0001334283403897837 0.0019302444139992895
000070 3f 79 20 0f 38 b2 51 bf 6f 7a 59 9a 6b 05 58 3f
       -0.0010800883724254166 0.0014661360559312905
000080 6a c3 d5 0d d6 4c 77 3f 78 14 a7 9e c2 37 4a bf
       0.005688511036496683 -0.0008001041690525309
000090 da c9 18 9e 54 f8 02 bf b8 dd 5f 9b 5e cf 19 3f
       -3.618248207394913e-05 9.845747885594322e-05
0000a0 bb be d8 69 8c 6d 53 3f f2 08 c1 9d dc 3a 56 3f
       0.0011857863641004235 0.0013568071799601703
0000b0 4a fe 8f 64 00 88 54 3f b8 ff ea 58 05 70 67 bf
       0.0012531284176019613 -0.0028610329094078367
0000c0 73 1a 47 a0 53 7b 5a bf 50 f5 29 13 cc 47 52 bf
       -0.0016163174305902333 -0.0011157505911392925
0000d0 ef 4a 1d 87 8c c9 69 bf ec 70 76 1d d7 99 74 3f
       -0.0031478638347065472 0.005029526036562464
0000e0 bd a1 64 43 e1 b2 5f 3f 77 61 ae d9 6e ad 6b 3f
       0.0019347381435840104 0.0033785977406745565
0000f0 a5 52 f5 90 81 38 24 bf 51 c7 be bf 16 75 59 3f
       -0.00015427190417462603 0.0015537950666666032
000100 b2 cc 7f 50 62 ab 68 3f 37 62 6d cc ce da 42 bf
       0.003011409778986251 -0.0005754003294483116
000110 74 9a df d5 0a 93 60 3f 04 cc a0 99 5a e9 33 3f
       0.0020232402448415125 0.0003038259689020497
000120 c4 44 b2 fd c3 93 70 bf d0 90 a7 40 68 4a 64 bf
       -0.004047170247887869 -0.0024768863852263415
000130 1c af 09 98 a7 99 40 3f 07 a8 bd c4 07 18 43 bf
       0.0005065983132914484 -0.0005826986248227425
000140 53 34 77 32 c3 fd 7a 3f a5 7c c7 ab 5a 3c 63 3f
       0.006589663018030728 0.002348115054914129
000150 f7 3c a5 91 a4 e3 6b 3f 6c be 93 72 c7 e0 58 3f
       0.003404447005926788 0.0015184352617402487
000160 d9 d8 78 09 07 5d 56 3f c9 4f 60 08 d7 3e 50 bf
       0.001364952919073617 -0.0009915447167303407
000170 5a ea 2d 7e 2a 28 05 bf 84 85 68 af d1 0f 62 bf
       -4.035358121875074e-05 -0.0022048087514724996
000180 59 c9 ff 75 8e 2e 50 3f cb 53 11 95 f2 30 56 bf
       0.0009876624317227327 -0.0013544434516650102
000190 75 b2 16 6a bb 98 45 3f 8b 5f 36 aa 85 74 7b 3f
       0.0006590762242715947 0.006702921036229169
0001a0 9b 97 fc 3f 62 b2 72 bf e0 05 de a7 1e 9c 46 3f
       -0.004564651287898426 0.0006899976431073394
0001b0 39 55 8c e5 9b a7 41 3f 80 6a 1f 40 fb be 52 3f
       0.0005387793745252118 0.0011441663377726174
0001c0 5c cc fc 6e 64 e0 3b 3f 22 23 59 2c 2c 65 47 bf
       0.00042536212912409 -0.0007139650048851624
0001d0 72 53 8e 7f 51 c4 48 3f e0 6b 7e da 6a 9b 66 3f
       0.0007558248463391661 0.0027596556646591747
0001e0 fa 1b 8d 32 dc 15 58 3f 18 11 6c 55 41 5a 41 3f
       0.001470055615031772 0.0005295580875502052
0001f0 99 99 ca 89 c8 99 49 bf a6 57 b6 8c 6f 08 4f 3f
       -0.0007812718573248389 0.0009470505405484344
000200 17 00 9e 1e fb d4 f1 be 32 38 bb 4d 59 4d 5e bf
       -1.7005879193288187e-05 -0.0018494960885848785
000210 bb 89 8f 03 6b e4 38 bf 94 ce b0 16 b4 47 ed 3e
       -0.0003798257126260936 1.3961835710763698e-05
000220 c3 00 a6 29 75 7b 2a 3f af 3d 3f df 53 84 68 bf
       0.00020204358299836218 -0.0029927862287661626
000230 89 31 8c af 2d b1 61 3f 12 eb ae 11 ba 25 07 3f
       0.00215968058581079 4.415010535959418e-05
000240 04 90 71 c9 8a 9c 2e 3f e4 ab e3 45 6f f1 4d bf
       0.00023354715515033775 -0.0009137910199376012
000250 7f 2a 53 ad 4b e1 5b 3f 45 93 a0 4f 82 26 67 bf
       0.0017016638787931413 -0.002825979722745594
000260 6b bb 6c bf 3d d1 56 3f 1a 10 c5 33 18 3c 6d 3f
       0.0013926604276084064 0.0035686943721504718
000270 d5 45 cf 65 be 62 64 3f 63 a1 fe 8b 4d 4c 35 bf
       0.002488490934845026 -0.00032498257859938355
000280 7a 55 ee 2a f4 04 3b bf ba 1f a9 03 64 13 48 3f
       -0.00041228257298916266 0.0007347334242888616
000290 96 03 24 f6 fb 6b 4e bf bf 67 a5 d7 18 47 69 3f
       -0.000928400066442336 0.0030856595232479907
0002a0 a2 d3 7c e1 8a cb 61 3f 22 a3 a8 2d 26 fc 41 3f
       0.0021722519412840794 0.0005488573472734774
0002b0 be e2 4e dd 54 4e 63 3f a9 92 49 b7 57 31 32 3f
       0.0023566873082610787 0.00027759925368390587
0002c0 fb 89 23 23 c6 7d 69 3f 76 08 64 62 c4 74 67 bf
       0.0031117315166835336 -0.0028632960921877683
0002d0 e0 54 bd b7 4c 80 03 bf 01 36 71 51 24 9a 64 3f
       -3.719553111972986e-05 0.002514906820158869
0002e0 16 0a b1 c2 76 63 4e 3f 5f 2e d6 72 99 de 6e 3f
       0.0009273843655893145 0.003768253044375488
0002f0 8d db ac 76 36 54 5d 3f 9c 44 7c f6 3e 2a 53 3f
       0.0017900974150515143 0.001169740187780633
000300 c4 c8 bc 49 cc 45 2a 3f 49 0e 01 a6 e0 6d 64 3f
       0.00020044440031480846 0.00249379994059654
000310 62 fd 5b 20 ee c9 fa 3e 9e 34 04 fb ca 45 6c 3f
       2.5547780771792933e-05 0.00345124859462105
000320 cd e2 f9 ff c1 7f 6a 3f 7d b2 53 b6 02 92 5a 3f
       0.0032347477970769757 0.0016217257009955293
000330 ea 78 3e 55 70 96 69 3f 19 35 11 e9 62 4f 73 3f
       0.00312349262271915 0.004714380616019719
000340 c2 16 8a 7e f9 1f 66 bf 74 37 5c 23 4d 0b 60 3f
       -0.0027007935462418373 0.0019585138896961955
000350 38 93 de 08 7b f7 64 bf 2f 9a 63 c3 8d 57 4f 3f
       -0.0025594141979631523 0.0009564821437180788
000360 41 04 e5 97 16 02 53 bf 9b 7b f3 46 00 f3 2e 3f
       -0.0011601658475941664 0.00023612383254253692
000370 84 eb 30 c6 5d 30 30 3f 87 66 2e b8 d7 58 45 3f
       0.0002470234814528282 0.0006514600103059855
000380 0c 5f 73 f6 c5 94 59 bf 49 29 7d 7a 2b cf 21 3f
       -0.0015613492230865415 0.00013587384932584937
000390 fe ef 39 76 29 7f 6e 3f 0e 49 dd 39 c7 bf 49 bf
       0.0037227449227525957 -0.0007858011992800966
0003a0 02 00 7f 8b 29 62 3a bf 87 51 5f 99 cb ef 55 3f
       -0.0004025794437403364 0.0013389099381032347
0003b0 d6 3b ac b7 d7 ef 61 3f 79 4c f2 e6 f5 66 65 3f
       0.002189561198413052 0.0026125719810550754
0003c0 f5 d6 07 11 6a 4e 5b 3f 8f ff 42 23 34 8e 60 3f
       0.0016666446500698793 0.0020209329905753258
0003d0 17 b4 3e e2 5c 17 5a 3f 57 dd 94 9f 33 e1 52 3f
       0.001592484194570481 0.0011523250708032806
0003e0 52 c7 d2 e3 ad c3 31 3f 64 91 61 44 ea 3c 5c 3f
       0.0002710628066991866 0.0017235076679976364
0003f0 e2 8d c2 21 3d 5f 41 3f 64 9c bb 4e a7 7c 54 3f
       0.0005301521773798913 0.0012504228461070127
000400 94 05 3c ab 5d 3f 70 3f 5a bd 87 75 b8 4d 6e bf
       0.0039666804257206985 -0.003699169418034093
000410 57 f2 dc 3a af 14 60 3f 99 0e 67 19 8f cd 51 bf
       0.0019629881343504007 -0.0010866067365079889
000420 0f de e8 f0 5f 94 4b 3f 09 c4 41 3b e0 50 56 bf
       0.0008416622602628892 -0.0013620557556601762
000430 51 ca 56 34 81 c6 53 3f 0c 86 02 99 80 d5 05 3f
       0.001206995178432497 4.164503764171262e-05
000440 a0 4a 30 04 cf 78 32 3f d7 ea 1d 59 cf 82 2d 3f
       0.0002818589602508279 0.00022515088181392667
000450 ad ae 60 f3 3b f7 6b 3f 34 75 be 79 41 0f 67 3f
       0.0034137888824455538 0.002814891702611755
000460 08 14 34 f9 f4 e7 64 3f 8f 59 cb 94 36 f2 11 3f
       0.002552011932154933 6.845911157014036e-05
000470 74 6a 40 66 7d 67 4f 3f b0 67 e7 1c 86 9c 6e 3f
       0.0009583818723542651 0.003736745776433424
000480 0a 85 1f e9 a5 21 52 bf 8e fb 2e a3 c9 d9 6e 3f
       -0.0011066551419321468 0.0037659586173214915
000490 c4 83 46 10 31 7a 3e 3f 7c 75 0f 8a 3f a7 72 3f
       0.0004650468620415705 0.004554031563171686
0004a0 9d 81 0e 9b fc 66 6f 3f 7b 0b 6a 63 f3 c0 6b 3f
       0.003833287592400049 0.0033879045179800427
0004b0 51 71 3d 71 d8 7f 67 3f a5 c4 dd ef ff 5b 73 3f
       0.002868578661873546 0.0047264096773328755
0004c0 d7 50 22 1c a5 9f 51 3f c6 e5 ce 1d 85 d5 38 3f
       0.0010756599809030232 0.0003789377204231583
0004d0 6c 97 c2 9e 0a fd 5c bf 3e 60 94 5b d0 af 4b 3f
       -0.0017693141663044044 0.000844933259176457
0004e0 ac 70 f4 5e 7f c1 5b 3f 5f 64 bc c3 2c 61 5b bf
       0.0016940826279272887 -0.0016711175111992144
0004f0 0a 7f b4 13 0a b8 64 3f ea 42 0d 5b 7c 82 47 bf
       0.002529163056934074 -0.0007174594121384912
000500 eb b4 3b 8a 22 6d 6a 3f 3d ff f5 93 5c fa 66 3f
       0.003225867710958332 0.0028049286044619357
000510 bf 25 76 27 e9 43 62 3f 06 96 be 6d 6e a9 48 bf
       0.0022296479980396795 -0.000752619667299726
000520 8d 1c e5 73 40 ab 2e bf df 29 16 c3 fa 3b 6c 3f
       -0.000233985536349322 0.003446569223062953
000530 31 11 95 8d 50 a4 36 bf 36 ed e7 32 73 75 18 bf
       -0.00034548727633800224 -9.33028756903612e-05
000540 7e 48 fb f4 03 c0 f7 be 63 ba 20 d5 d0 ac 34 3f
       -2.2649822595984397e-05 0.00031547640276389214
000550 ce dd fc af 5d ea 70 bf f3 53 59 ca b6 cd 60 3f
       -0.0041297588029957765 0.002051217091131091
000560 d1 a9 3a eb 3f 01 3c 3f 70 3a ea e6 21 b0 61 3f
       0.00042732058066499457 0.0021591817997610938
000570 7b 16 94 8c 60 1f 4e 3f 6a c8 97 5e 69 b1 61 3f
       0.0009192677909203995 0.0021597917554965667
000580 4a 5d ca 1c 06 0a 47 3f a1 d6 d7 42 20 10 33 3f
       0.0007030992361078206 0.0002908781778779655
000590 3e fc c1 bd 42 04 42 3f 5a f1 81 00 65 a0 71 3f
       0.0005498243222205113 0.0043033547773315365
0005a0 c4 58 b4 75 c4 d6 75 bf 8e 22 07 a2 97 d1 4f bf
       -0.005331771298435043 -0.0009710302729724772
0005b0 ae c8 11 27 1e da 5b bf 6c cb e3 a4 9b af e6 3e
       -0.001699952550805277 1.0817512841464995e-05
0005c0 8a 62 ee ee ae 35 e5 3e 6d 0b bb 79 7b 9c 60 bf
       1.011357332263262e-05 -0.0020277415877400424
0005d0 11 e4 17 96 ac ac 56 bf 35 f1 59 fa 49 3d 4e bf
       -0.0013839421666246336 -0.0009228335590729999
0005e0 48 da be 81 59 82 4a 3f 95 2b c0 e1 3f 5c 5f bf
       0.0008089959187518947 -0.0019140838476256795
0005f0 a1 99 01 1d 77 7a 43 3f 54 ef 0c 8c ac bf 57 3f
       0.0005944329841554471 0.001449507239342081
000600 f1 09 13 52 cb 50 31 bf 68 eb 91 eb 35 1b 5c 3f
       -0.00026421512491139806 0.001715471893730858
000610 9c 89 10 4a c3 b5 31 3f 3f bc 00 2c cd f1 71 3f
       0.00027023332410371927 0.00438099046009116
000620 60 12 dc 2f 11 39 5c 3f 72 4b 64 94 0a 88 4a bf
       0.0017225902406049695 -0.0008096744211648478
000630 9d 73 4e 52 2c 98 52 3f aa 85 b0 6b 8b 79 58 3f
       0.0011349137141458473 0.0014938222436814232
000640 f3 9f 91 a6 50 ea 6c 3f 76 df a9 2b 04 b6 51 bf
       0.0035296988685793395 -0.0010809937217839106
000650 25 db 81 1a f9 80 24 bf 8b 3b 83 08 9d 24 56 3f
       -0.00015643158735986168 0.0013515027549606286
000660 ca 21 46 61 49 e8 40 3f a4 9d 7d 9a 98 92 64 bf
       0.0005159719753900446 -0.0025113087212280272
000670 05 b1 99 2f e9 5f 6c 3f 61 dd 7b 9d 70 b0 55 bf
       0.00346370262268725 -0.0013238048322231288
000680 bf 47 d7 e4 9f da 4a bf e5 f3 b9 14 62 86 60 bf
       -0.0008195191127759945 -0.0020172038692280896
000690 da 31 fc f1 cc ad 69 3f 5a d4 05 9d b0 ab 65 3f
       0.003134632381153174 0.0026453446845900288
0006a0 1d 71 05 07 82 5d 56 3f 3e f0 93 b3 69 1a 66 bf
       0.0013650674628343303 -0.002698141525455027
0006b0 a8 0f fe 54 65 7f 2b bf eb 76 53 3c 25 e2 29 3f
       -0.00020979034388457257 0.00019747452294088057
0006c0 d8 c1 f4 98 fc 6e 6b 3f a2 18 38 22 82 41 5d 3f
       0.0033488210243819254 0.0017856379353147563
0006d0 b8 89 c9 04 9f 81 63 3f 3a a5 7d b8 d6 bf 36 bf
       0.0023811441263188148 -0.00034712784007824885
0006e0 27 4d 9a b1 65 68 4e bf 01 ea a8 e5 54 c1 63 3f
       -0.000927972464710801 0.002411523642220859
0006f0 4a 49 81 14 a5 24 5b 3f 1f 29 bf a6 0d ce 58 3f
       0.0016566860304193126 0.0015139706911094298
000700 c6 bf 25 39 d0 fe 55 3f 62 05 09 42 1c c2 57 3f
       0.001342490523338556 0.0014500881153625901
000710 48 35 3a 0d 2b 91 53 bf 04 d7 1d 27 20 17 3b bf
       -0.0011942787577113468 -0.0004133656976742369
000720 8d 91 c4 57 2f 16 4d 3f c2 19 b4 42 4e bb 41 3f
       0.0008876544157244024 0.0005411274081843986
000730 5d 76 8f 6f ae 5c 55 3f 4e 66 a4 1c 4b 85 60 3f
       0.0013038352465096971 0.0020166842488265396
000740 e7 11 a4 4f 96 f7 71 bf 62 2c 7b f8 0a 04 57 bf
       -0.004386508133624712 -0.0014047724852612954
000750 28 10 d3 c9 1d 01 52 3f d5 bf 07 29 55 49 63 3f
       0.0010988989736668928 0.0023543036734210245
000760 8e 7e 56 89 2f 04 4d bf 80 71 ed d5 16 68 5c bf
       -0.0008855087386798342 -0.001733801174586963
000770 7a ff 60 ca 11 50 59 3f ae e0 1b f1 00 15 74 3f
       0.0015449689613120363 0.0049028431692407625
000780 a5 b2 9c 52 43 be 58 3f e5 78 50 eb d9 29 6c 3f
       0.0015102059791828684 0.0034379249796209093
000790 f6 42 b8 9d ab f9 63 3f b5 59 52 7b 17 df 39 3f
       0.0024383880497754707 0.0003947670296126319
0007a0 04 fa 29 9f b3 f8 31 bf 84 0d ea 05 f3 28 5b bf
       -0.0002742231874107994 -0.0016577122948156784
0007b0 00 75 8a 73 cf a3 64 bf c0 8e 5e 2c ff 6b 61 3f
       -0.0025195171150033113 0.0021266921857704124
0007c0 39 79 12 14 da 20 55 3f ba c7 c3 ac 70 e2 4d 3f
       0.001289570777124617 0.0009120035333849343
0007d0 46 6c 8b 58 98 e6 56 3f 92 49 63 17 51 5e 60 bf
       0.0013977515938481551 -0.0019980987372971238
0007e0 56 22 8f cd 5b e5 41 bf 2f 75 07 d5 40 5f 55 3f
       -0.0005461405045191308 0.0013044484259048907
0007f0 49 e4 e1 43 02 6f 60 3f c9 0b 10 25 77 88 5b bf
       0.002006058143760235 -0.0016804851077274355
