ResNet-18实现CIFAR-10图像分类/sever copy/Experiment3/model2/bn19_bias.npy (npy, 4176 bytes, 1 tensors)

array f8 [512]
000000 d3 27 e4 3f 77 57 3c 3f 33 6d e7 e1 ce 85 4e 3f
       0.0004324594628007914 0.0009314785164024397
000010 d2 97 19 5c b7 ed 33 bf 96 ed 71 7e 35 01 01 3f
       -0.00030408598477149357 3.243393421655941e-05
000020 6b d3 a3 27 8f d6 52 3f c8 b0 e8 11 20 fe 32 bf
       0.0011497877117651832 -0.000289805249766639
000030 87 f4 36 ec 16 f7 44 bf b2 df 79 88 f7 b5 12 bf
       -0.000639806931239343 -7.13760692806476e-05
000040 2c 20 75 ab 9b 83 2c bf 69 d3 61 3c 66 99 2d bf
       -0.00021754527345252525 -0.00022582409855300835
000050 f3 58 75 84 eb 07 25 3f 74 f4 44 29 a7 89 4c bf
       0.00016045331924869447 -0.000870901700671957
000060 34 e5 17 52 a5 fb 20 3f 57 d5 23 51 fe a4 43 bf
       0.00012956994127914236 -0.0005995027334210573
000070 a4 0a 3f 04 0b 75 29 bf 5d 09 a0 d6 8a 88 4a bf
       -0.00019422301750012417 -0.0008097341462874153
000080 ad a0 0f 63 f2 7a 41 3f c2 6f bd 99 d0 1a 21 3f
       0.0005334552316727158 0.00013049885171312168
000090 9c 04 6a d8 30 92 3a bf 1b 80 e6 02 ff 41 30 bf
       -0.0004054421664606096 -0.0002480743013624235
0000a0 f4 74 cd 37 e9 d3 3f bf 96 b5 9d 39 80 1e 35 3f
       -0.0004856533412772167 0.0003222525643796435
0000b0 1c 1f cc f5 2f 55 4c 3f 3a b3 8a 68 52 7a 2f 3f
       0.0008646473102950944 0.000240156707396544
0000c0 3e 60 4d de 8f 5e 48 3f e8 65 ce 9d dc e5 44 bf
       0.0007436945421472952 -0.0006377532223382195
0000d0 0c b9 20 44 20 a4 56 bf 3a d2 04 36 c6 08 29 3f
       -0.0013819041346426223 0.0001909963566589944
0000e0 f7 2f 10 e3 df 15 3e bf cd eb 81 f8 b8 81 36 3f
       -0.0004590674971616244 0.0003434254254057162
0000f0 01 c8 59 74 20 e4 45 3f 9b fb 7a 9f 32 f0 1b bf
       0.000668063971444477 -0.0001065760515030892
000100 aa 56 7e 38 2d 70 36 bf 90 9d 5f a9 d9 f8 47 bf
       -0.0003423796083493561 -0.0007315695572715376
000110 85 ae 42 3a 74 2a 50 3f eb 82 cc ae c5 92 49 bf
       0.000986684325691296 -0.0007804360626303108
000120 1e 6e 25 2a 43 a6 51 bf 63 4c cf 1b c4 2a 24 3f
       -0.0010772376923203829 0.00015386241821477566
000130 ee bb da 04 f9 be 45 3f ee 2d cc 4c 5a ed 46 3f
       0.0006636348641303449 0.0006996813695833695
000140 20 56 d9 9f c0 73 2d bf 4d 4b 02 7c 6a 46 45 3f
       -0.00022470213291352157 0.0006492633765609962
000150 99 30 a1 1a c5 58 1b bf 77 a6 da 3e 23 d9 3f bf
       -0.00010431960132101444 -0.0004859648750917609
000160 eb 8f 5b aa d5 3d 33 bf 5b 9c 60 1b 99 c7 36 bf
       -0.0002936026233852906 -0.0003475903316733691
000170 45 c9 88 6b d8 7f 0a 3f 9c 62 9a bb 7f cb 52 3f
       5.0543586841549896e-05 0.0011471507445205758
000180 3f 9c ef d2 ca 50 37 bf bd 41 72 72 9b 72 3e 3f
       -0.0003557677436547036 0.00046459479421747854
000190 28 04 cc c0 ad 12 41 3f 81 ec a3 c6 1f 29 46 bf
       0.0005210255054352063 -0.0006762890964461394
0001a0 54 40 5d a1 59 1e 31 3f 9d 27 54 ca fc 1e 30 bf
       0.000261208422092989 -0.00024598762168236995
0001b0 96 93 9e 9f 46 c7 2b 3f be 71 fe 96 d2 1e 40 bf
       0.0002119325361579465 -0.0004919555922132041
0001c0 82 7a 3c fa ac 6d 36 bf 09 7c 75 92 9a 50 4f 3f
       -0.00034223054011476445 0.0009556536432845385
0001d0 1a ad 2d be e1 7f f8 3e c0 2c 1e 20 13 24 2d bf
       2.3364580452972778e-05 -0.0002223275515088382
0001e0 b4 b3 b1 28 22 b3 50 bf 46 2b 0c e6 fe e1 41 bf
       -0.0010192712386711657 -0.000545739614694931
0001f0 b4 e8 d3 20 51 61 05 3f 99 f8 70 29 62 15 06 3f
       4.077938874931641e-05 4.2120989001124747e-05
000200 66 35 56 dd 4a 75 3b 3f 5a 5c bc 4a 99 51 39 bf
       0.0004189784788984546 -0.0003863333938495854
000210 8e 47 aa d4 77 01 39 3f 62 ef 79 b2 84 61 38 bf
       0.0003815572314717013 -0.0003720234840114326
000220 54 bd 69 16 cc fc 53 3f e4 5e 47 fb dd 0d 3c bf
       0.0012199395220269986 -0.00042807263824105727
000230 a2 3e ec d7 12 d6 3f bf c1 09 b5 3e fc 91 d1 be
       -0.0004857822422516899 -4.18907527982782e-06
000240 b4 21 18 d1 36 bf 36 3f 37 81 a0 c9 b6 5a 3e 3f
       0.00034709060955198244 0.0004631706484605926
000250 6c 0b ad 05 21 db d2 3e ef 84 b0 35 59 6d 49 bf
       4.495614201629728e-06 -0.0007759748072012888
000260 f7 9d b0 60 49 7a 5a 3f c2 47 a6 d0 55 c6 30 3f
       0.0016160694674541823 0.0002559623250358822
000270 bc c2 81 d9 f1 88 2e 3f 03 f2 43 ee 59 eb 55 3f
       0.00023296310678546327 0.0013378504018525257
000280 74 fe 78 86 30 32 3e 3f 3d f9 51 97 86 59 35 3f
       0.00046075520228681184 0.00032577072062868804
000290 c7 e3 35 72 d7 0b 42 bf 10 17 1f db 1c 76 29 3f
       -0.0005507280333595315 0.00019425489659690614
0002a0 0d dc 51 e8 1a ca 47 bf cb 72 1b 0c 3d ce 49 3f
       -0.0007259971031449167 0.0007875249941338922
0002b0 72 3b 15 df b3 f5 41 bf df 92 48 e0 81 7a 36 3f
       -0.0005480888632208704 0.00034299536517527583
0002c0 2f 25 5d cf 72 c8 2e 3f 3e ac b8 3e c5 c8 49 3f
       0.00023485566605988817 0.0007868731603982782
0002d0 96 82 32 c4 cc c6 15 bf b5 df e4 40 68 98 3b 3f
       -8.307099146743555e-05 0.00042107148410108357
0002e0 eb 28 9b ef c3 d1 02 bf 20 da dd 1d 1d 8a 28 3f
       -3.589514922238017e-05 0.00018722157886559652
0002f0 ff 9c 18 82 66 03 46 bf b4 14 1c 6c ea 37 05 bf
       -0.000671792080713468 -4.047092580886907e-05
000300 c4 db 53 3a 60 fa 33 bf f3 ce 4e b7 a6 85 2c bf
       -0.0003048405581717562 -0.0002176061640547438
000310 ee d5 93 0e 22 3b 57 3f 64 01 00 95 7e 11 39 bf
       0.0014179070079171035 -0.0003825124776995119
000320 81 6a 34 29 7d dc 31 bf 94 71 9c 39 3e f4 48 bf
       -0.0002725415772190446 -0.0007615379174441988
000330 85 78 e1 f8 22 30 43 3f a8 a9 0a fa 83 11 16 3f
       0.0005855723154686443 8.418434164051433e-05
000340 51 39 22 1d b3 ad 59 bf 0b 9a fb 89 8c 82 33 bf
       -0.0015672921331631626 -0.0002976983177930554
000350 00 18 d8 37 17 cf 3c bf 0f 19 12 b6 be 72 52 3f
       -0.0004395896611132377 0.0011259901441760844
000360 a8 85 47 be 92 eb 27 3f a0 f0 29 24 ec 2d 54 bf
       0.00018249670314589056 -0.001231651884750419
000370 c8 92 7b 36 ba 09 42 bf 4d 83 31 81 be c4 41 3f
       -0.0005504760019588656 0.0005422525595229849
000380 47 f1 59 c1 25 51 2d 3f e8 d1 19 45 bf 18 29 bf
       0.0002236708248125696 -0.00019147238576845628
000390 cc e9 da c7 3c 86 40 bf 22 38 95 e0 41 f9 44 3f
       -0.0005042835980114068 0.0006400653520957126
0003a0 7f 91 b1 58 46 68 2a bf 65 27 48 63 a9 a2 4b bf
       -0.00020147188874653982 -0.0008433653916324167
0003b0 7f 41 ea cc 76 53 3c 3f 2e 32 59 44 f5 e3 27 3f
       0.0004322209396514717 0.00018226975423586825
0003c0 21 ee 0a 8d ba ff 33 3f 47 29 cd ba ef 96 08 3f
       0.000305159611382529 4.690093132937944e-05
0003d0 73 9b c4 ef de e3 02 bf a6 9c 04 8e 21 37 3e bf
       -3.6030045494953466e-05 -0.0004610497399135195
0003e0 ef aa e7 be 2c 40 fa be c0 9a 74 7f 6f 76 2d bf
       -2.503460194162426e-05 -0.00022478209550876559
0003f0 37 72 ba ac a5 50 12 3f e6 94 c5 dd 8e 7b 31 3f
       6.986628721467816e-05 0.00026676404902155196
000400 14 1e f2 91 4b ab 2f bf 02 bb bb 22 bd ae 38 bf
       -0.00024161622511463586 -0.0003766261822723411
000410 35 af 71 6d 59 5b 50 bf 56 24 0e a5 3c 41 00 bf
       -0.0009983418765626255 -3.100363085823596e-05
000420 35 a3 03 7f 0b 5c 25 3f 33 f2 3b 65 ae 97 55 3f
       0.00016296043714383317 0.0013179019051100637
000430 8b 42 d2 cc 52 30 36 3f dd b2 60 71 79 32 00 bf
       0.00033857366072091087 -3.089364160788696e-05
000440 51 b2 1e 0c 40 74 50 bf 2a fd f4 37 7c c2 34 bf
       -0.0010042787039125265 -0.00031676800422882295
000450 df 15 ca b3 31 c9 19 3f 30 15 7f 2b 76 26 3a bf
       9.836545809534896e-05 -0.00039902100570217685
000460 15 51 cf d2 a4 92 55 bf 44 a8 b8 12 01 1c 1e bf
       -0.0013167008976227624 -0.00011485821294657342
000470 11 79 a7 f3 24 dc 28 3f b1 12 b2 33 0a 0d 4e 3f
       0.00018966628142797666 0.0009170818151607777
000480 f7 06 ac c7 7c b0 50 bf 59 8b 10 ee 4d f2 19 bf
       -0.0010186403803235636 -9.897804876905554e-05
000490 36 b9 35 56 29 eb 29 bf 2e a7 60 05 f3 ff 54 bf
       -0.00019774322127425755 -0.0012817261936199464
0004a0 44 1d b1 c0 6b 50 1e bf 73 d7 54 51 bd ea 48 3f
       -0.00011563928289703035 0.0007604050066791615
0004b0 4e 3b a2 22 ee 86 4e bf 5e c3 06 1f b5 87 30 3f
       -0.0009316122789345489 0.0002522294226095424
0004c0 0d e5 86 c2 8e 3e 25 bf b7 a9 10 8f aa 73 38 3f
       -0.00016208164858059378 0.0003731051829755321
0004d0 8c 38 c6 08 59 00 4e 3f 31 65 af 88 5c 2a 48 bf
       0.0009155688035649297 -0.0007374717546283824
0004e0 90 0f 6a 8d 37 5e 44 bf 13 a4 42 df ea 3f 2b bf
       -0.0006215831043196885 -0.0002078985413665196
0004f0 d7 33 0a a0 d5 f2 3b bf 62 d4 fc fe 70 2a 44 bf
       -0.00042646136720564165 -0.0006154109705450823
000500 52 38 bf d5 19 ca 1e 3f 25 3c f3 c4 cf be 2d 3f
       0.00011745245632186041 0.0002269390701940831
000510 25 1b f1 ef f5 05 4f bf c8 5d e2 84 0d b6 3e 3f
       -0.0009467554917897732 0.000468614864880004
000520 3f 06 1e fd 17 1c 20 bf 06 45 7e 87 d5 cd 5b bf
       -0.0001229075701836713 -0.0016970238920957516
000530 dc f2 6c 7d 44 7e 3e bf 89 7e 1d a3 35 6c 43 3f
       -0.00046528980367436883 0.0005927335643995539
000540 67 e5 e4 59 51 dc 40 bf 68 a8 99 ce 4e 24 33 bf
       -0.0005145451757819053 -0.00029208110809142993
000550 96 3f ea 81 fd fe 30 bf b8 83 d7 e4 f3 86 52 bf
       -0.0002593392290828276 -0.0011308080460070546
000560 a4 3e 5e 73 92 3e 21 3f 44 66 63 ba 09 29 45 bf
       0.0001315645001196314 -0.0006457612514864726
000570 4c be 41 3f 81 c5 31 3f f6 30 31 b8 54 c9 36 bf
       0.0002711716217680168 -0.000347693618270708
000580 d2 2d d1 41 99 ae 40 bf 2e 86 4f c6 c3 f3 2e 3f
       -0.0005090950322794113 0.00023614659144670494
000590 57 82 0e cf ed f3 4a bf 94 b2 20 4f fc 54 55 bf
       -0.000822535626969832 -0.0013020004230483205
0005a0 6c 4e 93 a9 ab 4a 48 3f 00 90 46 5d bb 94 59 3f
       0.0007413232989627711 0.0015613393526132668
0005b0 ec f3 10 96 8a f2 0c 3f 4d 47 37 f7 8d 05 23 3f
       5.521283561236282e-05 0.00014512403468685612
0005c0 37 31 b8 f6 cf 42 57 3f 3a 56 25 44 fc ba 0a bf
       0.0014197379013039643 -5.0984214356713774e-05
0005d0 ec 36 85 9e 39 f4 20 bf 47 ce 8c c5 2c 44 39 bf
       -0.0001293487869226598 -0.00038553326662624617
0005e0 54 e7 47 72 8e 9e 44 3f 14 a6 84 a2 48 d9 27 bf
       0.0006292529620275191 -0.00018195163398475377
0005f0 f9 95 d5 33 17 9b fb be 10 c4 7f 9d 5f 07 55 bf
       -2.6326964179720542e-05 -0.0012834962599266343
000600 52 19 4c 66 da c8 1f bf 59 8d 18 68 f2 fb 37 3f
       -0.00012124856000292797 0.000365969353966563
000610 c4 fa d6 b3 21 ae 3b bf c7 a7 07 87 90 e4 0d bf
       -0.00042236635985297096 -5.701604903036967e-05
000620 dc 5e 1b 91 86 90 01 bf 1d 95 0a 1f f5 db 41 bf
       -3.350172677379717e-05 -0.000545019806015876
000630 d6 b6 b8 63 b9 1b 27 bf 66 70 db 87 51 df 48 bf
       -0.00017630231910586183 -0.0007590435122568739
000640 ec f0 03 09 01 8a 1e 3f 12 0f 8b 9f b7 c6 48 bf
       0.00011649733847102537 -0.0007561108205540199
000650 4f 4c 1c 0e d8 b7 58 3f ad be 7c e2 da 88 30 3f
       0.001508675566985546 0.0002522978197587549
000660 4e 42 50 39 3a 88 05 3f 72 28 fe 6a 05 12 0e bf
       4.106929478820254e-05 -5.735472711794553e-05
000670 35 40 4d 1a 83 3d 36 3f a4 46 80 d2 42 52 46 3f
       0.00033935976744192974 0.0006811929970373565
000680 12 7e 8d 7b 4e 3e 56 3f 80 aa 1d 0b c8 7c f9 3e
       0.001357628482047239 2.4306704922075987e-05
000690 70 db e5 db b5 0c 20 3f 11 68 b3 8c 07 dc 24 bf
       0.00012244911153988123 -0.00015914528044086486
0006a0 7a d5 fc 2a 93 96 12 bf fa 21 aa 7e 45 7a e1 3e
       -7.09082912607374e-05 8.333980038758595e-06
0006b0 1d dc 4a be 57 3c 4b bf 23 3f d4 6e 66 d2 1b 3f
       -0.0008311680254199403 0.00010613203240361335
0006c0 4c 04 7d 08 64 3a 2e 3f 57 97 74 41 07 2b 24 bf
       0.00023062201602822225 -0.00015387023516060902
0006d0 99 f4 95 0d 38 68 09 3f 87 03 db ca 6e 5b 32 3f
       4.846020756142065e-05 0.0002801080216663855
0006e0 f8 a9 6b 47 3c af 08 bf 19 a9 29 55 23 50 51 bf
       -4.7081973141366946e-05 -0.001056704048688467
0006f0 e0 20 3d 6f a8 d3 2c 3f 3e 74 37 c5 83 55 43 bf
       0.00021993094525841247 -0.0005900281343503911
000700 7f f2 7e 92 aa 85 44 bf e3 d8 13 c0 7d 21 2b bf
       -0.0006262858269035636 -0.00020699176824451942
000710 00 c7 52 e1 26 c1 49 3f 93 00 ca 73 89 ec 40 3f
       0.0007859649509980027 0.0005164786485494392
000720 b2 c0 cf e5 03 71 3d 3f d3 d3 dc 74 35 64 2a bf
       0.0004492411151764227 -0.0002013507132062874
000730 8f b1 53 08 92 19 3e bf 5a c5 2b 7f 0c 3b 44 bf
       -0.0004592877888416552 -0.000617390729841609
000740 4d af 7e 61 9d ef 41 3f 32 02 29 b5 e3 76 ff 3e
       0.0005473631344918656 3.0006801646333642e-05
000750 66 d6 c4 3d d2 58 18 bf b2 21 cd 42 02 34 46 bf
       -9.287627421347144e-05 -0.0006775866546400637
000760 b7 96 d8 e3 32 09 3d bf 3a b2 fd 65 15 90 40 bf
       -0.00044305317337243625 -0.0005054573521028956
000770 c5 2e f0 cd f4 d3 4f 3f b7 7f 40 25 e4 0b 39 bf
       0.0009713120779237463 -0.0003821784969222324
000780 09 48 c0 de c7 48 34 3f 71 97 a1 93 3d cc 2d 3f
       0.00030951385156285975 0.00022733928364287615
000790 a4 e0 7e 9c 57 70 3f bf 7b 04 87 52 c7 3f 00 bf
       -0.00047971857975027455 -3.09927657471476e-05
0007a0 0c 66 3a 7e 49 1a 26 bf 9a 65 e3 82 5b e6 11 3f
       -0.00016863009578997645 6.82824472478999e-05
0007b0 83 aa e7 19 d6 88 3c bf d6 fa b0 43 ac d2 42 3f
       -0.0004354021747576058 0.0005744305739268883
0007c0 2f c7 1d ac 57 84 52 bf bc 72 f3 81 fd 87 4f 3f
       -0.0011301857161609243 0.0009622562246494808
0007d0 ad 3c 89 17 3f e8 33 bf c3 b0 cd 54 f1 c3 40 bf
       -0.0003037599595118828 -0.0005116394400892721
0007e0 15 34 e5 90 8a 89 38 bf fb b3 66 c4 27 33 1b 3f
       -0.000374409036244584 0.00010375910014799587
0007f0 d7 44 ef b1 df 96 35 bf ac 24 ea e2 c3 fe 38 3f
       -0.00032942735009295953 0.00038139612562610825
