ResNet-18实现CIFAR-10图像分类/sever copy/Experiment3/model2/bn1_bias.npy (npy, 592 bytes, 1 tensors)

array f8 [64]
00000000: d190 c5c9 afb4 163f 7db5 e8ef bcbc 7abf
00000010: ad47 c0a8 4686 733f 8d4e 40db 1ca4 3b3f
00000020: d7d8 c821 243c 693f 4c8e a0f4 e4d7 56bf
00000030: 8282 36de 1ce1 58bf 4d82 4ca5 37d7 4ebf
00000040: 9670 f2fc b435 753f c708 424d e419 4f3f
00000050: b611 7cb0 6d6a 653f 1dc4 cce6 2e66 77bf
00000060: 3e86 060e 5606 57bf f013 47a6 a704 633f
00000070: b4ff 2e94 d8ef 673f 0fc0 f36c 4425 733f
00000080: 0dfa d464 31d1 6dbf a98e 4a92 c061 5c3f
00000090: 4100 bb24 9a91 503f 38d7 bc6b b8aa 70bf
000000a0: 4c84 fbd8 88bc 623f 0243 d956 f66e 783f
000000b0: 4600 814e 1540 63bf 7902 24ea 9563 72bf
000000c0: b33b 4358 097b 473f a9a1 4428 7014 50bf
000000d0: 2089 7bb6 8bb6 69bf d841 9a0f bd22 533f
000000e0: 20d7 efcf ea23 623f 803a 7766 911f 2abf
000000f0: c923 0e1c af63 6d3f 5ce8 9342 5064 7dbf
00000100: 1938 fc20 88f8 69bf 406b 4d01 ee91 c1be
00000110: 404b b595 1fd2 033f f42e 746b 8217 22bf
00000120: 4e8b de6c 7c08 75bf 0b90 680c 1545 7b3f
00000130: 392c f730 dd6b 333f 8cdd b35a ce20 683f
00000140: a55c 0565 c76c 5ebf ec37 1eb4 75e2 48bf
00000150: a5e3 d2de a807 743f dabb 8a6d f38c 643f
00000160: c7f8 bd23 1505 66bf 6b77 7066 9d93 5bbf
00000170: fa6c 2812 6fc2 4bbf f08e c67a 023c 72bf
00000180: 204c 51e7 ce18 553f 4391 f1b1 28ec 563f
00000190: e644 6dea 3b18 39bf ac9b fb62 2abe 6a3f
000001a0: dc79 70e0 f934 543f e54c de4b 8ff6 6dbf
000001b0: f658 4d2c 6fd3 673f cebf aede 2026 57bf
000001c0: 52d5 bf2b cd92 5bbf 87a2 27d0 dfa8 613f
000001d0: 716f 29c2 9955 623f aac6 6b47 eec0 69bf
000001e0: 6a14 fc7b 2375 293f 4935 6cd4 d029 51bf
000001f0: 1764 340e 2d4a 6fbf 3391 09c7 7d1d 53bf
8.661578107688478e-05 -0.006527650867196197 0.00476672745937094 0.00042176918509648985 0.003080435343032577 -0.001394246663502313 -0.0015185148157358668 -0.0009411832530511005
0.005178172096886998 0.0009491314654186616 0.002614225613685596 -0.005712683877207273 -0.0014053192499904467 0.002321555557701853 0.002921984677840295 0.004674212729909768
-0.0036397900318256905 0.001732290323311606 0.0010112767512708983 -0.00406906165499326 0.0022871659092378645 0.005965196860032719 -0.0023498932023642586 -0.004489503482773765
0.00071657139099012 -0.0009814353262048525 -0.003138802410704092 0.0011679502771678642 0.0022143922974419278 -0.00019930505662420564 0.003587572108191915 -0.007175744548698484
-0.003170266987473813 -2.094511737755182e-06 3.780516518738517e-05 -0.00013802973783360423 -0.005135046039785275 0.006657678814494981 0.000296346189284594 0.0029453306539115095
-0.0018569895947473738 -0.0007594179844418992 0.004890117311497831 0.002508616871942132 -0.002687970436396989 -0.0016831433401942274 -0.0008471529329797938 -0.004451760946185365
0.0012876530211272177 0.0013990781224260819 -0.0003829141882550471 0.0032645061363498398 0.0012333336069399936 -0.0036576079136892863 0.0029084369038329073 -0.0014128991121928783
-0.001682949411585828 0.002155720839472078 0.0022380831808685377 -0.0031437543760766866 0.00019422586591858203 -0.0010475673058779214 -0.0038195495595911943 -0.0011666992469595127
