ResNet-18实现CIFAR-10图像分类/sever copy/Experiment3/model2/bn20_bias.npy (npy, 4176 bytes, 1 tensors)

array f8 [512]
0.0013100250215799083 0.0032615709073234686 0.002510064982412229 0.005457309088599784 -0.004185635373207705 -0.0017790069505265209 -0.0005401175956773545 0.00400396221681053
0.006319902632852181 0.0002957321921150288 -0.002511169270493726 0.0022227904394323274 0.0013132048665252432 0.004758612312825431 -0.00187698197570784 0.0013267050819294986
0.008555565219789965 -0.0010182273712134684 0.00014445635074310958 0.0018968893358457825 -0.00014336848333414116 0.0038957271155642286 0.003441912628946314 -0.0055570914567518274
-0.0017848772821463781 -0.001930178147097758 -0.005439817589747605 0.005367710872913848 0.0016221881163613278 0.005013823571265338 0.00023220608889884818 0.0028877981028752175
0.0041655381337024735 -0.0009985669313717313 0.0030813071505588277 -0.0005577206374903293 -0.006826143577086083 -0.003762758640806564 0.0005582964503048407 -0.0003589315438662396
0.009135805169159898 0.003005868920561641 0.004204757551397969 0.0034669126618099354 0.0018863145219636939 -0.0010369464136021475 0.0010163217310341153 -0.0034308756659544785
0.001108410191864754 -0.002003977518603865 0.0020325237189969193 0.01069194440911915 -0.009422863872751949 -0.0003919394083022601 0.0004557841101165928 0.003418920130704596
0.000967096963195849 -0.0017110922945517677 0.0016731410683437863 0.004938097433317792 0.0018099426646209702 0.0009089573530675846 -0.000823529324509245 0.001095955300075738
0.001251438895326842 -0.0028674086020433697 0.0005122019486441239 0.00011885263342867314 -0.0007031156650096611 -0.004772163008193909 0.000950137003921109 -0.0009473872106813533
-0.0005923216388919548 -0.0008969139244245046 0.0012682926778763359 -0.004314787234123241 0.0020057514277791602 0.004382524524907119 0.0029495153002284916 0.0008674682309128499
-0.000429579357315967 0.0019105552792421192 -0.0026938678007375496 0.005242652352589963 0.0023715090642099645 0.0019413552219111894 0.004485493444707884 -0.00048763824365725934
0.005498547650330374 -0.003677649373463102 -6.0316434951155614e-05 0.002753412622792764 0.0018160382482295563 0.00494627455077112 0.0014700181317416766 0.0013721909603469874
0.0007721387263952638 0.005648208248528345 0.0015005402916989524 0.004302771990828909 0.007267840109333627 0.0032813730171255785 0.0006043225928608533 0.006640017827335009
-0.003253931593982956 0.0028572868600661517 -0.00424283725682552 0.0011561006448206855 -0.0009990736003627372 -0.0012302323513307435 -0.0008411506324037541 0.0011894031582692656
-0.0014634707257685695 0.001665341964500141 0.0038815240244071516 0.0015053465225644412 0.0004201470335455407 0.001586031013930052 0.00497441856706577 0.003506518010252439
0.003953608106247959 0.0023613643966731075 0.0023660103579802023 0.0012478017060773277 0.0011019288212070915 0.005257619640482968 0.0012503167856516137 0.002068016828968307
0.005733583427938004 -0.004644452248532617 0.0018401792891700917 -0.0029776328072403688 0.001238783819449109 -0.001779635696037946 0.0020444070781733244 5.661269829051242e-05
0.002726020571072471 -0.0001535862114134842 0.004748757687997548 0.004034454419573283 0.00554030834571749 0.0010411833437457701 0.0011527523961229547 0.005278730279282272
-0.002585100996525802 0.004716866438811056 0.00047942225238305604 0.005948929264803608 0.0045632568811062885 0.004823869057539183 0.0031498031186819766 0.008890165238048078
0.0012946470580317618 0.0010423722923268517 -0.0014318293857876095 0.0003335242518460507 0.0021787147887749594 -0.0027412325685193316 0.0032255349375739373 -0.0005236634038455244
0.005532399327085778 0.004607060661927569 0.00166018674544482 -0.00032429488877876937 -5.789024117212713e-05 0.005267486760115426 -0.0015533242253967553 -0.0005485704157943657
-0.0006230750990917736 0.0008006381502094522 -0.004760474914983142 0.0037223710093324098 0.0007139448153685566 0.0027455148188535432 0.0019240731512285836 0.002554385195536883
0.0011105401390187255 0.0013526920240253457 0.002399665906767163 0.005456433345389204 -0.008248339075730483 -0.0020785501772576645 -0.0023637680550048184 -0.0003260375239336753
-0.0007616809822484058 -0.0036633493599220308 -0.0019890920605139706 -0.00116306037777817 0.0021522213271427957 -0.003196166520821273 0.0001306278579066705 0.002735510206001458
-0.00042175475887215304 0.0027317888117453556 0.0002972389895351151 0.007298270812996203 0.002647645262357501 0.000638377680899218 0.0007542990823200904 0.001135297491975267
0.005575484918403786 -0.0010826342280861347 0.000556744011814484 0.002605359711501231 0.0004020992935723466 -0.004165784411310807 0.004705841429995511 -0.0002238271180206826
4.557837395469445e-05 -0.0034792932865236464 0.004559126985917953 0.004817002176167248 0.0020386509105918375 -0.003481612194716021 -0.0008440816054590955 0.001460405440387435
0.004602799551388479 0.003915431885497241 0.0031724607929138377 -0.0020587787422371713 -0.0005826042462195554 0.003105576504674233 0.0029817305131406373 0.003270037577677888
0.002218828053392854 0.0017713833853244669 -0.0018971133107217764 -0.0011871708342577987 0.0010155757454544212 0.001683127858540988 0.0035319612896287053 0.002840773845623822
-0.005980542424707175 -0.000809687988603095 0.0021894587673734426 0.003322866593895894 -0.0020302810268470932 -0.002054025323777636 0.00024356003088595415 0.005466036406694627
0.0051157463680797524 0.005831368995895898 0.0035610403422974024 -3.1252579518996625e-05 -0.001711064180108057 -0.0027020530930914636 -0.002415432314017122 0.0026662800845428224
0.002168899008115189 0.000804407797357465 0.001656015701185378 -0.002189319918217626 0.0006374158186804027 0.0016620697066085715 0.003165524195398441 -0.0028396563692947353
00000000: 34e5 f9a7 a476 553f d960 2d8c 02b8 6a3f
00000010: e456 54e0 fc8f 643f 9c87 f440 675a 763f
00000020: fd8e a7f0 f424 71bf 0ce3 ff2a b225 5dbf
00000030: 4126 68b4 d5b2 41bf 73f1 686c 7566 703f
00000040: e6ba f3f1 e5e2 793f 422b f017 9061 333f
00000050: 9217 87bc 4d92 64bf 437c c887 8735 623f
00000060: d460 19fd fa83 553f 4479 2044 c47d 733f
00000070: ddab da0c a2c0 5ebf ef80 0dbc 9abc 553f
00000080: 08d7 8a86 9485 813f aa9d 9750 c1ae 50bf
00000090: 0a3f b29a 26ef 223f 8978 576a 2114 5f3f
000000a0: f609 f7e4 a5ca 22bf 6590 c691 eee9 6f3f
000000b0: d918 aac5 3632 6c3f 4c03 1561 08c3 76bf
000000c0: f8e1 7763 513e 5dbf 8d70 1a01 c19f 5fbf
000000d0: c986 4eea 0f48 76bf 5eef 74ea 73fc 753f
000000e0: e446 183a f393 5a3f fc93 4304 6089 743f
000000f0: 6ac0 911d 8b6f 2e3f 1cfc 18cd 26a8 673f
00000100: 0d34 df20 e20f 713f eaf8 0914 4b5c 50bf
00000110: 903d 192e f83d 693f 4352 fcf2 7f46 42bf
00000120: 63fe bdf6 baf5 7bbf 1c9b c2a9 13d3 6ebf
00000130: 3699 6d7f 544b 423f 3778 0e3e df85 37bf
00000140: fcb2 6403 cbb5 823f ec4b b796 c39f 683f
00000150: 2cdb bb02 0239 713f 8f9a 0490 a466 6c3f
00000160: fdac a2cb c6e7 5e3f 37b7 c8bb 44fd 50bf
00000170: 1e57 3526 c3a6 503f 2f76 0559 111b 6cbf
00000180: 103f 9361 0229 523f 6f36 f03c a56a 60bf
00000190: 7190 d8dc 82a6 603f 88e3 8a7c a8e5 853f
000001a0: 4b54 5861 4b4c 83bf f1dd cff0 a6af 39bf
000001b0: b027 d4d8 c9de 3d3f 69b5 c4c4 fe01 6c3f
000001c0: b63f 1cea 98b0 4f3f 79af 835c d708 5cbf
000001d0: 666d e38a a969 5b3f 3661 b06f f839 743f
000001e0: dbf3 5623 73a7 5d3f c5d6 6c0d e3c8 4d3f
000001f0: 1964 0ec2 43fc 4abf 412f fd0a c5f4 513f
00000200: a53b 3748 ea80 543f f302 7145 647d 67bf
00000210: f2e0 264f a9c8 403f f857 c9b1 1028 1f3f
00000220: f2be ac64 290a 47bf 5b6d d2c0 f98b 73bf
00000230: 3550 e5ad 5322 4f3f ee40 138b 420b 4fbf
00000240: 502a ac08 c168 43bf dd6c 82fc db63 4dbf
00000250: 61e2 afe4 9ac7 543f 67c4 f4e0 61ac 71bf
00000260: 22b0 2899 5d6e 603f c361 22f8 68f3 713f
00000270: 39f1 1cf8 9429 683f d5b6 4ed7 d96c 4c3f
00000280: f0e3 6b4a 2527 3cbf 2b46 421c 734d 5f3f
00000290: 0346 5343 7311 66bf 36f5 60c6 5179 753f
000002a0: 8033 ef3b 6a6d 633f ffa3 084c a2ce 5f3f
000002b0: 3b4f 6c7a 615f 723f fba6 0c4f 36f5 3fbf
000002c0: cab2 5625 a585 763f 872f 20f9 9620 6ebf
000002d0: ac2b 99ec 889f 0fbf 6d6d 5a25 538e 663f
000002e0: cb84 9a38 04c1 5d3f fcec eb76 8b42 743f
000002f0: c00e 39f3 b315 583f 6c8f 1bd3 627b 563f
00000300: 51c0 f649 2b4d 493f 37b7 555b 9322 773f
00000310: 45d7 aade b895 583f 485d b98f c89f 713f
00000320: 4477 50f9 e1c4 7d3f b6cc 6cb9 89e1 6a3f
00000330: b09d e3e2 6ccd 433f 66b7 9c36 9032 7b3f
00000340: 734d f238 fda7 6abf 1219 d133 2a68 673f
00000350: 1241 2af4 ef60 71bf eb04 779d 09f1 523f
00000360: 4b95 261c 6b5e 50bf 10e1 c9ed f727 54bf
00000370: 0800 853a 1590 4bbf 065b a8ea b77c 533f
00000380: d61b f9b9 3dfa 57bf 243d 8c51 f348 5b3f
00000390: 5a7b ca57 25cc 6f3f c212 5985 e1a9 583f
000003a0: 4348 c2c4 e588 3b3f bb15 75d5 4bfc 593f
000003b0: 479e fe50 0e60 743f a2e9 a885 b3b9 6c3f
000003c0: 48d3 4798 a831 703f eddd 71db 2358 633f
000003d0: bf34 8123 e261 633f 7d68 3fe1 a871 543f
000003e0: 4584 f90f d30d 523f e526 9286 0389 753f
000003f0: bc8e 0e6d 357c 543f 2a63 bc14 f2f0 603f
00000400: 3f77 fd14 197c 773f 8e97 3ea8 0f06 73bf
00000410: 51a5 6877 4526 5e3f c7db d970 8c64 68bf
00000420: 6e3e 72ff d54b 543f e8ee 3f47 5528 5dbf
00000430: fa7d 4bb1 6ebf 603f 87cb 6680 6dae 0d3f
00000440: 936c 6e26 e154 663f 7060 a182 7f21 24bf
00000450: 891a 77ef 6e73 733f 7dd9 a09c 6e86 703f
00000460: f04a 7932 6fb1 763f 4517 461a 0a0f 513f
00000470: 24f7 de75 fee2 523f ff6c 9f5e 269f 753f
00000480: 66f9 9487 592d 65bf df39 8231 fe51 733f
00000490: 4817 1ce5 5e6b 3f3f f87e 378a e75d 783f
000004a0: 22e2 14f1 ebb0 723f 8821 7a7d 31c2 733f
000004b0: 2745 46ac 9dcd 693f bbab a0c7 0135 823f
000004c0: 9b00 8bb1 2436 553f 28a2 f8b9 0614 513f
000004d0: d18c aa18 8775 57bf 5cce 0cc1 9bdb 353f
000004e0: feb2 7b98 18d9 613f 0fcf 7007 c874 66bf
000004f0: 0021 35e2 6f6c 6a3f 27d2 c898 ce28 41bf
00000500: 4b18 da22 24a9 763f 458a fa6d dade 723f
00000510: e95a b9f1 5333 5b3f 8e63 0af1 c340 35bf
00000520: 0797 6d8a e559 0ebf db72 de35 5c93 753f
00000530: 91e9 e12f 1d73 59bf deef 68ff bdf9 41bf
00000540: 5fec 3696 bb6a 44bf 23ef e555 3d3c 4a3f
00000550: ac28 2c41 b87f 73bf 5b08 f5b7 607e 6e3f
00000560: 6f47 0bd1 0065 473f fcf1 710b c37d 663f
00000570: 80ea 9dd0 2586 5f3f 3cf9 091c efec 643f
00000580: d8a2 fd64 f131 523f 5bce 4d00 9a29 563f
00000590: 8f94 e8d2 76a8 633f c50a 572c 7c59 763f
000005a0: a7d6 9c54 81e4 80bf fef0 1921 0907 61bf
000005b0: f7fb ba4f 2e5d 63bf fd07 a880 005e 35bf
000005c0: e9a8 5174 71f5 48bf 9be1 3ab6 9902 6ebf
000005d0: a910 28ab 6d4b 60bf 9e0c 4b92 3a0e 53bf
000005e0: 42b6 d706 89a1 613f 7b71 bed5 d82e 6abf
000005f0: ff15 5cc1 241f 213f b6c0 ecdb c768 663f
00000600: ca25 73e5 dea3 3bbf 8c8e 64f3 f960 663f
00000610: 3ce5 38bd d77a 333f abc2 58a7 cae4 7d3f
00000620: 0005 06ba 83b0 653f e0da 87a1 19eb 443f
00000630: 5475 eaf1 84b7 483f e259 5a66 c899 523f
00000640: 1c65 24d6 51d6 763f 0b2d 9aa6 e5bc 51bf
00000650: b9a3 57a9 4e3e 423f 18b6 2ad8 d557 653f
00000660: c2a5 cd50 1b5a 3a3f 2cb5 f03c 2410 71bf
00000670: 6d00 acb0 6e46 733f 762b c04d 6456 2dbf
00000680: ed41 1b01 6de5 073f 2039 1f5c 9b80 6cbf
00000690: de62 d854 97ac 723f b07d fb2c feba 733f
000006a0: d87f a55f 5cb3 603f 4be7 6f50 7885 6cbf
000006b0: fb3e ff71 aba8 4bbf ca4a be66 62ed 573f
000006c0: 3d2e b198 62da 723f efe7 5dbe a009 703f
000006d0: 891c 4feb 21fd 693f 3f73 c36b 92dd 60bf
000006e0: de16 8e17 3d17 43bf e3ca bab0 dd70 693f
000006f0: d3f6 4261 246d 683f 507b 7d0e c4c9 6a3f
00000700: 85b6 973d 382d 623f 3a76 5a6d b805 5d3f
00000710: cd38 16e8 1115 5fbf 2c12 1bfa 5a73 53bf
00000720: 2eec 4027 a2a3 503f 61f8 dfc6 8c93 5b3f
00000730: b5a5 5947 0fef 6c3f 97a6 64d8 8845 673f
00000740: adf8 05a2 0d7f 78bf 1f7a 2bb7 2788 4abf
00000750: 346c a8b9 a0ef 613f d62e 316b 8e38 6b3f
00000760: ea7b 95d3 cea1 60bf 0cad e772 9ad3 60bf
00000770: 8c8a 0abc 84ec 2f3f 7d1f b0f9 8d63 763f
00000780: f14d 87b5 3ff4 743f a170 0d32 a2e2 773f
00000790: c5bb eaf9 0a2c 6d3f 5c0f a274 a662 00bf
000007a0: 9896 792c b908 5cbf 061c 57b5 9d22 66bf
000007b0: 55c4 6b59 87c9 63bf dc98 7b38 98d7 653f
000007c0: 9b9f dcc9 82c4 613f 0288 5597 dc5b 4a3f
000007d0: a3e8 ce51 d521 5b3f 690f 602e 56ef 61bf
000007e0: f808 2f0c 08e3 443f 9cc8 25c2 393b 5b3f
000007f0: 6b19 9bdc 95ee 693f 0db0 9de7 3043 67bf
