ResNet-18实现CIFAR-10图像分类/sever copy/Experiment3/model2/bn3_bias.npy (npy, 592 bytes, 1 tensors)

array f8 [64]
0	0x3f530846820b9eb7	0.0011616409830654104
1	0xbf6e6e39c16cdd07	-0.003714669040529753
2	0xbf5274c4c5ae7709	-0.0011264726260615274
3	0xbf69ed63d1505bf8	-0.003164954143823003
4	0xbf42384c94ef7ff6	-0.0005560277876348596
5	0x3f31dce8bbad4942	0.000272566623313559
6	0x3f314ce1e1a7938a	0.0002639819591919104
7	0xbf600c349f04ab42	-0.0019589450604561584
8	0xbf56112e05e63455	-0.0013468694156444545
9	0x3f6a923cc49ae5b8	0.0032435595392967496
10	0x3f74ce0795019b4a	0.00507929765453847
11	0xbf455faa6771a2cc	-0.0006522733737145069
12	0xbf5d0457171da016	-0.0017710543147249117
13	0xbf52111e09304100	-0.0011027139014495035
14	0x3f5f8ac95555acf9	0.0019251791139492365
15	0xbf62641b74f3915e	-0.0022450004831730394
16	0xbf709fe21ecb1290	-0.004058726580016839
17	0x3f58ac3caba964ce	0.001505908249461552
18	0x3f51ed8f2ee9e390	0.0010942362092960269
19	0xbf7113125ccc923a	-0.004168578842641818
20	0x3f711ae29c172bca	0.004176030344249912
21	0x3f5fb625c2df289b	0.0019355171930209084
22	0xbf492424649b6a63	-0.0007672479343584056
23	0x3f71f80673360ea9	0.004386925883753592
24	0x3f5f1475f535fb5a	0.0018969680721451971
25	0xbf3c0ec4f60722a3	-0.00042812641734405794
26	0x3f6047ea30971413	0.001987416650737214
27	0xbf445f1bee2a25df	-0.0006216894510810387
28	0x3f549910fa145618	0.001257196978547431
29	0x3f73c1a86ba2c3c1	0.004823358433143577
30	0xbf559c266a63b760	-0.0013189673568904867
31	0x3f6192c17db7a623	0.0021451739428257773
32	0x3f6a41f406bf6952	0.0032052770747956006
33	0xbf5dc2e0be5e527b	-0.0018164820444087893
34	0xbf599fba01cc8562	-0.0015639606928704243
35	0xbf4fa36127a79b1f	-0.0009655212773481448
36	0x3f7686d744a62bc8	0.005499688044788571
37	0x3f62135a1d81fff3	0.0022064933837668776
38	0xbf562ba3d0eb4e3f	-0.0013531780020245158
39	0xbf6b0a7980fb94cc	-0.0033008931276180316
40	0x3f6bb58eecf5d151	0.003382472182858511
41	0x3f52010a2ba3590f	0.0010988807030592495
42	0xbf65b90a12895fe9	-0.00265171019809073
43	0xbf671f8a43e45df3	-0.002822656678414631
44	0xbf7e4b4587096c03	-0.007396003333805193
45	0xbf5b7c48a1875788	-0.0016775807654218784
46	0x3f41c50dbed044b7	0.0005422894588510617
47	0xbf73582784afb502	-0.00472274243200599
48	0x3f3ab1172613d1e6	0.00040728392748626133
49	0xbf5020e9381c0306	-0.0009844090968160204
50	0x3f735aac593282e8	0.004725144611399591
51	0xbef268f4b96ea7d4	-1.7557129094271224e-05
52	0xbf6e78ed849e91d9	-0.0037197722458179702
53	0xbf55476e5667c787	-0.00129876876019039
54	0xbf7b71ba884cc251	-0.006700256960173138
55	0x3f6e2e9281821a53	0.0036843167727654085
56	0x3f6e1e935a5ff379	0.0036766889561463093
57	0x3f6e5f2444f92b05	0.0037074764621015687
58	0xbf6a5a98c457679c	-0.0032170280198728484
59	0xbf4275fc5bff1e95	-0.0005633814071126115
60	0xbf4af2f4e2bd795c	-0.0008224197131132915
61	0xbf5fafa3bbc4550c	-0.0019339655837645213
62	0x3f71624188798bfb	0.004244094837846819
63	0x3f6aaa2befaf0635	0.0032549722795643062
