ResNet-18实现CIFAR-10图像分类/sever copy/Experiment3/model2/bn4_bias.npy (npy, 592 bytes, 1 tensors)

array f8 [64]
00000000: 6f41 252f 3a6f 643f 7369 0869 4d04 53bf
00000010: c65d 62b1 2ddd 60bf ffa8 6a36 4d1d 55bf
00000020: 5e33 edaa e6dd 6b3f 527d 1975 ed11 5e3f
00000030: 0256 2b5a e570 74bf 14dd f680 7ce3 293f
00000040: 6868 6784 9a33 653f 9874 c54f 8e93 423f
00000050: 729a be46 bdc9 5f3f f97a 87c8 a645 65bf
00000060: cbf3 7e65 1869 58bf f513 1bf6 be24 693f
00000070: 1be4 84e7 43d9 6d3f ad0a 694b edf5 1cbf
00000080: 5a7c 89b8 2f79 40bf 1f8a f394 ab43 68bf
00000090: de2a 653f 5854 1c3f 858c 6828 78b6 683f
000000a0: ea53 0954 5eec 573f c045 f68d b347 583f
000000b0: 1aaf dbde 00e8 613f fbb7 4490 294b 52bf
000000c0: eaa3 7d55 979d 2b3f 3dcc 7016 f206 433f
000000d0: e442 6e56 8974 6d3f 8021 256e fab8 3a3f
000000e0: e919 5557 9d22 3d3f 1884 3bdd 5765 493f
000000f0: 7aef cf2a 83b8 4f3f 5782 3e56 9bf1 403f
00000100: 1340 7a0a 9fb6 783f 52a2 48ca 3b77 66bf
00000110: e774 0f97 11e2 203f e0d4 72a7 598f 3b3f
00000120: 8c6c 9762 69b3 44bf d5f1 8590 cbcb 67bf
00000130: d818 5bd6 8d7e 533f 4b32 2fa8 3916 55bf
00000140: 1b75 2104 0159 4dbf d613 bd31 af76 55bf
00000150: f604 92a8 b00d 633f 2acc 6368 4d4c 30bf
00000160: b65e 27a5 d247 61bf 948a 115c e436 7c3f
00000170: 560d 2a3e cb1b 6ebf 772d f8ad 9a58 80bf
00000180: ea39 4728 4f37 47bf a75c dd87 c4bc 5d3f
00000190: b2ee b244 06c2 3d3f 6095 5f51 6441 58bf
000001a0: 5715 7cbf e218 713f aa26 5a3b 6280 6dbf
000001b0: 9d49 290d 0dad 683f f505 0a7e 6244 56bf
000001c0: 58ae 488c 31a7 26bf 7476 3e11 1dac 393f
000001d0: 4cbf e20d 215d 663f 026d 4920 2a3f 54bf
000001e0: cc42 895f 5ec4 24bf 8816 d025 b3e7 54bf
000001f0: 0496 cde2 a3b9 2d3f 29a5 cfa9 8232 673f
0.002494443551008078 -0.0011606937370119668 -0.002058591121634842 -0.001288724329848778 0.003401709101501656 0.001835328952800659 -0.004990478427051583 0.0001975144846093421
0.0025880830682867735 0.0005669064408199307 0.0019401882554831687 -0.0025966889845528943 -0.0014899004217874153 0.0030692796434288413 0.003643639207578276 -0.0001104761202919506
-0.0005027277957870932 -0.0029619551856836647 0.00010806835766633989 0.0030166956742206396 0.0014601632284627583 0.001481938692311821 0.00218582315470951 -0.0011165529150036757
0.00021069023454892084 0.0005806619709630767 0.0035956079841031763 0.00040775407810091785 0.00044456807457429623 0.0007750205063211694 0.0009680405106560063 0.0005170830231585138
0.00603353619921167 -0.002742401864697799 0.0001288076851143967 0.00042053164311124484 -0.000631739099101651 -0.002904794299125361 0.0011898408060218493 -0.001287037187228129
-0.0008956198655699939 -0.0013100348359824563 0.002325863872613905 -0.000248688600904492 -0.0021094431078657284 0.0068882866190472965 -0.0036753625475413427 -0.007981499132276621
-0.0007084976683076592 0.0018150252576185995 0.000454069643364123 -0.0014804343859336697 0.004174123510670333 -0.0036012571898183703 0.0030122046385169924 -0.0013590776290189875
-0.0001728294356707512 0.0003917284932358552 0.0027299542990348088 -0.0012357627284902977 -0.00015844013229806273 -0.0012759446610756415 0.00022678494988352682 0.0028317024248180234
