ResNet-18实现CIFAR-10图像分类/sever copy/Experiment3/model2/bn5_bias.npy (npy, 592 bytes, 1 tensors)

array f8 [64]
000000 a3 27 d3 88 33 71 45 3f 61 7a 19 c9 8c 05 3b bf
       0.0006543637879527952 -0.00041231810710043974
000010 57 bc d4 04 a3 fc 52 3f 48 e3 8f f6 3f 82 55 bf
       0.0011588661175883275 -0.0013127922668429593
000020 b2 75 ef a8 99 34 62 bf 47 56 33 c3 4b 17 4a bf
       -0.0022223473711011294 -0.0007962341245739212
000030 6d 64 29 b0 b0 ab 41 3f 10 f4 bf 5f 89 1e 70 3f
       0.0005392658934609947 0.003935371987606309
000040 75 b0 43 77 67 9e 40 bf 99 7b f5 df e3 7b 46 3f
       -0.0005071644978023165 0.0006861555738558622
000050 6d bf bf 9a 62 ca 6e 3f 3a 97 2b 62 c7 4c 60 3f
       0.0037586141461289275 0.0019897360046909037
000060 84 0c a6 74 5a 26 5b 3f 41 d6 56 db 7a f4 5c 3f
       0.001657093368152813 0.00176727292760627
000070 89 04 5c 70 12 92 53 3f e5 8b aa d9 5b e5 56 bf
       0.001194494253866448 -0.00139745683433356
000080 df fa e9 f7 32 b8 6e bf 97 a5 7a ff d8 50 51 3f
       -0.003749942348178478 0.0010568732376817541
000090 4e a3 b8 b5 cb 12 62 bf cc 1e e8 19 cb ce 45 bf
       -0.0022062281330090033 -0.0006655208306378334
0000a0 04 65 52 17 c8 39 5a 3f 86 83 33 03 14 c5 6a 3f
       0.0016006902708681223 0.0032678023213609823
0000b0 df e0 28 a3 70 f1 31 3f c9 80 c7 f4 49 76 67 3f
       0.000273790358878324 0.0028640217262677387
0000c0 ae 16 31 72 94 3d 85 3f ba 44 b2 10 b5 3b 52 3f
       0.010371360525947306 0.0011128681387940057
0000d0 b5 70 bc 32 55 e2 66 bf ab e4 9b 28 06 53 25 bf
       -0.002793470766745266 -0.00016269159487317572
0000e0 52 89 2f 2c 2c 57 2d 3f a2 1b 4b d5 aa 17 5c 3f
       0.00022385038582146494 0.0017146271031138545
0000f0 41 1f 07 89 e6 0f 4f bf c4 c8 e3 cb f6 97 44 bf
       -0.0009479404125664962 -0.000628467088772199
000100 6c 48 ee 4a f2 75 40 3f 7a 0c 7f ca 2a db 53 bf
       0.0005023415632072876 -0.0012119214897985662
000110 48 80 ae d1 e0 e6 51 3f c4 74 f5 c2 85 54 14 bf
       0.0010926433085174537 -7.755342880018656e-05
000120 40 3f 2d db 6c 1d 73 3f e4 d0 2e 58 20 0a 61 3f
       0.004666733950969448 0.002080023930341667
000130 b4 6a 6e c6 77 bf 5f bf 95 80 45 61 c3 08 33 3f
       -0.0019377393416336987 0.0002904393197891234
000140 70 a5 c1 51 11 c3 70 3f 4a 8d c6 c7 64 94 62 3f
       0.0040922810113469404 0.0022680252424877355
000150 4b 29 16 99 89 01 6d bf 8c 50 26 c2 23 9e 66 bf
       -0.003540772195895025 -0.0027609537512010614
000160 e3 26 f0 de 7a 6a 5c 3f 6c 22 68 1a 82 a1 63 bf
       0.0017343711767829277 -0.0023963490559746805
000170 3d 35 5e 9a 49 53 51 bf 79 56 df 60 96 e6 5b bf
       -0.0010574549464508886 -0.001702925542749338
000180 39 85 06 20 58 83 63 bf f9 0d 44 83 16 c6 48 3f
       -0.0023819657510137063 0.0007560357976505442
000190 9b 44 d7 2e e3 af 5c 3f 55 74 fd c7 0d ec 30 bf
       0.0017509192069733784 -0.00025821052985525633
0001a0 e7 fd 60 c2 04 2d 62 bf 6e 25 4b 07 5c b6 58 bf
       -0.0022187321619921876 -0.0015083216396070925
0001b0 97 b2 a8 24 58 ff 5e bf 92 14 ef 8f db 92 62 3f
       -0.001891933514922039 0.002267292816642349
0001c0 ac 9e 39 e5 6f a4 57 3f 41 e4 22 53 62 3f 21 3f
       0.0014430134514444122 0.00013158869984922393
0001d0 d8 1e 40 fc 71 67 46 bf bc f6 dc c8 79 7d 4a bf
       -0.0006837183541401294 -0.0008084149028275349
0001e0 d7 34 14 c6 05 e9 53 3f b4 4d cf eb 7a 83 35 bf
       0.0012152248749004912 -0.00032827139858434694
0001f0 f4 b6 c6 38 36 b8 28 3f 77 19 70 5e 3b ff 5f 3f
       0.0001885954083155544 0.001952941873015838
