ResNet-18实现CIFAR-10图像分类/sever copy/Experiment3/model2/bn6_bias.npy (npy, 1104 bytes, 1 tensors)

array f8 [128]
00000000: b877 185d e500 71bf 080a 7edb 632b 49bf
00000010: 9c26 7be2 6c1a 743f 7039 54da a3bb 72bf
00000020: 410e 0553 b44b 5a3f 2bfa c21e dc58 443f
00000030: 88b3 6b21 b0ce 80bf 2e1b d419 aef1 56bf
00000040: 9095 6ebe 2aba 763f fced cb48 d4fa 62bf
00000050: 972e a152 4920 65bf 8471 1c67 775d 623f
00000060: dcc0 c2ff 466d 773f 064e 306e aec8 49bf
00000070: 2c19 550b f667 333f 0572 ee26 b2c4 6c3f
00000080: c88e 8f16 33cd 70bf c885 42d9 afa4 f2be
00000090: ed33 0469 85d0 713f a18a ac9a fc20 69bf
000000a0: 1c09 eaf1 51e2 65bf 9462 9b61 b3fb 713f
000000b0: a45f 14a6 d501 57bf 3b95 05dc 8d95 24bf
000000c0: e3c9 4f50 4650 713f 5ff5 c495 8af9 4abf
000000d0: ce74 680a 9bb9 5fbf be28 90de 2ec6 713f
000000e0: 4996 3a74 d221 713f 0d29 f471 c65e 70bf
000000f0: f9a0 883a 1f93 3f3f 99a2 836f cee9 763f
00000100: e5fb f661 6c7b 64bf 8923 489f 1cba 693f
00000110: fa36 3841 1b60 56bf e630 3c44 d1e7 553f
00000120: 77b8 fb58 4aab 623f 5a46 0242 8372 72bf
00000130: d77b 8e8c c141 65bf 5910 36ad d269 80bf
00000140: 2380 5b52 83de 573f 3737 fa23 163f 723f
00000150: 8588 d2ee 95a8 743f 3ec0 e7d5 2f6b 15bf
00000160: 2e17 04f0 aca6 683f 8604 ff50 e0f5 553f
00000170: baae 78b6 db3a 6b3f 2d40 bbb4 b197 7a3f
00000180: e171 5f4a 00b6 173f 419b f88c dfd1 33bf
00000190: 09b7 2259 4fa9 453f d16f 6def dc03 6c3f
000001a0: 1bec 07dd fa47 603f 9172 7ba8 c922 6a3f
000001b0: 6dcf 533e 1f8a 5c3f 0b2f 2246 1ad8 573f
000001c0: 8ed6 95c0 9c02 53bf 4e93 69e9 5b52 793f
000001d0: b876 0a20 c0bf 47bf c73a d2b7 8578 653f
000001e0: fa0d c0e3 9809 58bf a576 c88a b07f 5abf
000001f0: 51a7 e3ee bdab 56bf 44b5 7075 37b0 74bf
00000200: 1aa5 2bab f566 4b3f 6a8a ec09 329a 76bf
00000210: 1dac 88de a432 6c3f 6f85 2c61 4ae8 683f
00000220: 67ab e214 8e7c 463f 41c5 a5d6 e48f 6bbf
00000230: 10d5 7c98 830e 6b3f deb6 5e30 5595 36bf
00000240: 17a1 1a4d 5125 7dbf 0caa eb52 a381 783f
00000250: a499 c4f0 b2c5 403f babd 9781 3ee9 603f
00000260: ec5d a93c 4d10 74bf 6cd8 817e 5cc1 623f
00000270: 12a3 b8ad 9f78 68bf cfd7 93b7 44d4 3abf
00000280: a7c7 f970 c174 623f f291 9b7c 846a 693f
00000290: 89fd 24fa 191b 3b3f eb6a 30a1 5fca 51bf
000002a0: bfd8 ae3d d9ed 5fbf 6340 a1d2 e51e 56bf
000002b0: 4e8a 5031 e69f 70bf a5f0 0c30 2d95 703f
000002c0: 5eaa d6dc 4d78 733f 068a d1ec 4f8b 5b3f
000002d0: 6f21 3b8e 8ebc 62bf c64e 9c0e 10b7 683f
000002e0: 231f 30ed aac5 6ebf 8ef2 7217 652b 563f
000002f0: a0d7 b009 4ba0 573f f250 ec8e 17c4 553f
00000300: d88c f5d5 8f9f 793f e81d f0e4 54b8 613f
00000310: 3d6c 3429 e2d7 713f 0a56 3529 8eaf 70bf
00000320: 8dc2 87fa 5123 28bf 0437 c67a 4a8d 613f
00000330: db85 b5c9 45f5 503f a186 b32f 10fd 63bf
00000340: c777 2e2a c75e 553f 0f71 da8c 3448 613f
00000350: f6fc 2238 d3e6 6bbf 52b8 71d2 07d5 553f
00000360: 5a51 9c31 e1c7 773f 8645 9bc3 98c0 73bf
00000370: 23d5 bb89 c137 633f aa24 f8f5 5ca9 793f
00000380: 1888 5deb b535 613f 1386 1e7a a6b8 713f
00000390: 6844 a5f5 8ff3 c33e d3e5 67ae 31c0 4dbf
000003a0: 082f 2cc8 fe8e 283f 8668 dbc8 fbb2 73bf
000003b0: 2500 4408 47c6 4a3f 9a34 5c8f fb68 453f
000003c0: c77a 6323 2d62 693f de30 e422 e74c 3bbf
000003d0: 15bb ebdc 5357 743f a556 d64b ba0f 34bf
000003e0: eca8 dc63 874d 7a3f f937 d838 8139 79bf
000003f0: c1a1 6afe e06c 743f 3a38 1bc4 f03e 63bf
-0.004151245071197289 -0.0007681119522973687 0.0049080136593119515 -0.004573478746591739 0.0016049633960201345 0.000620944481418755 -0.008206726093215058 -0.0014003944591551398
0.005548636406193977 -0.002316870324987395 -0.002578871925867986 0.002241833885717694 0.0057194493676180035 -0.0007868625365312083 0.0002961135572444758 0.0035117606671077905
-0.0041019435529709505 -1.777964423921809e-05 0.004349251874612198 -0.0030674871135415037 -0.0026713943946684703 0.004390431125749789 -0.0014042459882315029 -0.00015704495127547867
0.0042269465093220686 -0.0008232046780346883 -0.0019363416737470554 0.004339392741721846 0.004182645879756538 -0.003996634651466613 0.0004817916147055314 0.0055940688982693216
-0.0025002590989226963 0.0031405028369175286 -0.0013656870040707468 0.0013370078676784801 0.0022789432622323763 -0.004503739095655124 -0.0025948314909807024 -0.008014341269479685
0.0014568598211823845 0.004454695211860308 0.0050435883287339766 -8.170585122235869e-05 0.003009164589573474 0.0013403597440489203 0.0033239642396177523 0.006492323078148882
9.04500653570793e-05 -0.0003024264123915773 0.000661052459937501 0.0034198107854716904 0.0019874477077315273 0.0031904162059233705 0.0017419152366615301 0.0014553314763671745
-0.0011602907928511016 0.006182059316959988 -0.0007247627364283726 0.0026209460907645507 -0.0014671319067937048 -0.0016173576397088632 -0.0013837199035670775 -0.005050865779634709
0.000836248355281874 -0.005518146003654504 0.0034421177008616814 0.003040452263477426 0.0006862348325474666 -0.0033645123959834826 0.003302819273722897 -0.00034459428604348234
-0.007115666945232377 0.005983007415788066 0.0005118488057050297 0.0020643444847718547 -0.004898359019157788 0.00228946748034802 -0.002987205383551469 -0.00040938069976392556
0.0022529390478717884 0.003102549327069542 0.00041360267836761854 -0.0010858472712757482 -0.0019487973683971896 -0.001350140034009705 -0.0040587417506992695 0.004048515810435448
0.0047534028539454026 0.0016811638372692408 -0.0022871765412199522 0.0030169786085794984 -0.0037563646706110384 0.0013531195852884178 0.0014420254508542354 0.001328490263124368
0.006255685671337129 0.002163091477544777 0.004356273118243212 -0.004073672596253805 -0.00018415809360263318 0.002142568080848119 0.0010350400469508667 -0.002440005887920219
0.0013043351143333535 0.0021096254702809357 -0.0034059644104612553 0.001332528723448263 0.005805854476211481 -0.004822346434325003 0.002345922473859689 0.006265032890504655
0.002100806533165144 0.0043264868744770256 2.3783940551821207e-06 -0.0009079210838642222 0.000187367059048753 -0.00480936387404019 0.0008170935475675418 0.0006533840484920395
0.0030985719305215184 -0.0004165710733026305 0.00496609457944321 -0.0003061132263949363 0.0064215935397362416 -0.0061583564506815175 0.0049866474934465175 -0.00234934830300573
