ResNet-18实现CIFAR-10图像分类/sever copy/Experiment3/model2/bn8_bias.npy (npy, 1104 bytes, 1 tensors)

array f8 [128]
00000000: 5475 874b 2c58 49bf f1d7 7faa db2e 683f
00000010: 68f3 2871 b0e3 32bf 0b4c 269c 493e 55bf
00000020: c2a3 9f7a 3072 233f e364 6aad 879b 0cbf
00000030: da55 e1cb 2e56 413f 5ffb b7c7 9e4d 5e3f
00000040: 577a 54a5 ed69 52bf af32 4980 4a1a 573f
00000050: 70b3 d2c7 b1b5 573f f01f f4cf 196b 733f
00000060: c8ca 0e2f 53c0 4a3f b2c0 d1b7 1787 2fbf
00000070: a9d3 69da 7bd1 623f 94ad f1f6 9371 523f
00000080: 8d08 6dfd 008b 613f 756b f487 d267 693f
00000090: 6918 640f a6ae 57bf 6271 a9b3 d47a 2b3f
000000a0: ceb4 c080 a9fe 6b3f faca 22b6 8a00 2a3f
000000b0: b5ce afcf 57dc 45bf 4df1 fc74 65d7 53bf
000000c0: f91e ae5f b0d0 40bf 88b2 4bb8 1222 523f
000000d0: 8a09 cfaf ede2 53bf ea6a 2601 5abf 54bf
000000e0: 27a2 6855 f69b 55bf a546 5deb be02 5e3f
000000f0: 0a57 6b6f c1f8 403f 2b36 22d2 0fa1 4dbf
00000100: a890 d02f e521 4cbf b504 8b0b 732f 4d3f
00000110: b242 d20f 6d99 503f 61d1 7ee0 46a3 56bf
00000120: 4b99 73ee c6f4 44bf 9713 179c af5f 54bf
00000130: 666a 579c 4a76 553f a148 ec08 daf0 61bf
00000140: 3a2f 3e10 1e7a 3abf 4bcc d079 b216 633f
00000150: f078 efe6 9f7b 25bf 1c4a 4819 961b 6d3f
00000160: 8c72 7696 c47c 4bbf 04bd c9a6 b4da 363f
00000170: 34be 2682 b8e8 57bf b86b 64c7 5c01 553f
00000180: 8855 2f72 1eb8 613f a707 b972 05e1 50bf
00000190: 3e7e 47f9 f573 553f d6f6 143e 3ab3 34bf
000001a0: 7b8d 085e 4156 663f 1169 22f5 18ad 663f
000001b0: d95b c705 5635 22bf 0d93 4ade bcde 53bf
000001c0: 1cdf 5f01 bfbd f3be cda7 87fa e61c 563f
000001d0: dbf2 35ac 262d 573f a702 e5e4 9ae2 68bf
000001e0: 8c81 86e7 968e 4a3f a686 70e2 ad1b 56bf
000001f0: 1b41 704f ac50 663f b5b7 16a1 65fe 3c3f
00000200: 9566 aa6f 3094 163f 5a20 0231 0ebc 683f
00000210: be54 db3b 255d 59bf f80c d4ce 55c8 5d3f
00000220: 418b 73bf 926a 213f f55b 875a 2e37 5a3f
00000230: 626a f037 ec20 5b3f 5d16 0d7f 9da7 63bf
00000240: b624 703e 1a3c 1a3f 9f12 a351 86e7 553f
00000250: a42f c49e 6ccf 523f 50fa bd48 0fa7 313f
00000260: 7def 30ee 1267 69bf 223c 4ee0 be6c 4f3f
00000270: d25b 1306 3967 72bf 0dd7 19cb c85c 39bf
00000280: e6e3 3740 575c 4bbf 8064 92e4 e198 dbbe
00000290: 8422 3879 fb4e 5b3f 8e8e 78a7 e86d 5fbf
000002a0: 3ae0 57e0 8fae 44bf b9a5 2d98 3981 433f
000002b0: 0022 a603 c65e 643f 9dbd 8f74 36f0 313f
000002c0: f6ad 1fd2 4a0a 36bf 3e17 2ed3 dffd 4f3f
000002d0: b829 2800 5560 703f 8001 d5bb 1564 683f
000002e0: 38e2 559a daac 633f fc2a 8e3f 4927 68bf
000002f0: fa48 0038 3faf 5dbf 8f1b 4d85 af23 76bf
00000300: 33e7 68e7 6459 543f 6b40 8902 2cf0 603f
00000310: 6bbd bcf9 0826 60bf c7a3 eb1a e503 47bf
00000320: f609 c1cf 0628 34bf cb86 9a2c 1a8e 533f
00000330: 6b08 9e70 8ca7 48bf 05b2 ff63 54a1 443f
00000340: f7cd 43ce 05fd 3a3f b98c 0408 00e2 553f
00000350: 3460 5122 18f3 61bf 5c9a a591 623f 4fbf
00000360: a9e7 3467 bbcf 563f d960 bc71 cd71 5d3f
00000370: 33d9 f0fd f534 603f 9e5d 7e21 9824 583f
00000380: 8767 ad5f d75c 673f 72b1 7924 0870 563f
00000390: 6499 32ec 90a0 403f acdc 39d6 93bd 4d3f
000003a0: 8d15 1939 a837 59bf 9c17 54c6 e31b 573f
000003b0: 1e9d 27df de36 0abf fb1a 6b35 0852 6a3f
000003c0: ad68 c6a7 bff6 60bf 0671 623b a0f1 48bf
000003d0: 8476 c9d0 8194 663f e936 c428 7102 453f
000003e0: 3771 c34e 47a6 553f 9f33 6316 777e 593f
000003f0: f5ef fa7c b43f 3a3f 9130 36b1 ee2a 51bf
-0.0007734504970888048 0.002952031169111351 -0.00028822953860068454 -0.0012965887877711714 0.0001483616045441488 -5.4564550443456245e-05 0.0005290726183015363 0.0018495607936299325
-0.0011238880882228541 0.0014100768613786554 0.0014471279276151126 0.004740811185236268 0.0008163839503282028 -0.00024053730513485177 0.002297155285584347 0.001125711914734183
0.0021414775214064264 0.0031012641844773655 -0.0014454480820531807 0.000209654297424043 0.00341733079951343 0.00019838040595273454 -0.0006671360746381612 -0.001211022452436944
-0.000513158912654326 0.0011067564784596213 -0.0012137719306656047 -0.00126632489682404 -0.0013189225770792264 0.0018317093321979308 0.0005179352291075645 -0.0009042098283928481
-0.0008585328174644151 0.0008906661742785956 0.001013142114320836 -0.0013817016751832211 -0.0006395312638261345 -0.0012435164393178372 0.0013099411602214505 -0.00219004235203453
-0.00040400728197974615 0.0023301587921423 -0.00016390158586338617 0.0035531932464974002 -0.0008388481045816395 0.0003487292331447319 -0.0014592935409431075 0.0012820631068908139
0.002162990059768336 -0.0010302117542697416 0.001309385498750162 -0.00031585857330527817 0.0027266766267232657 0.0027680861904403405 -0.00013891863899459405 -0.001212772790645636
-1.8826671372067843e-05 0.0013496642733294873 0.001414573446566417 -0.0030377412105340898 0.0008104550207015822 -0.0013493726817234513 0.002724014800613029 0.0004424093359273144
8.613153105798751e-05 0.003019359319356635 -0.001548086510799337 0.0018177831619262102 0.00013287583690332376 0.001600070254530681 0.0016557986089142042 -0.002399261102626933
0.00010007772617383584 0.0013369380672411458 0.0011480866188007055 0.00026935694835820024 -0.003100907300476351 0.0009590084088005916 -0.004492972134548761 -0.00038700010472979344
-0.0008349824933581134 -6.5796844605166315e-06 0.0016667800708793099 -0.0019182941449650578 -0.0006311609765239431 0.0005952388022311606 0.002486597773160293 0.00027371720767540593
-0.00033630682639682 0.0009763090987326762 0.0039981193863333694 0.002977411698026511 0.002401759108291903 -0.0029484205846918004 -0.0018118016596458384 -0.0054051262166642374
0.001242016352661368 0.0020676478928081574 -0.0019712615302506695 -0.0007023686101464915 -0.0003075615529760928 0.0011935477836363835 -0.0007523952237849079 0.0006295835555625856
0.0004118098425031908 0.0013356209092954387 -0.002191111695122339 -0.0009536010068529987 0.0013923006161591178 0.0017971521655848947 0.0019783787279507247 0.001473568501728063
0.002851887370906195 0.0013694839016365726 0.0005074222211945254 0.0009076091632341985 -0.001539148598014381 0.001410458027125006 -4.999988222547713e-05 0.003212944061803722
-0.0020707839268655132 -0.0007612259276075512 0.0027563605747634185 0.0006411602530833313 0.0013213821758234054 0.00155603055604845 0.0004005256314305588 -0.001047833536037355
