ResNet-18实现CIFAR-10图像分类/sever copy/Experiment3/model2/bn9_bias.npy (npy, 1104 bytes, 1 tensors)

array f8 [128]
-0.0021693904056789125 -0.0037249750323359444 0.0005815163304476029 -0.0009483697499277246 0.003050827866944601 0.004269057777966668 -0.0002042363960451136 0.001691977388653323
0.00031020680721093106 -0.0012805577895441621 0.0035496617691341543 0.0012399737518040232 0.0018831206364939212 -0.0010209196810860794 0.0011544429131645953 -0.002453777649583474
-0.0009949827354378284 -0.0008596353603723268 0.004412125475158077 -0.0006103062250845583 0.0006320204891490532 0.000949472882446891 0.0006836382326837881 -0.0023465809550371024
0.001360622573685538 0.0009378835928591583 0.0005364326353720909 0.0029354114858705003 -0.001811730170420896 0.0008610344734136045 -0.0010310654285526414 0.0012864596625934877
-0.00010655275645919444 -5.5751031522493785e-05 0.0007575763694414039 -0.001250942592774838 0.0006723350372258603 -0.0004342354967514991 0.0013402887575456666 1.0827178000425209e-05
0.00040572745894167534 0.0004997906433709729 -0.0008855975942758965 -0.000585769082672539 -0.0018923102007668263 0.0003618954023089187 -0.0016143207951924991 -0.002303469668185652
-0.00037660270901866975 -0.0025975469294020376 -0.0024100126395024714 0.00018475434384521575 -0.0010999882479220747 0.0018119594347911368 -0.000535536687747253 0.0010866692459209442
0.005228012389782664 0.00010237842021307225 -0.0008424301167011622 -5.0814369179544416e-05 0.0012496273536929713 -0.0020704362575422477 0.002307149073703903 0.002779592216393606
-0.0014163465759457594 -0.00010325000112625682 0.0013119034152885853 0.0014568373530075597 -0.0011883297572767703 -0.0026499897971296463 -0.0006707227405325863 0.0011098852590446587
0.0008691843529889731 0.0016289708817475996 -0.0003151495846875235 -0.00045960830876690464 0.0018246233171105091 -0.0007079310151321043 0.0024653422643770885 -0.0018745497848447208
0.0003088588057501582 0.00048023361943822234 0.0006107924055435109 0.0005571197800764888 -0.0010904752119269565 0.0010144179249426102 -0.00017535897904671544 0.00012555875261964353
0.0006260215269707564 -0.0012746611434163236 -0.00017454919871955524 -0.0008760941175032524 -0.00099200828229156 0.0023257956089075774 -0.001664591172911441 -0.0009977158111267852
0.004799630576571024 -0.0006723635832185498 0.002027959821280594 -0.0012542802453452992 0.0012655136628037154 0.00065137545068747 8.87212578692642e-07 -0.0001314269504915066
0.001265223343679356 -0.0002114815157979764 -0.0012577041421497396 0.0001308435820574696 0.0001784622267535805 0.0021934989940259183 -0.00011726147121552271 -0.0010766195009038945
0.001299996129759552 0.00044024402543852066 -0.0012040888391442624 -0.000706688293365506 -0.0007906356054870456 0.001368388441530307 0.002016182626815694 0.0007345202513941122
-0.001401741610389052 0.0009359782807502237 -0.000825144908189208 0.0005102382997345416 -0.0012470899698077134 -0.0025194955544604637 0.00042789803480937296 0.001220374035079561
00000000: 5c59 079b 8ac5 61bf 1f51 27be d683 6ebf
00000010: 76cd 88cf 1c0e 433f 9cff bc87 8013 4fbf
00000020: 768e 41bd 0cfe 683f ce59 a878 6e7c 713f
00000030: 8888 8848 09c5 2abf a489 30e3 aab8 5b3f
00000040: 0c2f 8b17 6854 343f e625 e974 0cfb 54bf
00000050: bfb7 ba26 2e14 6d3f 2eb7 8fad d350 543f
00000060: dc1e 1563 61da 5e3f e449 1829 0cba 50bf
00000070: 5332 a8a3 15ea 523f 5f34 36d8 f119 64bf
00000080: 8637 c393 424d 50bf 813a 30e1 242b 4cbf
00000090: ca49 f2e9 7212 723f b005 7ea3 9eff 43bf
000000a0: 8ff1 67aa c5b5 443f ac11 417d c11c 4f3f
000000b0: 7697 03ed c566 463f 9897 b20e 2339 63bf
000000c0: 4c08 325d dd4a 563f 42ab ecad 89bb 4e3f
000000d0: f918 0e50 ec93 413f ebb2 a00a 010c 683f
000000e0: bb4d 3175 f2ae 5dbf 4995 b773 e136 4c3f
000000f0: 1b41 ec12 9ae4 50bf d2ec 6b8b cd13 553f
00000100: 593b cb6a a2ee 1bbf a51c 5bdb c63a 0dbf
00000110: 0088 90dd 02d3 483f 92ea 9b61 d57e 54bf
00000120: 1b74 987f f407 463f 7f11 df41 4375 3cbf
00000130: 1eee 5f18 94f5 553f c560 7003 ccb4 e63e
00000140: 517b d02a fa96 3a3f 3186 eb3b 8c60 403f
00000150: 15e9 375a ee04 4dbf a289 cb86 c931 43bf
00000160: 788b 469b ec00 5fbf ac98 e0ea 98b7 373f
00000170: 8795 51c1 f372 5abf 49c8 8cdc b9de 62bf
00000180: 3533 9e51 58ae 38bf c948 9263 7347 65bf
00000190: 080b 07af 29be 63bf 9d0c aeba 5337 283f
000001a0: 1f77 4063 af05 52bf 461f e7a0 e8af 5d3f
000001b0: 11ae a347 688c 41bf 2bf2 db37 d2cd 513f
000001c0: 8b91 cbe3 f769 753f d397 d4dd 7fd6 1a3f
000001d0: 4d68 73e6 d09a 4bbf 1208 2b6e 30a4 0abf
000001e0: 946e 7127 5179 543f 4393 7700 05f6 60bf
000001f0: 2a9a 313a 71e6 623f 5ad0 4c35 3ac5 663f
00000200: 33a3 4d8e 9634 57bf aa8d 3983 fd10 1bbf
00000210: 043f e890 857e 553f 1041 5a32 6bde 573f
00000220: bd83 705c 3778 53bf 62d1 6d70 6eb5 65bf
00000230: ca5b 1d1e 6efa 45bf 2046 f438 322f 523f
00000240: 3d6b 652f 3f7b 4c3f 838f 722a 66b0 5a3f
00000250: 294b da28 55a7 34bf 4030 b6a7 f21e 3ebf
00000260: a159 5e5e 06e5 5d3f b287 6647 8e32 47bf
00000270: c82a c48c 3232 643f 8308 5281 6eb6 5ebf
00000280: 2468 4378 ca3d 343f 340c 9fb0 fb78 3f3f
00000290: e0b3 06b4 b203 443f a909 219e 7541 423f
000002a0: 042c d4d7 c8dd 51bf f785 f9f3 c69e 503f
000002b0: 775b fe28 12fc 26bf cadd f278 0d75 203f
000002c0: 423b 12fe 7283 443f 9f45 2afb 50e2 54bf
000002d0: a5e6 3833 e6e0 26bf 0c49 9cca 35b5 4cbf
000002e0: ddb2 4ec8 c840 50bf 3460 7a02 8c0d 633f
000002f0: bb00 8729 cd45 5bbf f830 e331 b958 50bf
00000300: 4d81 bf05 c7a8 733f 6bc4 ebcc 3108 46bf
00000310: 3e23 85a3 f09c 603f 0ecd 8f28 d58c 54bf
00000320: 562c d7f2 f2bb 543f 0813 0a21 2258 453f
00000330: 208e d917 19c5 ad3e ac7f 89e8 f439 21bf
00000340: 34fb 8638 bbba 543f 74f0 5b63 24b8 2bbf
00000350: 961f 268a 319b 54bf eaba c8cf 6126 213f
00000360: 4b64 deda 3264 273f 5e49 2ece 19f8 613f
00000370: 3bc9 5dbc 48bd 1ebf 5bca fb62 aba3 51bf
00000380: d200 2f37 944c 553f 2450 07b1 11da 3c3f
00000390: 4bec e08b 50ba 53bf e05f e28d 2128 47bf
000003a0: 718a c808 55e8 49bf f0b7 b1e6 6f6b 563f
000003b0: 0eec 3cce 3d84 603f db54 9f3a 9a11 483f
000003c0: 6aa7 f097 54f7 56bf aeec 830d 8eab 4e3f
000003d0: a2bc 9332 d109 4bbf 1955 bf67 30b8 403f
000003e0: 01ee aba8 ac6e 54bf 884b 48e0 c3a3 64bf
000003f0: f480 c610 f00a 3c3f c293 73a4 9efe 533f
