ResNet-18实现CIFAR-10图像分类/sever copy/Experiment3/model2/conv5_weight.npy (npy, 294992 bytes, 1 tensors)

array f8 [64, 64, 3, 3]
00000000: a159 bbd6 c950 aa3f 6596 21c4 ea37 7dbf
00000010: 24b4 af11 d497 b7bf 31d8 f657 f36d afbf
00000020: 760d aca2 d3e4 9b3f cebf f143 152c 74bf
00000030: 473f 3e02 4f2b adbf 8f7d 4795 1492 9c3f
00000040: f6ab 63b8 ba8a b83f a9cd e431 8f93 a9bf
00000050: 6fd7 5c97 9a38 a73f 4e51 8b5a c9ce 61bf
00000060: ccd8 5f24 5874 b2bf 1b39 15df 07c0 a5bf
00000070: f805 8cb9 efd5 983f 7e74 6e21 3660 b6bf
00000080: 661e 77e3 8376 8ebf fb51 b8ea 5111 b2bf
00000090: 79cb fb1a c078 b43f 4e27 f5e8 dd0c a03f
000000a0: 1e97 a8ea f4ef a43f 42c4 ccae 73f7 343f
000000b0: 2af6 81ae dca7 af3f fcb6 fd48 cb13 acbf
000000c0: b6ad f67d 9144 b3bf 3c27 cb39 5d5f 94bf
000000d0: 606b 7a4b 987a b5bf 96cc d255 234e b23f
000000e0: 4358 f60b 76fb b63f eb61 bb11 d51c 7f3f
000000f0: 853b 2957 3dbb 813f 1396 d63b 4cd4 b5bf
00000100: 0b0b 182f 25cd 96bf bdfc da6e 6c3c b53f
00000110: 189d e66b 393b b83f 3bd5 06a0 74cd b0bf
00000120: d193 3b96 252d b1bf 1d13 cce2 f34c adbf
00000130: 8a9c ef63 0e50 b2bf f98b bd4a 7b4c 943f
00000140: b1e9 735c f2b5 adbf 040b a9a2 e917 65bf
00000150: 6a3e b77c 538a b43f 6d4f c24b a43e aabf
00000160: f6d2 b3cf 56f9 a6bf 99ee 6388 2bc9 b63f
00000170: 1a7c b235 a882 a23f 3611 3da9 6f5c adbf
00000180: 6100 e6c7 b43e b33f 818e d3f0 4dc1 9e3f
00000190: 3180 1f63 d841 adbf 1d9f 314b bb92 b03f
000001a0: 3eb7 6d52 a399 a6bf 7c5d 16c3 cdaf b4bf
000001b0: f196 1f45 cd1f b13f bec6 5dd7 f72f b9bf
000001c0: ce31 7c6e 15e6 a33f 3441 d6b9 761e ad3f
000001d0: 429a 59cc 2fbb 703f dc7f 3710 3bc1 b4bf
000001e0: 5ae6 d1ba 8067 b7bf bea7 d768 2314 ad3f
000001f0: 875c b503 c438 8abf 0028 36b2 c0f5 a43f
00000200: 7b47 9f69 8c22 b83f 67fa 2e63 480c b7bf
00000210: 6036 51fe 04f8 8e3f 030e 8c15 8ce8 9abf
00000220: 16d4 f5f2 d035 b33f 1c86 d7f3 c917 b2bf
00000230: 69d1 3dbc 5bea b7bf 2994 d38f dc10 b23f
00000240: 96e3 9b70 b873 703f 6748 de21 12c8 b0bf
00000250: eb54 dfe4 c8fc 91bf 3efc f501 3af0 393f
00000260: 9625 547c bcf4 613f 7d33 dbed e499 763f
00000270: 80cc bf22 2a79 b03f 69e4 a639 abe5 a0bf
00000280: 9807 2c7b d928 b03f 6c95 163f 2638 8dbf
00000290: 5d7d 767e 12d2 b0bf 3f2a 57d0 277a b23f
000002a0: a6db 9836 56fb b53f ca24 d43d 3c99 9a3f
000002b0: 9aec 27fc 6c82 aabf 82c0 d9bc 2652 75bf
000002c0: ee6d ec6c 8667 83bf c2e4 e316 0d99 a0bf
000002d0: 4f22 49a5 013f a43f 2254 b685 0d1e b1bf
000002e0: 34be 7027 1ed1 a43f 1b3e 9046 07ca 9c3f
000002f0: a2aa 6628 177b a0bf b3db 7688 29f6 b23f
00000300: c908 eced 47dd b43f 6997 0af2 05c3 b5bf
00000310: 7c28 b97b 32a7 953f 98c9 e1c8 fc1a b2bf
00000320: 19a9 c2ec 11d8 a2bf ea3f dd37 9b0c b43f
00000330: 4917 dde2 4e2c b63f 2e93 a5c6 e907 79bf
00000340: 74fe 8880 af63 b7bf edf7 c9f0 7e11 a9bf
00000350: e603 7c31 8200 adbf a9e0 8742 d2ca a0bf
00000360: df48 3753 e45f a33f a603 9a20 f2b3 93bf
00000370: 9973 6fbb 3565 a53f 70dc 07ad c4ae b63f
00000380: 4c6c beb3 7c07 aebf e979 3356 92a0 b63f
00000390: 67cd bef0 398d b73f 7fea 25e6 9fc5 a33f
000003a0: d2bc 08a2 0855 a43f b003 bcda b67b 9b3f
000003b0: bc68 1f6d a51a b23f 8955 c4c3 c631 b0bf
000003c0: 742e 84eb 3f0f a0bf b923 fce0 05a0 a1bf
000003d0: 8072 8ee1 fd45 9d3f 0c7f 352a 7857 89bf
000003e0: f4a5 9a4a 9038 9dbf 8e33 7836 4138 88bf
000003f0: a673 4282 68a7 b43f 1ed6 f5c3 4d23 9c3f
00000400: f6d6 2923 e0ed a63f 70e9 e649 975b ae3f
00000410: 9e86 328a 29c9 a73f 0de6 de47 8fee 983f
00000420: 6ed2 ecfa 2cd5 b3bf 4852 9c63 2688 a83f
00000430: 0eae c376 d3b6 b53f 9908 dbc7 b306 a93f
00000440: cd2d b5d3 d961 893f 0e8c 4fae 83ac a9bf
00000450: b21c 9299 39bb b63f f708 fc5e 8bb4 a73f
00000460: 9fa3 c2e0 3003 b3bf ce94 0d7c 9ec8 b03f
00000470: 81cd c6a2 b2c6 a8bf f794 7be4 916b b83f
00000480: 5bd8 37d8 7751 aebf 7682 c382 2652 b63f
00000490: 9313 a67f 6156 95bf 44d5 7a26 1ec9 a93f
000004a0: 9bd5 a76b c42e b5bf f0af 4b5e 38c6 a4bf
000004b0: 7711 a3f5 aa91 9ebf f12e a355 cca4 b33f
000004c0: a704 98c1 a298 513f 27a3 69da db8b b23f
000004d0: 25b3 0930 3a75 b8bf 7c72 5606 c7ad a83f
000004e0: 751b d954 7f00 893f 9eec 7567 4d73 b73f
000004f0: 56f5 939c bb22 a8bf 26e1 07f2 c0c5 b0bf
00000500: d8e5 5a62 3f55 9bbf f982 0377 d15b b8bf
00000510: ec5f 4f52 c60d b7bf d615 d2fa 0304 9ebf
00000520: 06a8 cbb4 4fe8 aebf 8ef7 6e5b 5f11 b8bf
00000530: dfb4 b1e9 7bcc 793f c468 c37d 6c4d b03f
00000540: d557 addb 01c9 953f 39b7 d821 f515 70bf
00000550: 07c0 4685 d6e5 98bf 54e8 d687 a7fd a3bf
00000560: 0b6f d3d6 d9fa aa3f 7db0 4374 fbce 4e3f
00000570: a6f8 3739 ba5e b53f d895 f550 73cd a83f
00000580: 69e7 4635 427d b63f 3c38 3742 e36d b1bf
00000590: 7b58 9d63 7493 b53f 84ec 1d2a 953c 82bf
000005a0: e7c3 5f37 bcfc 693f e0ad 9c3f 8c05 98bf
000005b0: 5e75 edda cb92 b3bf df1b add1 f308 a6bf
000005c0: ebcb a202 ad1a a1bf a1a6 72b8 2fb0 af3f
000005d0: 4a09 c874 b8f4 94bf 24c3 0369 431b a2bf
000005e0: 2a14 9951 22a2 b7bf 5459 f0eb 7f4a a83f
000005f0: 0354 b622 1d41 84bf 40bd 7ef1 8eac a8bf
00000600: 4588 e484 4a06 a13f cf43 0485 d73c a83f
00000610: 68f0 38f9 8cb8 933f cd1c b488 3c07 b5bf
00000620: 1de2 3506 31f1 8f3f fb7e f4f8 6ad4 a53f
00000630: 6e9c 25c4 e2fa 9b3f 4797 2ab1 73c0 86bf
00000640: 53a7 9911 a478 8cbf ac5b 4be9 2a73 aa3f
00000650: 0ce2 df45 484d b0bf d4f0 e682 6172 a8bf
00000660: 69a5 92b4 2967 b1bf 7072 8b24 9228 acbf
00000670: 9635 c16b c2f8 81bf 4f73 d82b 9cea a03f
00000680: 05f9 47ef 7657 9f3f 749d 3ecd 8035 b43f
00000690: 3756 5dcb 7733 af3f b747 876a c061 af3f
000006a0: 207b c58c 14db b83f 3372 e719 dc46 9f3f
000006b0: 56a6 4470 ac2e b03f 1bd2 796d 9695 b13f
000006c0: 273e f6ee 4618 b2bf 375f fa76 1a22 a53f
000006d0: c968 be97 1c55 b8bf e5bf 00f2 c7ff b6bf
000006e0: 15f5 e7b3 def6 aebf d81b c43d 7c23 ac3f
000006f0: 0a68 c7d7 d3fd b4bf 8f18 a007 2548 a1bf
00000700: 8ee7 8a0f 838b b5bf 753b 5cfb 29d6 96bf
00000710: e051 d0c6 47e8 b03f 15df f8cf f1f0 5e3f
00000720: 3f9e 1a19 763e b43f 80bc bcc0 d4cc 3b3f
00000730: ca41 08d1 d894 97bf d676 ac50 c049 7fbf
00000740: 96c0 4545 8171 b1bf 8a09 8606 bd4a b3bf
00000750: 812f 4eaf adf7 903f 5066 4dce efaa b03f
00000760: 36f8 8f64 10a0 a7bf 4509 787b fa34 b3bf
00000770: 00fd dce4 42a0 65bf e700 6741 185f b43f
00000780: b0bc d0a5 737e af3f a3bd c237 4d53 813f
00000790: 1b06 fc0b c3c0 b13f c48a 492b 7413 b5bf
000007a0: fd69 e58b 6b7b 8e3f 0fdd c15a b795 9bbf
000007b0: baa5 10ae 82a3 b23f 17f8 967c 9dc2 9d3f
000007c0: 3da3 2dc1 7a80 b1bf 355d 5fe8 44c1 ad3f
000007d0: ba54 b190 53b0 b2bf d991 4cd8 e5b1 aa3f
000007e0: e90f 3d7b de13 8dbf 049b 9741 2bc5 a63f
000007f0: c1f2 e528 a37b b4bf e6b1 a8ed d3ca 7cbf
0.051397616827375765 -0.007133404784416796 -0.09216046745105239 -0.06138573120863134 0.027240092090335698 -0.004924853389738316 -0.05697104360944976 0.027901002513201652
0.09586684228604256 -0.04995391353659368 0.045353728272330744 -0.0021737988175606687 -0.07208777320906562 -0.042480703336524615 0.02425360269535834 -0.08740557018468739
-0.014874487284841819 -0.0705767820402982 0.07996750506189966 0.031348166167460265 0.04089322437748265 0.000319925063013097 0.061827560713009724 -0.05483851686481775
-0.07526501965792573 -0.019895035412253778 -0.08390189974526896 0.07150479169176757 0.08977449218795734 0.007595856000726968 0.008657912466473192 -0.08527065716642594
-0.022266942023644137 0.0829532404559243 0.09465369114206046 -0.06563500315572394 -0.06709513585845107 -0.057227727351380354 -0.07153406085818595 0.019823004185479196
-0.058028768335094745 -0.002574878996968068 0.08023568911380044 -0.051259168861320294 -0.04487105641775273 0.08900711135714302 0.03615308433040117 -0.057345857056619584
0.07517557030041778 0.030034272979618585 -0.057142984485608735 0.0647389467791268 -0.0441409147377798 -0.08080755246043297 0.06689150750716145 -0.09838818557707449
0.038864774453120185 0.05687304514424554 0.0040847651594960194 -0.081073466738871 -0.09142307816537124 0.05679426817717069 -0.012803584445164396 0.040937444452609384
0.09427716807047475 -0.09003117009613391 0.015121497164865605 -0.026277722182397777 0.07503992015502123 -0.07067548945590157 -0.09341977449168372 0.07056978713406238
0.0040166096384774055 -0.06555283858168225 -0.01756585976530271 0.0003957883472693358 0.0021918946609999585 0.005517858747862256 0.06434882496232497 -0.03300223425635169
0.06312331444863017 -0.014267252731608969 -0.06570544803115781 0.07217644535482125 0.08586634476601648 0.025975171350215466 -0.05177631929469691 -0.005205298728114484
-0.009474802207072277 -0.032417687458243374 0.03954320089957674 -0.06686481966455962 0.040657942118170004 0.02811442726311784 -0.032189105684058875 0.07406863767287923
0.08150147970812606 -0.08500706824506 0.021145619203061447 -0.07072429565758964 -0.036804733420767906 0.07831735719560098 0.086613588701849 -0.006111062228545445
-0.09136483085694086 -0.04896160783117396 -0.056644505062656766 -0.032797403928215126 0.037840972097585406 -0.019241126289219722 0.04178779519109028 0.08860425209410194
-0.0586508721746318 0.0883876285983899 0.0919986927754529 0.038617131084682114 0.03971125581699088 0.02683912000702876 0.07071908868911952 -0.06325952796426838
-0.03136634588198897 -0.034424003328303816 0.028587309734222632 -0.01237386587916902 -0.028536085656616764 -0.01182604739644846 0.08067944698491533 0.027478423200099404
0.044783596317683846 0.059292533656349344 0.04645662128429005 0.024347532998694677 -0.07747155309773188 0.04791374174070434 0.08482095384140839 0.04887925924914888
0.012393667004878229 -0.050144305256047614 0.08879432677541635 0.0462993195960894 -0.07426743972122417 0.06556120422972642 -0.04839094388025967 0.09539138630096376
-0.05921530260450033 0.0871910161254251 -0.020837329307613905 0.05036253185009312 -0.08274486187277434 -0.04057480002470004 -0.029852553598872924 0.0767333706928033
0.0010739888588207431 0.0724465759500502 -0.09553874657440227 0.04820081665386497 0.012207979943139805 0.09160312438864301 -0.04713999067642287 -0.06551748188929149
-0.02669238126575188 -0.09515103488548594 -0.09005393514178167 -0.029312193092229176 -0.06036614496208874 -0.09401508314382864 0.006298526796951281 0.06368139334100237
0.021274594338443215 -0.003927190349299719 -0.02431426228002922 -0.03904460461804207 0.052695090745798444 0.0009402015498643082 0.0834766759580555 0.04844246257088586
0.08784879494387855 -0.06808300367922099 0.08428122932432018 -0.008904614780240523 0.0031722713565547236 -0.023458663351602627 -0.07645868391906194 -0.04303705153011327
-0.03340664536644752 0.06189107061920863 -0.02046478474404382 -0.0353642526332634 -0.09231771938455383 0.04744338755715441 -0.009889819738228672 -0.048191515902880955
0.03325112220979113 0.0473391866563656 0.019258692466096156 -0.08214166963090293 0.015596755029705861 0.042636244668981825 0.027324240896089362 -0.011109260410488665
-0.013901979243388906 0.05165990922767291 -0.06367923456117114 -0.04774765704084563 -0.06798039110676303 -0.05499703117468335 -0.008775252259648519 0.033039932586894076
0.030607088427125912 0.07894139300207376 0.06093954427221287 0.061292660716972085 0.097092899673481 0.030543746071872668 0.06321218243524504 0.06868877575636427
-0.07068293890028397 0.04127581312530853 -0.09504870133096967 -0.08984040888094531 -0.06047721811408217 0.0549582314870844 -0.08199810045280756 -0.0337535449798888
-0.08416003350694565 -0.022301345793546774 0.06604431728221227 0.001888500351823146 0.07907808411493365 0.0004241961876116432 -0.023028743513408924 -0.007638694029791634
-0.06813819829199227 -0.07535916718737759 0.01656981832961391 0.06510828768423349 -0.04614306666916017 -0.07502713693978531 -0.00263989510759155 0.0795760307000851
0.06151162528146281 0.008459666504079538 0.06934756319608264 -0.08232809120958523 0.014883842665473596 -0.02693830958784554 0.07280747174868099 0.029062710503915037
-0.06836669174448402 0.058115151754174844 -0.07300302774941062 0.05213850274438742 -0.014198053489629063 0.04447302985845705 -0.08001155613414836 -0.007029369206560143
