ResNet-18实现CIFAR-10图像分类/sever copy/Experiment3/model2/conv6_weight.npy (npy, 589904 bytes, 1 tensors)

array f8 [128, 64, 3, 3]
0	0x3fa455448a983c2b	0.0397130412276215
1	0xbf9844e1f8647513	-0.023700266633672373
2	0xbfb222660d448ec6	-0.07083738159104333
3	0x3fae11e845105c84	0.0587303718859227
4	0x3fa73584c9484cde	0.045330190249069466
5	0x3f89a8907afcbd6e	0.01252854228331898
6	0xbf6ec4f91d5c345b	-0.0037560334702733517
7	0xbf95ee986ed1695c	-0.02141798187617759
8	0x3fac3042cf333088	0.05505570201202753
9	0xbfb688af30cc3a6e	-0.08802313748695109
10	0x3fb020037ce27277	0.0629884891408866
11	0xbfa7abaeb0607d31	-0.04623170760191398
12	0xbfb43699caf7c666	-0.0789581413771657
13	0x3f9ef9260f86e973	0.030247301767056322
14	0xbfa75409a9a508a9	-0.045563032110764574
15	0xbf4a527389093225	-0.0008032859933080934
16	0x3fb028c63ab8b3aa	0.06312216695432818
17	0x3f9c721637453c15	0.027778956530991012
18	0x3fb01aea5e7c3766	0.0629106980015571
19	0xbfa513f6e5d59800	-0.04116794162364101
20	0x3f96e6447c80fec3	0.02236277589713499
21	0xbfb7109c2add7ed7	-0.09009719892992095
22	0xbfa14563b77f45ad	-0.03373252501445321
23	0xbfb77270bf902768	-0.09158997227510002
24	0xbfa6e7d1941f8d5c	-0.04473738606591368
25	0x3f9405e643c7a23a	0.01955375469870744
26	0x3f7eed13aeb1cd2a	0.0075503128856440425
27	0xbfaea65f90c5fa83	-0.0598630775666509
28	0xbfad8cad9ddaad38	-0.05771391441279622
29	0xbf9eb631ffa86b70	-0.029991894940489983
30	0x3fa299b662794fbc	0.036328982849823416
31	0x3fb0e33cb096712f	0.06596736251089362
32	0xbfae8960e976c690	-0.05964186525251336
33	0xbfb2ffc64d9f5880	-0.07421531100348666
34	0xbfa631060e277396	-0.04334277079372055
35	0xbfb5e411083bbfff	-0.08551126910219863
36	0x3f95e1e88afc5a11	0.021369584544197965
37	0xbf8ce7b3112e8224	-0.014113806688159043
38	0x3fad7dc39f7abdd7	0.05760012933512442
39	0x3f972cb535024f01	0.022631484375394532
40	0xbf9ffc4ed1de90ca	-0.031235915717517306
41	0xbfb0d50d81e865cf	-0.06575092717721208
42	0xbf9c4e299fb16d6b	-0.027641916629688106
43	0xbf9f539a9a8c730c	-0.030592361147785005
44	0x3f90a0af0e14f4a2	0.016237960085380927
45	0x3fae5f2cedd53d7c	0.059319881470055486
46	0x3f9e4b91ba5103e5	0.02958514880834064
47	0xbf89d08ca8e8ae54	-0.01260480776280485
48	0x3f73ea49b272909e	0.004862106207984022
49	0x3fa9bad6ee301754	0.050253597808519374
50	0x3fa2b3c173d04c97	0.036527676951800085
51	0x3f857816fa06ac67	0.01048295927542693
52	0x3fa2f472cf238124	0.03702124384449437
53	0x3f62190f5262ac0b	0.002209215093065269
54	0x3fa8a69cac4a8b9f	0.048146148711814656
55	0xbfb1a2c8c2a01bb6	-0.06889014007184255
56	0xbfb011c9f6344203	-0.06277143727152894
57	0xbf8253dc991a83f0	-0.00894901602015527
58	0x3fac29fe4384c932	0.05500788282587833
59	0xbfb0ac36b37c6369	-0.0651277721593836
60	0x3f9941b1c7233ce6	0.024664666919133625
61	0xbfb5b1857fa21e44	-0.08474001279875504
62	0xbfb243c1dc0b2f72	-0.07134639379654376
63	0xbfa35aa8ea5b6b71	-0.037801054580731804
64	0x3fb14125f5b33483	0.067400333867413
65	0xbfb56195ef10d542	-0.08352028929296743
66	0xbfb6dd8dacfcf98e	-0.0893181369146758
67	0x3fb0148b800ed2b7	0.0628134906426777
68	0x3fa3f0c7d62b7693	0.03894638528229879
69	0x3f79c0603d571fe7	0.0062869796142379425
70	0x3fa734b95f93a89c	0.04532412807186967
71	0xbfb0c1a1f77da1f2	-0.0654546002603025
72	0x3f0ee0518eb1264a	5.88917626705541e-05
73	0xbfb5d28c95c793ea	-0.0852439752266744
74	0x3f910ec1ab1bd517	0.01665785414566753
75	0xbfae2a6a91ae9032	-0.05891736057608944
76	0x3fafd8f6ab629e4b	0.06220217554192383
77	0x3f9bc4e9624cdedf	0.027118345856449785
78	0x3fb108c0ea32131f	0.06653981893221016
79	0xbfa088e50ecdecd8	-0.032294424111535214
80	0xbfb5e58e01a66b77	-0.08553397693905916
81	0xbfa7c76e1ffb0ddb	-0.04644340649022257
82	0xbfa5b2e6678ea916	-0.0423805238163643
83	0x3fa6916fe8fcd2f1	0.04407834738814199
84	0x3fb1a6a4f9679d10	0.06894904221518439
85	0xbfa05b030e58ede6	-0.03194436597956578
86	0x3f797e234708ec9e	0.006223810007720902
87	0xbfa4d108d2fba6d1	-0.040657306437265846
88	0x3f817a83a3bdef67	0.008534458574778815
89	0xbf9db4d4563c0f73	-0.029010122073500576
90	0xbf92de2f6672522d	-0.01842569411071986
91	0x3f98ce4853a9fd0e	0.02422440539021147
92	0xbf8c3ef36e9bb7fd	-0.013791944325443945
93	0x3fa9aac2854584b1	0.05013091923570679
94	0xbfb682c046b66e38	-0.08793260313398654
95	0x3face5322f25d149	0.05643612695249318
96	0xbfb219b194c1db7e	-0.07070455438393528
97	0xbfaf3ff147ab8e89	-0.061034717558667025
98	0x3f9cd04d43bab926	0.028138358363031156
99	0xbfb53a7795457c5d	-0.08292338747331614
100	0xbf9056fac6568f8e	-0.01595680079994071
101	0xbfa4856aa1dfda9e	-0.04008038736349316
102	0xbf83b519f8f1e607	-0.00962276736230462
103	0xbfb5aca1fff6b2ae	-0.08466541766274346
104	0xbf9203e23d6f8bf0	-0.017592940330256768
105	0xbf9532e2320ac052	-0.020701917938538657
106	0xbf646399b657f240	-0.0024888994400938114
107	0xbf8b8150d858a0a4	-0.013430244066583726
108	0x3fac6c3579844933	0.05551306827887217
109	0xbfa796965ed4ffeb	-0.046070765567946946
110	0xbf80b00d51d9e327	-0.008148292599103947
111	0xbf596d0610beb6a1	-0.0015518721802253793
112	0xbfb33ff5ea85d6af	-0.07519471145300359
113	0xbf8c88df8d230b4e	-0.013932940001159768
114	0xbfa73efee66a299a	-0.04540249407462511
115	0x3fae261e87d8e51c	0.058884576876559985
116	0x3fa36ece273bf910	0.037954752244319434
117	0xbfab444ce5e034e9	-0.05325546556569256
118	0xbf90a39631e546cd	-0.016249033732782792
119	0xbf81d62d3e3f83b9	-0.008709290945206992
120	0xbfae33b30971faa4	-0.05898818483637072
121	0x3fafccee1908cc83	0.06211036735148758
122	0xbfa5f242e3a179f8	-0.042863931929549126
123	0x3f7fb4a601fc753d	0.007740639179045159
124	0xbfb5577ac6f88b4b	-0.0833660827416171
125	0x3f9003ca56f41065	0.01563945918771061
126	0xbf9004edc771383a	-0.015643801973333128
127	0xbf6ba610c50a707a	-0.003375084641744461
128	0xbf769f179ec7d52e	-0.00552281595854724
129	0x3fa1ac5f7f834192	0.03451822692443608
130	0x3fa158870eb54fa8	0.03387853674453761
131	0xbfa41f8dc7ce6c54	-0.03930323661844484
132	0xbf9a5173cf54bff6	-0.02570134118030861
133	0xbfabadb037d0253f	-0.054059511960142796
134	0xbf8046bc0fe4400c	-0.007947415575955595
135	0x3faa2bfbf0f42212	0.051116822398459175
136	0x3f8416404ce1c81c	0.009808065744639598
137	0x3fa667c762f6c9b6	0.0437605198198016
138	0xbfb5a112358c8c97	-0.0844890003905213
139	0xbf88784f2ffd69af	-0.011948221828494391
140	0xbfb54320ce6b8fb3	-0.08305554427675936
141	0xbfaa5ddf17836558	-0.051497432346603034
142	0x3fabbf95be13cc53	0.054196052029418816
143	0x3fada16028558a18	0.05787182323799217
144	0xbfb53fa1e4eda923	-0.08300220336028423
145	0xbfa9a115db828df3	-0.05005710892262618
146	0xbf9325051cd8d6b9	-0.018695907483752026
147	0x3fb1950a81364609	0.06868043570127481
148	0xbfac9a3ff58f5784	-0.0558643328910611
149	0xbfb485eddff71ff2	-0.08016859739211649
150	0xbfb2879ccefc3d10	-0.07238178304054466
151	0xbfb5057c10f79331	-0.08211493887172307
152	0x3f9d7792eedb5c5b	0.028776450947443837
153	0xbf9bf7868659be52	-0.02731142230044121
154	0xbfa8e32ec995f43b	-0.04860826693309447
155	0xbfb40e67a59a7d9e	-0.07834480088285153
156	0xbf9f2f3cd8981c0c	-0.030453634948596472
157	0x3fab4516cdc46547	0.05326148282820014
158	0xbf846da0e934d641	-0.00997472488107143
159	0xbfafe6138a634ae2	-0.062302218096780285
160	0xbfaa7e9b192fb05e	-0.051747176002977055
161	0xbfb2934f7ce28387	-0.07256027983613765
162	0xbfb43cb1482f26d5	-0.0790510941725658
163	0xbfaf4e197016e9dc	-0.061142725880433096
164	0xbfb776c5c00a7ab0	-0.09165607393741015
165	0x3f6ef6bdf1eee948	0.0037797651161472247
166	0xbfb3ff8be648a1c1	-0.0781180798736676
167	0xbfa88e01d5c3d725	-0.047958428711281344
168	0xbfb53abb72375e5c	-0.08292743242724882
169	0xbfb4948cf4116280	-0.08039170225800696
170	0x3fa117612f157aa0	0.033381497380778
171	0x3f8e97aee4b1f282	0.014937750200482162
172	0xbfb62ab06224abe5	-0.08658888240886105
173	0x3fad94964c2e1e5e	0.057774254607519934
174	0x3f94f6ab5a624b9c	0.020472218886947155
175	0xbfa5ed852dccb526	-0.04282776054456354
176	0xbfb24d9091ecec7d	-0.07149604380258441
177	0x3f9364947b5e240c	0.018938369779366623
178	0xbfa7a9fa51376a18	-0.046218702711218806
179	0xbfa6ee58134af28a	-0.04478717074878087
180	0xbf8e015f17fc7aaf	-0.014651053351881186
181	0x3fa1ad78a35d3987	0.034526605550683924
182	0x3fad483e6200cae7	0.0571918005593
183	0xbfb0a3f13d8caf65	-0.06500156166720002
184	0x3fb1a5b1e831e60f	0.06893455427952964
185	0x3fae72fcd005b2bf	0.05947103537878239
186	0x3f8f3e8b37c68793	0.015256011619218223
187	0xbf79a2aac9df6c7d	-0.006258647101243684
188	0xbfb2bf55601362f8	-0.0732320174751172
189	0xbfac3ec5f5a37d33	-0.05516642211454794
190	0xbf9dccd8200d3c7c	-0.0291017312586601
191	0x3f9c93170d2ec962	0.02790485399209198
192	0xbfb06c63b3424f60	-0.06415389181557662
193	0x3f76445f0bcae6bc	0.00543629767769865
194	0x3f9fc443ae7133e8	0.031022126695734814
195	0xbfb06828cebebebf	-0.06408934638488527
196	0xbf90ed942a792101	-0.0165312910960731
197	0xbfb126a5af82fb0c	-0.06699595961525179
198	0xbfb5d061f4a4a2ca	-0.08521091673595574
199	0xbfb4810dfa8f33bd	-0.08009421698734705
200	0xbfb10c85c6ef354b	-0.06659732920453114
201	0xbfa8bc8b56f696f1	-0.04831347881854054
202	0xbfa7146734da26a0	-0.0450775386826312
203	0x3f92bc847016d26b	0.01829726156366222
204	0x3fa07ceef9fd252e	0.03220316697713553
205	0xbfb5bc19018f3199	-0.08490139282293398
206	0x3f858d0502e96fab	0.010522879744875832
207	0xbf76860c546fc6b4	-0.005498932040596639
208	0xbfa81b5e29651f36	-0.04708379988966131
209	0xbfb3033432122b4a	-0.0742676374667727
210	0x3f23f08dce29dc91	0.00015212756177948987
211	0x3fb12afce0fc38b7	0.06706219189456673
212	0x3fa2b36c7f51b188	0.03652514509380739
213	0x3faca16d8f0e0683	0.05591909762644056
214	0x3f89f35c65daf7f5	0.012671205385569076
215	0xbfb0d0596b476720	-0.06567915791620438
216	0xbf9bbfe64d8cdadd	-0.027099226458825555
217	0x3fa47ea392342e94	0.04002867850985328
218	0xbf8a4c034898fc3d	-0.01284029546070375
219	0xbfb5cab5ca668381	-0.08512436095635502
220	0x3fa93fe7d94574b1	0.04931568648565
221	0x3f927bff08c2ac3e	0.01805113306970107
222	0xbfb3cd71c53b5e93	-0.0773535830043051
223	0xbfaccf8ca56908a6	-0.05627097624939496
224	0xbf9b1c04b6253af0	-0.026474069230341735
225	0xbfb2632f4532d37a	-0.0718259376470324
226	0xbf8e525a9841b6be	-0.014805515071397376
227	0x3fb0de2fe55573c1	0.06589030598611513
228	0xbfaf57c8ec63b0c5	-0.061216620308046234
229	0xbf838dc6b8594808	-0.009547760487439674
230	0xbfac35d7263f2564	-0.055098269861967336
231	0x3f8ded7476255a25	0.014613065581824245
232	0xbfa2d533dfbc06a8	-0.036782856999719116
233	0xbfb4a75858644435	-0.08067848356246617
234	0xbfb0e8b1d7018bd6	-0.06605063914461992
235	0xbfaec67a8f9b0976	-0.060108022718412465
236	0xbfb660ec55bc2127	-0.08741643040787449
237	0x3f9dec8c2df59524	0.029222669892438394
238	0xbf65c92f79290e1b	-0.0026594092571785694
239	0xbfb639fba0cb5321	-0.08682224918022687
240	0xbfb6ad4021279867	-0.0885810929245011
241	0x3fa136fbdfffbe09	0.033622618764521724
242	0x3fb183774880edaf	0.06841226120098186
243	0xbfa83e7a26fc3388	-0.0473516628827389
244	0x3f9eb4bc17bb96a8	0.02998632330754583
245	0xbfb1db18b6daea04	-0.06974939789044049
246	0xbfa3d5a32ccc000d	-0.038739299028748155
247	0xbf9d2d1c9bc4bbcf	-0.028492400176386042
248	0x3fa7163239cbd56f	0.045091218524173075
249	0xbfb55de2d0f7e13c	-0.083463836686751
250	0xbf9c927ff9bdf699	-0.027902602785153083
251	0xbfab51093981f894	-0.053352630872710055
252	0xbfb53737317fe249	-0.08287377317891144
253	0xbf9994afbae4fb3e	-0.0249812562772107
254	0x3fb1e2949d1aa040	0.069863594394179
255	0xbf779a70cf272d95	-0.005762520466713457
