ResNet-18实现CIFAR-10图像分类/sever copy/Experiment3/model2/conv0_weight.npy (npy, 13904 bytes, 1 tensors)

array f8 [64, 3, 3, 3]
00000000: 39cf 969b 144c b83f 9c3d 8035 461e b13f
00000010: 7c71 55a9 4f6d b53f aba9 326a 6207 9e3f
00000020: 4414 60f1 407a c0bf 5453 577c 68bb 9c3f
00000030: a711 1943 01fe 953f 32f8 be05 3ff6 b0bf
00000040: 7d76 9f2a 935c c9bf 3c07 1a6a 2def 96bf
00000050: 4838 332e f7a9 c6bf 09d8 4089 0de1 a73f
00000060: e1d4 75e5 929f c0bf bf18 f3b5 e86a c2bf
00000070: 0112 35b5 9bcf c2bf bba4 c4de dc59 b63f
00000080: d634 f0c5 44ef b0bf 6b72 8943 a62f bdbf
00000090: 7073 265e ed68 b13f 784c b64d 2cd0 b0bf
000000a0: f64c 9885 172e b83f 3926 d03e c296 c0bf
000000b0: 93f2 6576 41f3 aebf 222b 7638 8314 cbbf
000000c0: c945 2c83 69ac a93f 0058 5d77 023b c1bf
000000d0: ae05 ef3c 3418 cebf d9f1 1dfa b196 b1bf
000000e0: 0b69 2865 7c3c b8bf cade d635 5b70 b7bf
000000f0: 2be6 0c43 a612 b83f 01a7 2e4a 7b6c c7bf
00000100: b5fe a220 905d a33f ee90 03cd 0b8e 59bf
00000110: 82a2 7df7 f932 c8bf 1079 2238 1571 cfbf
00000120: 31a8 1b43 1d93 c6bf 6e26 af98 3610 83bf
00000130: cd59 c783 31bf c6bf 9411 e3c7 30dd 9f3f
00000140: 183d 1673 0e47 a3bf c5dc a709 ae0b c0bf
00000150: 3756 8825 4e66 d0bf bf1d 3183 cbe4 95bf
00000160: d79b 5885 615d bcbf 5efd 8535 623c c1bf
00000170: f5a7 dfc5 b470 cbbf e0c2 6e46 4364 763f
00000180: b63c e0ee b6ce 9a3f 67a1 e00d a8a8 b13f
00000190: 8534 5565 7fea bfbf bd8c cd75 27c6 c5bf
000001a0: 4c1c f3e3 e4e6 c9bf e151 5a1d 6967 93bf
000001b0: 1f45 6a93 3071 b1bf 4ca9 47f7 1d2c babf
000001c0: 922b 26a8 a3b1 a8bf 0208 5778 9378 c5bf
000001d0: 7fb1 47ae e1a3 973f c7b2 cfd5 9c43 cdbf
000001e0: 8fed 184f fb52 b33f 3bf7 7ac9 c13c b03f
000001f0: 627f 1dad 97c1 a03f e398 c14f b998 c1bf
00000200: e240 7195 b1a0 75bf 3411 a175 ee98 c8bf
00000210: 7e3a 0b3c 4126 c7bf 0ba9 6478 a449 c6bf
00000220: 2d54 87da 3bdd a3bf dd3c 33ec dba6 b83f
00000230: 1f59 2d55 1e9b b2bf 4669 613b b109 cbbf
00000240: f9ca c534 6f36 a3bf e3ce 6c94 1a96 a43f
00000250: 35fd 0a19 790a b73f 93d1 6b8b 3e4b b73f
00000260: 33fc 1feb c7ef b3bf 4770 82b6 4dec a13f
00000270: 5d1f 786e 35e4 b43f c000 9b6f 4d4b 90bf
00000280: cff2 f57b ad8f cbbf 323a 75f9 7361 ae3f
00000290: a6be fc1b 4d8a a3bf 8b15 1bcf 86c4 c3bf
000002a0: 9b05 7fdb 804f 9c3f 536a 3b2d 47e6 c7bf
000002b0: 5c89 c126 81ad a53f aecb de5b 5a27 b43f
000002c0: 5882 69d1 724e c6bf 846c 005c 4177 a2bf
000002d0: acff b1e9 d016 a2bf 4504 14bf d56f c1bf
000002e0: 001f ddc7 5f4a ccbf daaa b158 7dc8 c1bf
000002f0: bef6 406e 9407 b1bf 5def 738c be4d aabf
00000300: b485 e2ec ea2d bebf 878f 1085 f0f7 ccbf
00000310: cb3e 18c2 8cef bbbf 0e04 45f8 9a76 9dbf
00000320: f63f 4fc2 41e6 cbbf 5025 d1f3 374d b6bf
00000330: 2070 c5ab 917c a43f 61a0 f49d 0620 783f
00000340: 8e5a acb6 1c86 aebf 6157 975c e4c5 7ebf
00000350: 801c 9cff 4fc8 91bf cbe2 d859 e63c 933f
00000360: c6d4 c241 8cc1 c3bf 1018 2760 e20e c6bf
00000370: 733a a072 afd6 cabf 58bb 398e 8509 babf
00000380: 44c1 bd60 e40a c1bf 8d5d 3e2b f6ef 9dbf
00000390: 74d6 d7a7 08ce b0bf 2e20 079a 53f2 c0bf
000003a0: 8b2b c51a f116 98bf dbe2 869d 3010 a03f
000003b0: 0fb9 f8f4 cc5c babf 0640 2971 5351 d0bf
000003c0: 50dc 70af 3074 b4bf 75ea f780 6c64 b6bf
000003d0: f700 6332 0f1f c7bf 2444 7122 1093 c3bf
000003e0: cfb2 4431 5b77 babf c496 4f71 ed1a d0bf
000003f0: 69d8 c3a9 0521 b9bf a281 4dfa f602 cabf
00000400: def5 a19f 0830 bebf e091 929c 9a5e c0bf
00000410: 1a04 d9c1 0016 aa3f f86f c365 5eae c7bf
00000420: ade0 04da e820 ae3f 3a4e dd65 53f9 95bf
00000430: 1c43 fe7b ab56 b4bf 4b4d 4eb6 e8a8 b93f
00000440: 800f de32 eca6 c5bf 9514 0464 a728 94bf
00000450: f771 9503 7c15 c5bf dff1 fa3e 1db5 90bf
00000460: da43 00ab 74a1 ccbf 08a1 b4c7 fc37 cebf
00000470: 2243 eab9 d148 aabf 3007 d11f 1ec3 a2bf
00000480: ce4b 8c05 4a0b d0bf 8725 bbcc e580 cabf
00000490: debe 8f84 4201 b8bf 6c5a 867b fc88 a6bf
000004a0: 6f52 6f1d aeb5 c3bf f233 bec3 697b 22bf
000004b0: b7ee ba58 b443 833f 7e95 92fb ee66 afbf
000004c0: 315f 1426 47e2 a7bf 99fc 1f91 7f5e c6bf
000004d0: f7b9 a381 bf28 d0bf a59a 219d c17c cabf
000004e0: a74d 3333 8310 d0bf 15ea dab2 737b c4bf
000004f0: dcbc 4831 92d2 af3f b475 4480 75b3 cbbf
00000500: dbd8 5403 beb3 94bf 45ba e9fd fa45 a1bf
00000510: 9739 6646 c301 a0bf f870 96cf b829 aebf
00000520: bb21 92c0 d1bd cebf 2c07 3ec8 bb0a c0bf
00000530: 9283 eb1d dd5f aabf 2acb 8721 0abe a8bf
00000540: 67fa b54e 4e5f cfbf 8bc3 c5fd dac1 babf
00000550: ebfc 5d78 e82b cbbf 2aa3 8515 8345 ccbf
00000560: f247 14ff 51b2 c4bf 636f ba4f f6d0 cabf
00000570: e51a a3be 9e3b c6bf 2db2 fc4f 84fb c9bf
00000580: 4100 753c 9c61 cdbf 2f35 aa13 77ac af3f
00000590: 8028 7c2e 3f0b ccbf 2c62 5249 1d80 c1bf
000005a0: 573b 655a 2f7e b33f 693b b006 040a bfbf
000005b0: 9a01 04a1 9b48 ccbf b4f2 d00a bad7 c8bf
000005c0: b826 ea07 1743 a3bf a670 9a85 86aa aa3f
000005d0: 203e fa0b 8d61 c8bf 5aeb a696 5077 ba3f
000005e0: fea9 1a37 1efc cdbf b73d 5896 1536 9e3f
000005f0: a882 2527 3923 c9bf 1555 5b51 e193 6dbf
00000600: 0cf4 cb6a 26d6 b63f e34f 1b50 8460 7d3f
00000610: ead0 f20a 30aa b83f 7fcb 7852 1bdb bb3f
00000620: 2b77 7e30 18ae b73f 7ce5 2788 1d24 bdbf
00000630: f8c9 b7e0 623e be3f 1f54 dfc6 98ee a23f
00000640: 914c 5e15 b0cb c1bf 5b3e 8fb4 a981 8c3f
00000650: f055 4d58 5ddf c5bf bbea 4d43 ae56 b03f
00000660: 8d27 8156 b59d be3f c11b 6106 11e4 cdbf
00000670: 35d0 c55f 5cd7 b93f 99f1 a28f f3cc b3bf
00000680: ca29 f860 23dd cdbf 819b fefb 23d1 c13f
00000690: da93 ec73 100d 7f3f 12e9 ef22 9572 b1bf
000006a0: 04ac 046c 4676 913f c574 9a7c 4537 aa3f
000006b0: a047 fd99 f8ee 93bf 0216 cbf2 6ddc cbbf
000006c0: 9d1e d474 af82 9e3f d040 e72f c156 ab3f
000006d0: 5bf5 002c 62b7 aa3f a18a e31f 7590 c9bf
000006e0: 5d94 a95d a68e b53f 9f7b a830 b5b1 cdbf
000006f0: faf3 e3a5 ffde b8bf 7280 50f5 a7b2 cdbf
00000700: 7ffb 970a 8454 b23f 5157 fc9e be31 ccbf
00000710: 8144 b501 6ec7 cfbf 4643 ad78 5298 b2bf
00000720: c3c7 b328 49ff b53f 8ede 06ac 2db9 cfbf
00000730: 1355 b2ea 5c49 a1bf fd5d ab27 46a1 b1bf
00000740: 6939 6317 5214 d0bf 8dba caa9 adab a4bf
00000750: 13a9 b9b5 4628 b5bf 131d bbbb 153b 7d3f
00000760: d887 e7f6 a5bb a2bf 358c 51a4 d2b4 c3bf
00000770: 0393 77f3 067b a53f c3ab bbaa 957e a4bf
00000780: dd30 0a47 faa1 b4bf 1b12 60fb a25d b53f
00000790: 2d93 67e3 5e7a c5bf c9c4 2804 04f4 79bf
000007a0: 7e4c b122 edf3 973f d28f a613 6e0f 5ebf
000007b0: 7645 5335 f8ee bdbf fab6 a323 9d83 b1bf
000007c0: 9789 b088 29fc b6bf 7c80 4197 04b1 b43f
000007d0: 107e baa3 76ca b53f cf6b 1c90 c2c5 c7bf
000007e0: fb43 6b0c 0db3 c0bf 2828 ca0f 3cfe c5bf
000007f0: 4bd9 d953 61ea b23f 7be2 9f2b 4649 cbbf
0.09491089628755568 0.0668681984536676 0.08369920620083876 0.029325044376187808 -0.12873088632491847 0.02805865534704151 0.021476764412243245 -0.06625741853983483
-0.19813766080089926 -0.022396764374668296 -0.17706193691123162 0.046638892178108966 -0.12986980632891856 -0.14388760456330904 -0.14696070049298274 0.08730869711566218
-0.06615094978788547 -0.11400832318163061 0.06800731228436319 -0.06567646882312939 0.09445330630869705 -0.12960079257054405 -0.06044964380541731 -0.21156349427141047
0.050143525373765714 -0.13461333111143858 -0.2351136491325127 -0.06870567661639572 -0.09467294187235013 -0.09155817093312205 0.0940345681855425 -0.18299809572391015
0.0378232040252419 -0.0015597453348670759 -0.18905567726621447 -0.2456385158629435 -0.176364572303386 -0.009308268103171726 -0.1777097600413086 0.03111721248639439
-0.037651492642107154 -0.12535644027204831 -0.2562442175415955 -0.02138059604865616 -0.11079988008042051 -0.13465526212165008 -0.21437701856422078 0.005466711801020735
0.026179178552464953 0.06897974337392086 -0.12467190002390012 -0.17010968448730593 -0.20235882883409528 -0.01894916764884325 -0.06813338850976834 -0.10223567282779306
-0.04823028018571231 -0.16774218917822742 0.02308609605999967 -0.22862587394720021 0.07548494988525632 0.06342707795098772 0.03272699344847642 -0.13747326273295987
-0.00528020256668091 -0.19216709846126323 -0.18085494453267253 -0.17412238958906587 -0.0387972549685077 0.09629606739621317 -0.07267942027587936 -0.21123328589858142
-0.03752467650601505 0.04020770131901743 0.09000355588340343 0.09099188712918353 -0.07787751665453939 0.035005978135104025 0.08160718867304469 -0.01591225618062775
-0.2153221946026833 0.059337257577329786 -0.038164529482285034 -0.15443501579845206 0.027647031208976363 -0.1867150278911419 0.04233935926528673 0.0787254785816873
-0.17426905846788787 -0.03606609581057632 -0.03533032276845857 -0.13622543172826532 -0.22101971873257042 -0.13893095808756223 -0.06652190868131932 -0.05137439217102611
-0.11788814814874266 -0.22631651398944205 -0.10912399042740188 -0.028772756007359894 -0.21796438205501517 -0.08711576178133851 0.04001288625542565 0.005889917228422887
-0.05961694459818033 -0.00751294330389904 -0.017365694023308453 0.018787001832808053 -0.15434411250104157 -0.17232923216778362 -0.20967667672126175 -0.1017077896337758
-0.1331449005479134 -0.02923569334924774 -0.06564382646305394 -0.13239522000208254 -0.02352501607792194 0.03137351916251926 -0.10297852497817338 -0.2549637417878333
-0.07989792140220797 -0.08746984623568628 -0.18063535652436943 -0.15292550737152155 -0.1033837313922945 -0.25164352479474084 -0.09816012758878546 -0.2032154771977846
-0.11792043587953269 -0.1278870834841106 0.050949119246532074 -0.1850088116542563 0.0588448301445522 -0.021458914844812528 -0.07944747712305084 0.10023359728648022
-0.16915657504807413 -0.01968633220623824 -0.16471815276135235 -0.016315896004685967 -0.22367723798427513 -0.23608360053300026 -0.0513368167349937 -0.03664487970719532
-0.25068903486061067 -0.2070586442626274 -0.09376922355999848 -0.04401387222167305 -0.15398193776367772 -0.00014100709983858002 0.009406479795294726 -0.061332195481820215
-0.0466482385619983 -0.1747588595025931 -0.2524870649348538 -0.20693226025033087 -0.25100784301795404 -0.16001745446358542 0.062153404728059164 -0.21641415370042483
-0.020216912225088684 -0.03373703336261661 -0.03126344904295591 -0.05891206296948498 -0.2401678266799204 -0.12532756116348176 -0.05151263227686011 -0.04832488688761878
-0.24509600489905667 -0.10452049918764154 -0.21227746846486836 -0.22087133932952813 -0.16169190363922287 -0.20950201886159467 -0.17369446094945498 -0.20298818498248875
-0.22954132987979572 0.06186267962503177 -0.21909322519087837 -0.13672224121252563 0.07614417988700715 -0.1212465778664701 -0.22096581804363497 -0.19408345726141862
-0.03762123080839558 0.05208225613498145 -0.1904770191654146 0.10338309934642834 -0.23425653162605892 0.029503190327941655 -0.19638742839290058 -0.0036105538118628247
0.08920517070141915 0.007172123763400126 0.09634685771272058 0.10881205333207154 0.0925002210992402 -0.11383232664220161 0.11813943849828223 0.03697659900323224
-0.139028559144752 0.013919187376728084 -0.1708790475046693 0.06382264273808406 0.11959393846441753 -0.23352253734102926 0.10094239557457814 -0.07734606034040893
-0.23331110224564916 0.13919496349737062 0.007580818432676184 -0.06815464117963568 0.017052746146116973 0.051202937565201924 -0.0194662899005561 -0.2176644740595038
0.02979540014805925 0.05339626035459022 0.05218035494952274 -0.19972099358627296 0.08420791422538927 -0.23198571086774408 -0.097152688980671 -0.23201465109105218
0.07160210856089398 -0.2202680851266288 -0.2482736118641107 -0.07263675161563041 0.0859266018267411 -0.24783869647739148 -0.033762839936722376 -0.06886709660044939
-0.2512402752298813 -0.040372302032996556 -0.08264581619883797 0.007136425872608559 -0.036587892903994834 -0.15395577453009116 0.04195424768457736 -0.04002826413292084
-0.08059658274050059 0.08346003186313349 -0.16779695609798165 -0.006336227119889412 0.023391442530123367 -0.001834733483158314 -0.11692763616453825 -0.06841451759438746
-0.08978519045971321 0.08082607929964242 0.08512059685971729 -0.18572265659972095 -0.1304642019881895 -0.17182112475376354 0.07388885781424397 -0.21317364816765746
