ResNet-18实现CIFAR-10图像分类/sever copy/Experiment3/model2/conv3_weight.npy (npy, 32848 bytes, 1 tensors)

array f8 [64, 64, 1, 1]
0	0xbf684d89873ace3e	-0.00296666012749272
1	0x3fb501053d133568	0.08204682103242578
2	0xbfa121feda3f6eec	-0.033462490216804
3	0x3fb82bc4d75873b9	0.09441786057909853
4	0x3fc5de209ff86ffe	0.17084129153306543
5	0x3fb2feb896395ee9	0.0741992346532886
6	0x3fbe5f78a52dc17a	0.11864427597698138
7	0xbfc074eff7444c6c	-0.1285686452252749
8	0xbfc7d83508d8959f	-0.18628561908660132
9	0xbfb092ed6cc2bb91	-0.06474193482675462
10	0xbfc73e6692d5beab	-0.18159181756663165
11	0xbfb9c7c658540596	-0.10070457130861707
12	0xbfb34e756eeb5e97	-0.07541593511575183
13	0xbfb2e2126f64f8ab	-0.07376208514776532
14	0x3fc410b4373bd935	0.15675976464235367
15	0xbfc0351ff793d063	-0.12662124241581116
16	0x3fb3d16ba82c9050	0.07741425376713207
17	0xbfc4e88378e51cfa	-0.1633457508380401
18	0xbfbd8cb071756296	-0.11542799730285433
19	0x3fc2d78f3a15a0f1	0.14720335327297776
20	0xbfb813490f3a36b9	-0.09404427167666086
21	0xbfac953fb03825c6	-0.05582617784609627
22	0x3fb75afac2281152	0.09123198738240504
23	0x3fc1f1789da1332f	0.14018161484491418
24	0xbfa03baf8aaa9f5e	-0.03170536582666615
25	0xbf6dafcb519ad749	-0.003623864275904252
26	0xbfc604a4784a2dc6	-0.17201667665027126
27	0xbfc14b1db555e706	-0.1351048598697206
28	0xbfc043a6c880f2db	-0.12706455984325413
29	0x3fc675a66c99edfd	0.17546539595410585
30	0xbfb245e5d094997d	-0.07137905447289046
31	0x3f9795d3b46287ea	0.023032482037372327
32	0x3fcb6066f7a17465	0.21387946215955647
33	0x3fc2878873f8db8a	0.14476113951397124
34	0xbf9ed1a44bdd1610	-0.030096594934795162
35	0xbfa3cef7480a70e1	-0.03868839983371842
36	0xbfcab819937a8e12	-0.20874328328237418
37	0xbfc901a0f951b666	-0.19536220716274783
38	0xbfc30d0a23086e3a	-0.14883543692200069
39	0x3fc6dbfed042ba56	0.17858872574784596
40	0xbfc2401ccd656708	-0.14258155850512133
41	0x3fc162b4c1b779d6	0.13582477053473835
42	0xbfc933a0c96d6e6f	-0.1968880637676764
43	0x3fc0705a8846445a	0.12842876104380957
44	0x3fc33885496d07b8	0.15016237340210892
45	0x3fc262186c27b4d5	0.14361863404284372
46	0x3fc0963ae29fc415	0.12958465638760744
47	0xbfc1ca95686f69e5	-0.1389948615968272
48	0x3f9500af783ee670	0.02051042720243007
49	0x3f925bec4748f23d	0.017928783274543603
50	0x3f71528513f0e9f7	0.004229087672735768
51	0xbfa869d51e8d2b5b	-0.047682437877105875
52	0x3fc9a204db879167	0.20025692671982684
53	0x3f8e75ee00be1d92	0.014873370549834761
54	0x3fb5c73c527b44c9	0.08507134450634903
55	0x3fb66b7385f42e37	0.08757707615239317
56	0xbfc9f5b141a3fcf0	-0.20281043725115167
57	0x3fbbd187756e15f1	0.10866591088241485
58	0xbfc9e8e63e7d8f72	-0.2024200253609894
59	0xbfaa73bfe07fbfdc	-0.05166434874979561
60	0xbfb4c18d639e05e5	-0.08107837373793066
61	0x3fa32fc256953c58	0.03747374827309419
62	0x3fb09ffab8f2f46e	0.06494109168393589
63	0x3fc7d077df6bb215	0.18604944619382083
64	0x3fc46cb6fe3f1545	0.15956771292091268
65	0xbfb8aaf4d1753626	-0.09635858644215797
66	0xbfc9fc25c81786fc	-0.20300743360626672
67	0x3fb145c1306dfab4	0.06747062141765064
68	0xbfb09ab5fd191b56	-0.06486070088531667
69	0xbfb0f87dd431c8df	-0.06629167967347226
70	0xbfae9aaeef624ebe	-0.05977389022987499
71	0xbfb7636be9746de3	-0.09136080216961022
72	0x3fca01ae27a4d506	0.20317627845512493
73	0xbfc75dd3be6c4b82	-0.18255087659835217
74	0xbfa0b6e578800166	-0.032645388564563046
75	0x3fcbdc9d290fc977	0.2176701021667886
76	0xbfc542e9c77ff2fb	-0.16610452882004964
77	0x3fc95d50b43f12a0	0.19816025544254945
78	0x3fc42b09c2ae26d2	0.15756341939805069
79	0x3fc769e8096507cc	0.1829195066330257
80	0x3fc4b65bee3e6cd3	0.16181515820503609
81	0xbfbe6eec308edc6a	-0.1188800447988442
82	0xbfbdf95297dde46c	-0.11708561141667112
83	0xbfb79fccfe239014	-0.09228211597979935
84	0xbfb3ca4806147807	-0.077305318340649
85	0x3fc98f91bfb35cb3	0.1996938882864235
86	0xbfc1e178e9b688e1	-0.1396933690239797
87	0xbf70773775279c97	-0.004019943839444504
88	0x3fb83e206d011cd2	0.09469797765005986
89	0xbf9ee1d9c3f9a5e7	-0.030158426844001964
90	0xbfa6f42aef0278c1	-0.0448316017875512
91	0x3fc820604ab93fc7	0.18848804138769834
92	0xbfc607c50ff5fb84	-0.17211211470927534
93	0xbfae8868e3dd7600	-0.05963447362476515
94	0xbfc876407862cca3	-0.19110875967235072
95	0xbfc90d3d13dd56b4	-0.19571650953246478
96	0xbfb44b3ab76bd404	-0.07927290895516143
97	0xbfc2fb5fde597ee2	-0.14829634053147972
98	0x3fc9a73e8c5c2a71	0.20041639188305596
99	0x3fba4a8e5f9de558	0.10270013651269971
100	0xbfbe4652c53cbb48	-0.11826054873811842
101	0xbfa8e40a43d1eae2	-0.04861480787163487
102	0x3fbb0c94db51bb71	0.10566072802042271
103	0x3fca84acd350cd96	0.20717392271181428
104	0xbfad7206b1c7b1f6	-0.057510575486819634
105	0xbfaaafdd93e91880	-0.05212299757526839
106	0xbfb3d43faca17e31	-0.07745740856761853
107	0x3fb915986f20bc49	0.09798577035029256
108	0x3fbff3c2eca26be5	0.12481325413902729
109	0x3fbfac7cf8fc51e2	0.12372571066618535
110	0x3fb13f6453b75f4b	0.06737353366713454
111	0x3fc61fe12c8eb6a2	0.17284788776071475
112	0xbfb0e42f356b8c53	-0.06598181776239302
113	0xbfb1f5d3b4f84d0c	-0.07015727203570438
114	0xbfa2a82c4f23c172	-0.03643930879650527
115	0xbfc5a98d0768ebcc	-0.169236782663431
116	0x3fb279a6aa7e5dd8	0.07216874754373437
117	0x3fca59894f2613b9	0.2058574329822969
118	0xbfaaae3476e5cf36	-0.05211032821071486
119	0x3facf7c4f8e0c404	0.05657783067761815
120	0xbfa670c7322bdefe	-0.04382917869037149
121	0xbfc8c5d1e01711fd	-0.19353698198223404
122	0x3fc2828d5ed3f370	0.14460913782377416
123	0xbf9b932f90adde68	-0.02692865677405934
124	0xbfc337463282ca95	-0.15012433496811597
125	0x3fcb55c8cfba8cdc	0.21355543272975452
126	0x3fcd005dbede0fca	0.22657367534350065
127	0x3fc1a1716bf98d40	0.13773935100753398
128	0x3fb3f8455313ffee	0.07800706175112257
129	0xbf7d28d60c68ff07	-0.007119022490371447
130	0xbfc3f81c00bdb35e	-0.1560091975801709
131	0x3fb96635a18680d2	0.09921584313861168
132	0xbf8a26da6284b761	-0.012769418841880488
133	0xbfbfa33e93b14c6e	-0.12358466249252029
134	0xbfc768a4c55a60b3	-0.18288097034815606
135	0x3f9dce9f43ba36c4	0.029108513363601998
136	0xbfbad061eaac1717	-0.10474216441442895
137	0xbfa79227b4303787	-0.04603694986882006
138	0x3fc50f2c9cea6243	0.16452558195011777
139	0xbfc5a91deef8626a	-0.169223539051717
140	0x3fa8eee20d3f8949	0.04869753276558925
141	0xbfb4a32652639ce6	-0.08061446677639914
142	0x3fb5eb752179ea37	0.08562404696741842
143	0x3fa3f0c8548ea491	0.038946399995731025
144	0xbfc11730b91efddc	-0.13352021254648505
145	0x3fc40115bb8b45fe	0.15628310830520314
146	0xbfc4b4cc8ec7cd67	-0.16176754924490952
147	0xbf854e0ec271695f	-0.010402789410524247
148	0xbfa3f30fa04e2f2e	-0.03896378356793516
149	0x3fc7073351933d17	0.17990724070703187
150	0x3fb9d153cef1879b	0.10085033228236144
151	0xbfb4f479f1315dd6	-0.08185541285035156
152	0x3fbd47b7a61760e9	0.11437557034458092
153	0xbfcb3ebefb4305d3	-0.21285235661166144
154	0xbfb3c718f25cf9a6	-0.07725673596448832
155	0xbfc42fdb8b442c1b	-0.15771049785721022
156	0xbfc0e691bdae1003	-0.1320364166423361
157	0xbf95f6b3e9bad043	-0.02144890894005892
158	0x3f84be436d73185e	0.010128523614536696
159	0x3fc1005bf9ebf82e	0.1328234644242356
160	0xbfba524d893878af	-0.10281834220993134
161	0x3fbcf54e3832c091	0.1131180655672799
162	0xbf4172b738e8e738	-0.0005324740066676497
163	0x3fc019120f8272e2	0.12576509244254114
164	0xbfab0e53ad74a78d	-0.05284368030909468
165	0x3fc9357700780396	0.19694411776438575
166	0x3fc0aa5ae36a0414	0.13019882301526364
167	0xbfc5e6de08420d52	-0.17110801127646852
168	0x3fa80eb3c6fd3094	0.04698716930451599
169	0x3fba17a568f35b66	0.1019233113505443
170	0x3fcb1620f46f62b3	0.21161281523997885
171	0xbfc09fba5fad3421	-0.1298745124026093
172	0x3fca34264e72f86d	0.2047164805462133
173	0xbfb21310b6554092	-0.0706034131192175
174	0xbfaf291cf87108d1	-0.06086054356321003
175	0xbfa7ff728b180409	-0.046870784262871786
176	0x3f85f1d25b880b02	0.010715144556348036
177	0x3fc87e1511715c82	0.19134772636127556
178	0x3fabff24387c2a70	0.054680950064796785
179	0x3fc75025ad79bbb5	0.18213339777454754
180	0xbfa872e1feabfde4	-0.04775148614680427
181	0x3fc4854a375ef0d0	0.16031768516211864
182	0x3fc5fe0f60550dc1	0.17181579784128867
183	0xbfca165b5f46433f	-0.20380727912972849
184	0xbf8a86bf25a6676a	-0.012952321373450554
185	0x3fae49c7d26a7035	0.059156650958556524
186	0x3f946aee92426804	0.019939162899937926
187	0x3fbfc9abc85caded	0.12417100564623924
188	0xbfc9b30cc95312d0	-0.20077667074487815
189	0xbfc51948f35c8ddd	-0.1648341358460205
190	0xbfc5046c48dd0c15	-0.16419747884546668
191	0x3fc2bf3d9f3d0c1c	0.14646120333972668
192	0x3fca797fc455b28f	0.2068328579583931
193	0x3fb7a1222a425e02	0.09230245143623253
194	0x3f922a234185edd0	0.017738867639747913
195	0xbfb95741f2ee5ebf	-0.09898769551216001
196	0x3f47bfc831f38257	0.000724766494297378
197	0xbfb2dffb2600f17a	-0.07373017957519848
198	0xbfc8d3f277c264c2	-0.19396811339973935
199	0x3fcb3f488e4a47c4	0.2128687567497406
200	0xbfc0748cf43b0ac9	-0.12855684209178822
201	0x3fc4d60fb3cfc7d8	0.16278263358941447
202	0xbfb300886695b68f	-0.0742268801165784
203	0x3fb3d0f359eb9a8e	0.07740708298988805
204	0xbfc997cc87c23316	-0.19994503620946408
205	0xbf9e029cfea1db58	-0.02930684379722534
206	0xbfc1942ce5cb94e1	-0.13733445377798773
207	0xbfc50c386a8943e5	-0.16443543626749527
208	0x3fc00f5f8ebe2f00	0.12546915502422706
209	0xbfbb02bfdfda9000	-0.10551070418529207
210	0x3fc62736eb0579f1	0.17307173228887465
211	0x3f9291f2a4e7ad72	0.018134871783258295
212	0xbfc5a37f060c729a	-0.16905200763075784
213	0xbf928da0176b5904	-0.018118382863428387
214	0x3fbd31380ddb8baf	0.11403227175064388
215	0x3fbbd171a2485c78	0.10866461002329852
216	0xbfbbc16df906da66	-0.10842025117640616
217	0xbfc0a052ba55a4ce	-0.1298926744305277
218	0x3fa5d6b756cd4861	0.0426537793597539
219	0xbfb502bab6651a0a	-0.08207289650918184
220	0x3fc612635a7c2a57	0.1724361602612869
221	0x3fbbacc9353df398	0.10810525464871856
222	0xbfb18d22efd4e3cd	-0.06855982165588088
223	0xbf756479e4f556d5	-0.005222774648549329
224	0x3fbc5ed86c1c67b2	0.11082222594669025
225	0x3fa29ace3296b8fa	0.036337321925531144
226	0x3fb033f2d30ca520	0.06329267170498953
227	0x3fa995ed94ecd29b	0.04997198527272425
228	0xbfb0bd9d1290ff45	-0.06539327338486796
229	0xbfc7962fdf873dc7	-0.18427084364382848
230	0xbfc53738849ef5a7	-0.16574770427352556
231	0x3fc8239ca0f15544	0.18858678682833319
232	0xbfad38c604e7b145	-0.05707377252460558
233	0x3fc488104006b9e2	0.1604023277881899
234	0xbfbda3ab0ba2b304	-0.1157786277205553
235	0xbf4cc8598f78ced4	-0.0008783757502386033
236	0x3fc5d8df30f85f38	0.17068090335009756
237	0xbfa3027551507be7	-0.03712813012702281
238	0x3fbc51b601a51fdd	0.11062181034242209
239	0xbfbe5687a550fab6	-0.11850784097712616
240	0xbfaa0fed82b7fde5	-0.050902769286036244
241	0xbfcba93649876613	-0.21610144224432357
242	0xbfb2c18b6db2ad81	-0.0732657568757329
243	0xbfb29a3c05fcf0a9	-0.0726659311885124
244	0xbfb5c670b91223a1	-0.0850592090447564
245	0xbfa6ad9cb2587fe6	-0.044293305178370976
246	0xbfc15b5985365a2b	-0.13560027126796234
247	0xbfbd7e7ae6789b90	-0.11521118284927767
248	0x3f91e90de581d20b	0.017490594037058254
249	0xbfca476c0a090148	-0.20530462732313937
250	0x3fb8a921195314f4	0.09633070820116868
251	0xbfc01ae6e92d27d3	-0.1258209837490641
252	0xbfc81f756200b198	-0.18846003804482048
253	0x3fa0319765d0d950	0.03162835233563277
254	0xbfb9a944e4fae1bd	-0.10023909178096964
255	0x3fb99997d3c4fe26	0.09999989433435327
