ResNet-18实现CIFAR-10图像分类/sever copy/Experiment3/model2/conv1_weight.npy (npy, 294992 bytes, 1 tensors)

array f8 [64, 64, 3, 3]
00000000: 8eec f5b2 dfcf b4bf e962 bc30 84d9 a33f
00000010: 922f 1f15 94cc b83f 22c3 488b 59e0 8b3f
00000020: b6ba f88a 75d4 ab3f 4399 9fc9 7962 b63f
00000030: 2ac5 4769 d9aa 81bf b2a1 6950 5db4 9bbf
00000040: ec48 6a6f 5441 8b3f c250 1cf5 153d ae3f
00000050: 5ae1 260e 1dd1 b7bf 45ca ed9e 4763 b03f
00000060: f125 63b3 2171 a0bf f90a b769 467e b5bf
00000070: 7e4f 7308 0e84 9d3f f3c5 d7e1 4cb0 a7bf
00000080: cc90 1326 997d 953f 4334 ea59 e8da a4bf
00000090: dd62 a5dc 4e8f b33f 0ee9 76cc d2d3 abbf
000000a0: 2f3d 814e ca96 b83f a289 bb78 a325 953f
000000b0: bb41 3b78 2c1c b5bf 98b6 0ee7 680c b0bf
000000c0: 346c dc42 f1d5 a3bf 85e3 8229 7cfc 9e3f
000000d0: 5389 11b2 298d b43f 91fa 714e 8629 aa3f
000000e0: 5fa3 fb84 8ca0 903f c299 44f5 5ec7 ac3f
000000f0: 3255 f311 1417 b2bf 5ef7 c6ed 4033 b73f
00000100: ceff 9bc4 fab1 7d3f 440f a831 73e9 a03f
00000110: f6cd eb02 f941 9fbf 8630 67c4 df87 b6bf
00000120: 22d3 db64 ca76 96bf 0c3f 76ee 8bec b73f
00000130: 9dac d07f 5b17 9fbf 6001 a5b4 a759 9d3f
00000140: 7180 5358 ee57 a93f 0609 de6a 7911 823f
00000150: f5c4 2c12 cf89 a43f 170a 9aeb 10a9 b6bf
00000160: d6a9 9680 5a4c a6bf a68a 6214 e89b a13f
00000170: d167 c634 a98c abbf 55b8 0374 5bd9 b5bf
00000180: 7e5f 9689 42e4 ac3f 4c74 7d5f f476 7a3f
00000190: e7f4 c002 bb45 b73f 2848 5861 2f7b afbf
000001a0: 5671 652c b462 b53f 1efa 5d1f c5d6 b23f
000001b0: 1300 a598 5c41 9b3f f7cc 85b6 d617 a7bf
000001c0: 4470 bb66 e506 b83f 547b 47e6 0259 b73f
000001d0: d153 9f0e 1412 adbf d92d fc78 6fa6 b2bf
000001e0: bb30 3df3 0cc1 a73f dc5a 59e7 d374 aebf
000001f0: 46b9 5792 3bda 963f 4ed6 d0b8 c755 af3f
00000200: b925 0da3 22d5 9abf ad7e 78e5 2b98 843f
00000210: cff9 80ee c95e b13f af0b d457 fdf5 65bf
00000220: 2d1b cff9 3cb9 afbf a1f8 c7db 5502 a03f
00000230: 21c8 0480 8918 b73f a972 f53e 9d99 6fbf
00000240: a637 3239 a867 a9bf 6573 f69b a09d 803f
00000250: 748d 4813 09d1 b13f 6fc0 c549 ff69 a93f
00000260: 30c6 ac40 dfc5 a2bf 4aba 3ce6 653f 90bf
00000270: 8ded 16c0 0e9a a93f 52be 1379 c9dc aebf
00000280: 64f0 d11a 2d23 8e3f da58 e352 7451 a7bf
00000290: f66e 4672 9fde b4bf a1d7 b580 d909 a1bf
000002a0: af37 5b6a 66f4 a0bf 2408 d619 5572 b13f
000002b0: 3da7 28fa eea2 a4bf 036b ff3d 0d7c b23f
000002c0: 80be 4dcc 64a1 b83f 0364 14ae d480 9b3f
000002d0: e8d6 fcef 3c3d b63f ffdc 827e 6e85 a33f
000002e0: 0b01 d4ab 7427 af3f 740f 5fba 6721 b6bf
000002f0: 86bd abc9 aff3 a9bf c561 c542 ccb8 873f
00000300: b235 25fe af51 aebf a260 1f31 cb7f 96bf
00000310: 7ced ca10 62d1 abbf e5c4 fc24 7ca4 76bf
00000320: ff57 1dde 5ad1 acbf e2c1 e4bf 4959 a43f
00000330: 4ca1 4506 212d aa3f f50c a586 baca b1bf
00000340: 63d2 cb8c 74c2 b53f aa96 f9e7 6de9 93bf
00000350: 7b71 54eb 2a8c a0bf a1d2 8a08 1cb7 573f
00000360: 7194 c4e6 6693 b53f bd69 332c fb9a b33f
00000370: 08eb 14b3 55bf b53f f09f bd9d 99bb abbf
00000380: 6a35 7674 8031 9bbf 1e59 811b 528f b0bf
00000390: 61fe 0530 1b53 afbf 8c7d 7fd8 448c a2bf
000003a0: e2c6 3342 4f20 94bf c0d2 46c0 82e9 b1bf
000003b0: 216a f6ef 054a af3f 19f3 d79a 567f a1bf
000003c0: 5e47 9673 0e7d b13f 921a 234a a230 b1bf
000003d0: 3741 cf91 c25a 7abf aaef a31d ea4c b23f
000003e0: 3449 71f0 f089 b4bf 7863 72c8 4b08 af3f
000003f0: 8ff9 3864 826a a7bf c060 da55 458b b83f
00000400: f2c0 6dd0 144e a3bf 41a7 d17d 03c1 a3bf
00000410: ab71 5148 0245 96bf e61e 845f cf57 a4bf
00000420: 995c 4762 96c0 9a3f 3cf6 7d12 e2a1 b6bf
00000430: 4779 d251 5d1d a93f b737 7cea bd1a b33f
00000440: 4187 f1a6 4bb3 6b3f e153 7587 574b 723f
00000450: 9e75 94df 81f3 84bf 9605 fb5d 211c b6bf
00000460: 0b2e 837c 4ada b2bf e880 a5fa 7323 b5bf
00000470: 210a b2e9 2c1b aa3f b1c5 fe71 e14f b23f
00000480: 366e abc8 4cb9 a33f 5c75 9c2c 2806 8dbf
00000490: 0525 cf74 2f4e b73f 7794 4410 5f4b 73bf
000004a0: e4eb a40b 5cd6 ab3f ee8a ac59 9a57 b0bf
000004b0: 38c1 6106 b488 a0bf b30d 4a82 338a 993f
000004c0: e518 9da2 88f6 7abf f0c7 1ac1 bc68 96bf
000004d0: 7cdc 0c37 4eee b43f 8138 0942 7945 b2bf
000004e0: ea17 b0ab f342 9a3f 9e4e 96f1 42cf b53f
000004f0: aa92 dcfc 0c40 a2bf 2d6c 9885 6e6d 94bf
00000500: 8321 daa3 70c7 90bf 76b9 3669 fa98 a4bf
00000510: 6db5 3c10 8111 b6bf 2df4 3002 baef a33f
00000520: 9e5f 2fa3 2740 b13f 6ed9 7ee3 0df4 a2bf
00000530: edbf 737e cfad a63f 57af 7bb1 87c7 b13f
00000540: e787 80d7 055d b0bf 10cb a3f0 e06d a0bf
00000550: ca71 f017 a34a 253f 8883 142d fcf7 abbf
00000560: e37d b5f6 70e2 b4bf 637a c8cc 2187 b43f
00000570: bc6b 187e df0c 90bf d60b a4d0 fff0 b0bf
00000580: 66d8 18b8 40ff a33f 050b 6123 9cea ac3f
00000590: 369b 0fa6 f62b a9bf 1a7e e149 772e a83f
000005a0: 4b83 eadf 6c20 a5bf 7104 76e1 be40 a6bf
000005b0: 79a1 e5fa 168d 81bf d419 86c5 60fe 75bf
000005c0: 1e73 0387 6b2b 9dbf c1af 1e9b 67a0 ad3f
000005d0: ab3e ac79 e915 b13f e2da 5efc f84c a3bf
000005e0: a228 16f1 46c4 b03f fc14 95d9 e93d aabf
000005f0: b3c6 8050 f5d5 a0bf d31f be17 74da a4bf
00000600: e1c5 b001 d8f5 95bf 6bd9 a6a2 69e1 a03f
00000610: b1d1 ed77 6cb8 acbf feaa e899 ee14 80bf
00000620: ccc8 bac1 d00c 94bf 37ae de30 9161 a43f
00000630: 740c bfd3 1c6e a43f 27ea 19ee e0da a03f
00000640: 3294 5602 ec0b b03f 2479 4894 cfa0 aabf
00000650: 6e1d cc8e 56b8 a9bf cbf3 2735 e64a a13f
00000660: 9567 e4fb c040 b43f be60 af22 4cd0 7dbf
00000670: 3329 ccd8 5aa6 b1bf 25d8 db3f 6ae4 ae3f
00000680: 1ae0 ea79 71c1 b7bf da83 ef5d 99d8 b5bf
00000690: e968 3706 7ab7 b2bf d476 91f7 d2d5 b0bf
000006a0: a55c b702 0c72 b33f 0d9b 5301 2652 b83f
000006b0: 0d80 40d4 8036 8f3f 7ccf 34c7 2a21 a7bf
000006c0: b281 ec76 60ff b0bf 2b90 a1d6 1bfe 873f
000006d0: d667 57bf d025 9f3f 4237 6471 2306 aebf
000006e0: 7d9a b314 025e b4bf 26a9 0759 6558 abbf
000006f0: 94b9 4d12 13f7 8cbf e005 f9c6 02ef 9fbf
00000700: b146 a782 989c 7dbf c751 8320 da15 73bf
00000710: 7215 98a3 2aa5 91bf 4808 7c98 425f a23f
00000720: e776 b1e5 c319 a3bf a030 e584 b634 b5bf
00000730: b19f 0909 78bc a83f 61b2 f0e0 289d 923f
00000740: 9a1c d888 53a1 b03f 8959 9d3f 90cb 983f
00000750: aa93 550c 62a6 953f 91d1 d4f2 24f5 b63f
00000760: d6a1 8b29 8c3d 96bf aeb5 7e2f cd77 a83f
00000770: 5b57 05c4 77ac 9b3f f477 3cb5 7d5d a43f
00000780: e459 4907 05e1 a73f 900d 3056 56a3 78bf
00000790: d224 54a4 9c01 b7bf 1a30 1420 d3cc 9b3f
000007a0: ed42 4e27 72ca 983f ba4c dfd5 5c9b 9abf
000007b0: 1b65 2698 0ccd b0bf 93e9 ffe2 b6eb b5bf
000007c0: ac92 1b9c 5d19 b5bf 27f7 4341 290f aabf
000007d0: feea 117b f157 ab3f 410a caf2 cdce b0bf
000007e0: 5d48 4e2b 62e6 b7bf be2a 3e3f 0e40 66bf
000007f0: 284f 7ed3 53f1 b7bf 9fbf 83df cc72 abbf
-0.0812969028392436 0.038768893193440075 0.09687161937398361 0.013611506999127668 0.05435530969076778 0.08744012043425635 -0.00862665035762918 -0.02705522349643425
0.013308200502511323 0.05905979744980662 -0.0930345687437514 0.0640148890504771 -0.032113125942100036 -0.08395805436070337 0.028824061647199077 -0.046266939705571185
0.020986931752205604 -0.040732632614073803 0.07640545737138944 -0.054350459536594994 0.09605087677595202 0.02065139221566315 -0.08246114669169106 -0.06268935814906695
-0.03874162617849955 0.03026002887120029 0.08027897450805214 0.05109805781920785 0.016237445465694274 0.05620857948297299 -0.07066464842076384 0.09062581830127445
0.0072498126626214365 0.03303108197363128 -0.03052510338143396 -0.08801077408787891 -0.021937525182653357 0.09345316478561133 -0.030362538982597987 0.02866231956545684
0.04949898555946753 0.008822392057258554 0.040113898247350045 -0.0885172438811782 -0.04355128116306488 0.03439259766425566 -0.053807532970679646 -0.08534785826097509
0.05642898492368341 0.006461100179731959 0.09090775315503984 -0.06148670256892813 0.0835373505009945 0.07358963027761731 0.02661652261417664 -0.04510375001964378
0.09385522611722857 0.09120195505191236 -0.056778551850278476 -0.07285210326897786 0.04639473408914926 -0.05948507498822206 0.022316866690681246 0.06120132571269875
-0.026203671647896807 0.010055869045629018 0.06785261223647086 -0.002680773554517533 -0.06196013020922062 0.03126781757235731 0.0902181565805056 -0.003857428666078928
-0.049618966085389446 0.008113150367358999 0.06959587784563387 0.049636819606235665 -0.0366658941696979 -0.015866844346584842 0.050003491352494135 -0.060278221158907144
0.014715530758842195 -0.04554332267587009 -0.0815219549171465 -0.03327827163859288 -0.03311462448401358 0.06815082436335779 -0.0403055839891082 0.07220537913910267
0.09621267307169923 0.026858637928942396 0.08687191828797902 0.03812737745595917 0.060847898459544046 -0.08644722271043098 -0.05068730675508974 0.011582942760171808
-0.059216975949861875 -0.021971869347766522 -0.054331841039551215 -0.005527958812124843 -0.056284751523591574 0.03974371402216882 0.05112555696070106 -0.06949964320397213
0.08499840199858393 -0.019445149692180287 -0.03231939432791627 0.0014474653018342958 0.08428042539579096 0.07658357457277183 0.08495078680145352 -0.05416564989610595
-0.02655602179361464 -0.06468690082087789 -0.06118092499945927 -0.03622641699598281 -0.019654501357712635 -0.06996934122328025 0.061111627142242726 -0.03417463913135616
0.06831446001004113 -0.06714834508884795 -0.0064342117666032405 0.0714861223568152 -0.08022981519869604 0.06061016866551133 -0.04573447678966424 0.09587510438939528
-0.037705088084182395 -0.03858195219875294 -0.021747623123120324 -0.03973243752449011 0.02612528776975562 -0.08840763999429496 0.04905215858274175 0.07462679838883345
0.003381393201878164 0.004466382895164296 -0.010230078349702517 -0.08636673492858046 -0.07364335574964558 -0.08257222050952218 0.050988582160261815 0.07153138192258869
0.03852310132580465 -0.014171899663376557 0.09103676416193103 -0.004710551588037785 0.0543698085989133 -0.06383671464258686 -0.032292962817225435 0.024941258265710874
-0.00658276913765674 -0.021883916174097295 0.08176125377655014 -0.071372583982539 0.025646025995250378 0.0851938094913813 -0.0356449183148347 -0.019948698905960228
-0.01638580322335904 -0.04022963079784152 -0.08620459219374306 0.03893834378002512 0.06738517507562711 -0.037018236179778494 0.04429481905560793 0.06945083697399689
-0.0639194155815229 -0.03208830773828286 0.00016244164359670153 -0.054626350882478525 -0.08158021948974396 0.08018695115650014 -0.01567410666585166 -0.06617735713739079
0.039056799385819116 0.05647743160127131 -0.04916353966819147 0.047229507225662284 -0.04126301034307874 -0.04346271993836915 -0.008569888622063303 -0.005369546903585893
-0.028485946765488206 0.05786441582253544 0.06674060078170878 -0.037696629340123314 0.06549495111372264 -0.05125361233744205 -0.0328823719759276 -0.0407291678412204
-0.021445632079297176 0.032969761948538366 -0.05609454120613878 -0.00785242469017566 -0.019580137085264224 0.03980687829547629 0.039902592513976126 0.03291991144665856
0.06268191392025882 -0.05200813946815888 -0.05023451321727178 0.03377456091764194 0.07911306524002122 -0.00727872600960938 -0.0689446238795071 0.06033641843343699
-0.09279546000004793 -0.08533628981923816 -0.07311213161247888 -0.06576269668718321 0.07595896784129026 0.09500348598849602 0.015240675427833162 -0.045174919907736005
-0.06639674094595341 0.011715142714997814 0.030417691877893414 -0.05864058264897533 -0.07955945020112583 -0.0534087821177585 -0.014143132206041277 -0.031185191530544887
-0.0072294194637422685 -0.004659511622055529 -0.01723162292002684 0.03588302718527864 -0.03730594805595704 -0.08283558601869112 0.048312903502675815 0.018177641610395038
0.06496164408609886 0.024214033014993617 0.021142513277840592 0.08967810562609758 -0.02171916011403304 0.04778901295444925 0.027025100077785563 0.03977578008037588
0.046638638629406676 -0.006015145542736092 -0.08986834537440139 0.027148531754434747 0.024209769867925713 -0.02598328643200596 -0.06562880243872764 -0.08562796632751306
-0.08241829930518446 -0.05089692041108967 0.053405329011146904 -0.06565558602782408 -0.09335912282247834 -0.0027160909903093102 -0.09352611459172222 -0.05361023167085865
