ResNet-18实现CIFAR-10图像分类/sever copy/Experiment3/model2/conv4_weight.npy (npy, 294992 bytes, 1 tensors)

array f8 [64, 64, 3, 3]
00000000: 9948 1db4 93f0 b0bf 6327 5f1b ae86 b83f
00000010: 5ff1 e054 354b ad3f 82d2 d308 7199 703f
00000020: cd2b 32f7 4317 6b3f 6753 40b9 13c0 b8bf
00000030: 69ce 1851 a16b b1bf 74e9 4789 b45d 533f
00000040: 29a7 00f9 9f53 953f c55d 9806 79b3 ac3f
00000050: 3c6f a52a cc26 adbf 45bd 45c3 ce6f adbf
00000060: c75a b8b0 dcbc a0bf facc 23ad f2f2 ad3f
00000070: ff46 7166 9922 81bf 11bf 36b0 c29b b23f
00000080: c4f5 f756 7915 983f 3522 48fd 4df2 a13f
00000090: a099 11c3 cfac 98bf 04a9 cb5b b5eb b5bf
000000a0: ddd7 6692 ea93 9bbf d0d5 3464 2d39 b33f
000000b0: 1c39 7da0 8de7 b23f 0d74 a297 1a6f b53f
000000c0: 0a5d ffd4 c7e4 b13f 0ad2 5ad0 5dc2 b23f
000000d0: 175c 8bc5 783e ad3f 9ad6 9769 8704 ae3f
000000e0: e39c a3df 811b a8bf 7138 26e3 291c b2bf
000000f0: 22f2 9b55 5e9d 8cbf 048f 2442 ebe7 9ebf
00000100: 530c 2915 373d abbf d33d 88f3 e83a b03f
00000110: 01ab bc50 da23 a6bf 4f72 8f1c 4e79 b73f
00000120: d6c0 6e9f 883b b2bf 8184 786d 97bc b83f
00000130: ca00 cb62 5a6d b23f f19b 5723 7dc4 a0bf
00000140: 151a e1be 8294 b03f 5556 dc84 eaec 81bf
00000150: 5ef7 1f8e 21da b43f 2337 c6c9 d7ca b5bf
00000160: b571 6877 2616 963f 096c 66e1 cc89 a3bf
00000170: 5ea3 e8c9 c437 83bf acd7 8819 6848 8cbf
00000180: df29 bc6c d9a7 b33f 04cc d4a1 9909 b5bf
00000190: a66b 535d 95bc b3bf 53b5 ae68 1e18 ac3f
000001a0: 5333 496e 117c b5bf 3541 a2a8 7407 b5bf
000001b0: a1eb ddc3 9c2c b53f 1106 f459 1121 953f
000001c0: 048a 41d2 225b b53f 6adc c301 cd38 b7bf
000001d0: 6907 715e 9db5 a1bf c110 39b1 7cb6 b8bf
000001e0: 1c4e bc69 421c 8bbf 38cf 3eb0 2abe af3f
000001f0: f037 16a3 f36f b7bf e43f 398d 0ce2 a93f
00000200: 9ccd ef26 6eb2 a5bf 120a 9642 b1c1 723f
00000210: 8f30 f609 cf25 a23f 7357 e906 94b0 b03f
00000220: 774a ef29 6d41 b4bf 0098 3b54 9048 92bf
00000230: 32f3 80e6 ed30 b73f 621d 9a2b 858e a33f
00000240: edfe 8df5 420a b3bf 2430 7092 5542 b13f
00000250: a8c1 eb28 bbe9 71bf c2fc 5b65 299b b73f
00000260: 36c6 4c1e 8633 b2bf 9626 63d5 3e9a b63f
00000270: 1ccf aaea 6fb9 a23f 7138 b7ff 8c58 b83f
00000280: db4a 42f5 1306 b3bf 8672 eb06 e5cb a9bf
00000290: 2f7a 93dc c7a5 9cbf 3eaa c65e 2d55 abbf
000002a0: a297 7b6f db34 77bf 91a8 478c 89ec b6bf
000002b0: b525 3c48 31a8 b63f 5ce1 ccf7 8cfe a4bf
000002c0: af24 5496 61dd 93bf 51cc 507a f7d2 afbf
000002d0: 72c0 423b c428 b3bf 8dbc 4824 4e34 87bf
000002e0: 6d39 c78c 0c2d 9d3f e8c8 ffa5 7641 663f
000002f0: fa30 7d8c 9594 91bf 3343 a9ee 5cd0 b5bf
00000300: de6d 0cdf 17a7 8d3f f293 75d7 e527 a8bf
00000310: 3dcc bc3d a1bd a43f 7e81 381f cf0c a03f
00000320: 3350 81d0 b7c5 b03f 70c7 712c d779 aabf
00000330: 2961 6b20 0a24 aebf 3ced 725f 72c4 a93f
00000340: 3939 55c2 b670 9a3f ca70 0575 79ab b8bf
00000350: caca 706e e65d ab3f 2ade 8ef6 2831 a9bf
00000360: e035 e361 1e62 a5bf fe24 a20a a0b2 a9bf
00000370: 2019 d866 dde2 a03f 788c 9aa7 a72e b33f
00000380: c1c7 8ab7 8dba af3f 6dae a1bf 18e5 8dbf
00000390: e688 8ae4 38a4 743f e644 0fa7 6b95 abbf
000003a0: 9ab4 5571 c278 a23f cc85 a7d2 adcb b7bf
000003b0: 8abe a54f a9d8 b23f ad92 2f3f cfef a6bf
000003c0: 2cd9 054c f9e3 b03f 8242 99d9 0212 b4bf
000003d0: c086 fdf4 0ed2 a03f 6072 3953 a9fa 9fbf
000003e0: 1e65 7bce 1f0a b33f 7816 29eb a8a5 84bf
000003f0: c7f8 af88 4a18 b5bf db55 4315 5918 a73f
00000400: ae21 65b5 c9c5 b43f 0e63 ad63 ac3f a1bf
00000410: 3025 c4a5 f363 673f 8c51 9717 14c7 b33f
00000420: 0199 326e 6112 a83f 3116 692b 6014 9bbf
00000430: 6d20 25bf 89eb 8bbf 6808 1757 266c a33f
00000440: 64e7 1471 8626 b0bf 37e3 7e2a 0ac7 b13f
00000450: 616f 5be8 9910 8d3f 291b e6be de8e b5bf
00000460: f681 3f9f 0f2e b7bf 225b 7dc9 b0cf a43f
00000470: ca58 6b32 226a a13f f9c8 75b5 a98e afbf
00000480: f838 0ffa 4d7f abbf 5ab2 0a77 c7ea b43f
00000490: 7375 e542 2d71 82bf 41fb 6af0 0091 b0bf
000004a0: cd94 45fe c5b1 a73f eab9 e818 9e9c 78bf
000004b0: 664f afa0 06d2 ab3f ca44 57ab c55e 28bf
000004c0: ac9b d7f5 ce38 b6bf ffab 65ab 4ff1 973f
000004d0: 770e ddcb 154c a93f 06ef 318c 5387 a7bf
000004e0: d6ad 070d 6808 8a3f c221 6970 9098 a5bf
000004f0: 89ea 0799 d8b4 b53f c2bf 9897 d5ea b4bf
00000500: fc49 0d8b 7347 b13f 6647 7b44 819c acbf
00000510: 9c8a 2bda 78d5 a53f e15a f354 ac7a b6bf
00000520: cbd2 6e83 8d7f a9bf e12a f6a8 2397 b33f
00000530: 0404 8145 8066 b13f 2641 b6c0 4896 b43f
00000540: a653 3f74 6718 b13f 1b3c 4c79 9f0e a2bf
00000550: 2d08 c440 b14c b83f cfc1 d1a6 f47b 953f
00000560: 9633 b39d 229b 98bf 6e0b 318b b89e b4bf
00000570: 2425 ecf9 8e50 a5bf d9ab 0b43 139d aebf
00000580: 0ab3 72e3 d34b af3f d4b0 9346 c826 813f
00000590: 5a0a b031 6877 a9bf 694e 4359 85d6 843f
000005a0: 0c4f d723 a5d4 903f dff1 8184 b1b7 9b3f
000005b0: 3c0d 1e89 6f4b a5bf 3efc 7739 60f6 91bf
000005c0: e35f 7143 b497 a1bf 63d0 7f48 a7a7 b0bf
000005d0: 1ecb ca51 f050 b73f bac2 d2f6 07f0 a2bf
000005e0: 53e6 a6ec 0b98 833f 422f 0c82 5071 b1bf
000005f0: 59a2 c1ea f367 b4bf c29c 1f30 a0a9 91bf
00000600: 38ff 0271 f620 a43f 1a64 94b2 a92f a7bf
00000610: d517 7be9 46c0 a9bf c0f0 3a8b e3cd a93f
00000620: f621 e707 a291 82bf d024 657f 66d5 853f
00000630: c9b6 5651 4fc7 91bf 8d78 c1df e89e 92bf
00000640: a216 3592 b2e0 953f 5bcb 8c59 b642 b7bf
00000650: 1520 9948 e302 8d3f 9ddd f227 ec4a b7bf
00000660: a275 af5b 920d b6bf 947e 7528 46d4 a73f
00000670: 6a42 d27a 1376 ab3f c693 08b5 d750 afbf
00000680: 9326 5b17 3497 923f 575a 5ee7 631c af3f
00000690: 3409 80ec 3160 b4bf 1bb4 2d52 6856 ae3f
000006a0: df15 a479 6e1d a9bf f577 9704 631a 8ebf
000006b0: 4b28 a1e2 aaa6 92bf b141 7e9e 4396 b13f
000006c0: b512 1988 61c1 ac3f 1409 e5c6 c4f9 b33f
000006d0: cc8f 2889 9083 af3f 1b93 7483 76d1 b23f
000006e0: d54a 3047 c211 a93f 4f57 2fd1 1542 b1bf
000006f0: f642 6b38 762a 88bf 8032 8153 8240 b33f
00000700: 8e4e fa03 3e0b b83f b0ce 6c41 215b a03f
00000710: 0f25 c7cc b11f a7bf a456 0af5 95cd b13f
00000720: c658 96bb 4dec 7d3f 9fc1 ce75 7171 b1bf
00000730: b098 f9fa 5ebe b4bf 919f fa57 f459 a2bf
00000740: bc08 52c1 1979 913f 37b4 1f20 ca67 b6bf
00000750: 2b10 ddb4 0ebd ae3f 20a9 d8aa 3cea b33f
00000760: d5d6 000d e446 a83f c6f9 d378 aea0 b83f
00000770: aeab 6fe8 344e 993f f53f f9ba 3b35 a73f
00000780: 5ece f7ae c08b b63f 89e2 0d63 6a27 b1bf
00000790: 5949 86a6 dfd0 b5bf 6114 e3d9 2110 aebf
000007a0: e984 68c6 d243 af3f ee4b 81a4 57fa a83f
000007b0: 283f 0b11 7d21 a03f ada7 10cd 39f1 b3bf
000007c0: 08f3 4371 1c0e 8cbf abc4 59d5 010c a33f
000007d0: ec82 b7cb d8a1 883f 398a 4117 5e67 b53f
000007e0: 34c4 2aa3 4f75 b6bf e465 c383 a846 a03f
000007f0: 0c22 aca8 c2fc 9b3f 591a 4419 bc18 ae3f
-0.0661709131939311 0.09580505531553522 0.0572144189941095 0.004052583256669908 0.0033069922879511494 -0.09668086312042377 -0.06804855565933966 0.0011820090340949026
0.020826816151532732 0.05605676846988276 -0.05693662663062901 -0.05749364980408215 -0.0326909032557317 0.05849417079471127 -0.008366774023815802 0.07268921663375873
0.023519416745321 0.03505176274126535 -0.024096723824550303 -0.0856278752432083 -0.02693144339146857 0.0750912065166951 0.07384572189514355 0.08372656061187929
0.06989716482290845 0.07327829682146372 0.05711724673681589 0.05862830318430419 -0.047084864186951035 -0.07074224277150322 -0.01397203158148225 -0.030181575691258025
-0.053201409657525865 0.06339889474497022 -0.04324228511389628 0.09169471928857685 -0.0712209119071788 0.09662767813326135 0.07198109542787559 -0.03274909073279975
0.06476609382762206 -0.008752662829958494 0.08145341605992715 -0.08512638736848692 0.02156887153442862 -0.03816070796457189 -0.009383714114919502 -0.013809979705097529
0.07677992729819703 -0.08217773629148445 -0.0770963051649419 0.054871511725063236 -0.08392437880065744 -0.08214501492534938 0.08271198064714592 0.020633956065472307
0.08342187531665252 -0.09071046155064413 -0.034588735369210984 -0.0965345318482518 -0.013237494327348158 0.061997732176136855 -0.09155199748622045 0.05055274223252562
-0.04237694001485723 0.004579250738404388 0.035444707838082505 0.06519436997163357 -0.0791233279590332 -0.01785493387333048 0.09059035184413913 0.03819671780825719
-0.0743753289698323 0.06741843056823932 -0.0043732939654862815 0.0922113296946803 -0.0710986923193325 0.08829109868670523 0.03657102336492654 0.09510117762622074
-0.07431149232642602 -0.050383717627231525 -0.027976153219123553 -0.053384225673046334 -0.005665642900316488 -0.08954677271654733 0.08850391400860398 -0.04100456738382505
-0.019399189758620036 -0.06215642326460425 -0.0748407978705943 -0.011330233080199892 0.028492160885258345 0.0027167622902136597 -0.01716836614586812 -0.08521061731995587
0.014478861326600641 -0.04717939620130797 0.0405092609275006 0.031347725449680106 0.06551693764169002 -0.05171081941160949 -0.05886871000046973 0.05032689490459538
0.025820594416751084 -0.09636649233783881 0.05345077608253275 -0.049203186128064694 -0.0417642111293437 -0.05019092683603253 0.032980841449943066 0.07493064729583121
0.06197016587738303 -0.014597123478061047 0.0050394270298588 -0.05387436308195408 0.03607757218819892 -0.09295164483002977 0.07361849016683145 -0.04479835172950195
0.06597860437418451 -0.0783998280760532 0.0328526186047049 -0.03122963495694575 0.07437323370995272 -0.010081596066025642 -0.08240190350622632 0.045107635350784846
0.08114300421323747 -0.03368891445888354 0.0028552778950411625 0.07725644660906122 0.047015232755528664 -0.026444914483610475 -0.013632846971305146 0.03793449223623285
-0.0630878473356496 0.06944335496417585 0.01419182052943996 -0.0842112747251177 -0.09054658544437885 0.040647053333193975 0.03401285996885546 -0.06163530674065671
-0.053705631995045466 0.08170744568151048 -0.009004930118573928 -0.06471258039071605 0.04627817849067526 -0.006008737151701452 0.054336745371670145 -0.00018592989878966063
-0.08680432798392584 0.02338146670937746 0.04940860856598033 -0.045954333175329196 0.012711346528667383 -0.04217959758949831 0.08479074226480966 -0.0817082877263138
0.06749651093313241 -0.05588153801876565 0.04264428771218329 -0.08780934404363051 -0.049801275533729226 0.0765249526504408 0.06797029206155975 0.0804181547630419
0.06677862728186187 -0.03526781421361865 0.09492023307032645 0.02098066585716812 -0.024029293895000935 -0.08054688833457899 -0.04163023758708054 -0.05979213899066566
0.061125394358304844 0.008374752668224884 -0.04973912817515176 0.010174791132534016 0.016436176598133165 0.027067922318097955 -0.041591153610193804 -0.017541411883936535
-0.03436053584363188 -0.0650581886291675 0.09107877728346778 -0.03698754203776873 0.009567349586052354 -0.06813529181471004 -0.07971119386059779 -0.017248633324837177
0.039313985152601594 -0.04528551392485998 -0.05029508209331338 0.050398932214620995 -0.009066835275818069 0.010660935175695135 -0.017361869182130705 -0.018184317261664296
0.021364965604581905 -0.09086169897345313 0.014165664341945253 -0.09098697638807214 -0.08614458788311777 0.0465413975132353 0.05363522409709705 -0.06116365513688708
0.01815492050699292 0.06076347541163745 -0.07959281944207391 0.05925298693805577 -0.049052669857740254 -0.014698766305567526 -0.01821391113507102 0.06869909877264636
0.05616287981368854 0.07802991729571246 0.061550633185362 0.07350865086898432 0.048963614645023114 -0.06741463048032624 -0.011799739453097296 0.07520308054626845
0.09392154309380826 0.03194526599545833 -0.04516368508081758 0.06954323990279448 0.007305434840779229 -0.06813725591815122 -0.08102983119315144 -0.03584254812204713
0.017063524650901427 -0.08752120289109731 0.06003614385420549 0.07779292269757265 0.0474158540604727 0.09620180559065891 0.024712397276669122 0.045328013013772685
0.08806995650939473 -0.06700768392864566 -0.08521840873280463 -0.05871682915452748 0.06106432601905871 0.048784960585770296 0.03150549729400459 -0.07789956337424427
-0.013698789793573876 0.037200982373982804 0.012027448384232163 0.08360851352475941 -0.0877275250775405 0.03178907974661252 0.027331391854234652 0.058782461246711555
