ResNet-18实现CIFAR-10图像分类/sever copy/Experiment3/model2/conv2_weight.npy (npy, 294992 bytes, 1 tensors)

array f8 [64, 64, 3, 3]
0	0xbfb1eedbb821c7b8	-0.07005093808564211
1	0x3faa786214b9ac63	0.05169970038408491
2	0xbfb00a2c07da0099	-0.06265521232308159
3	0xbfb3badb0488d32f	-0.07706993923859494
4	0xbf9870205ac05b08	-0.023865228213334283
5	0x3fb7c0865fff3555	0.09278144687342167
6	0x3fb54a23b733d813	0.08316252920835181
7	0x3f8ecd2b5df4ffd2	0.015039767079201658
8	0x3fab4218aa1412de	0.05323865009453298
9	0xbfb770c3835c1d90	-0.09156438786532406
10	0xbf966bd2f203cd22	-0.02189569093839084
11	0x3fa0f10cb4f05705	0.03308906277395177
12	0xbfb47e688dd9d4f9	-0.08005383933216938
13	0x3f792b0f67e89508	0.006144581012027979
14	0x3fad7509b59fe654	0.057533553524944964
15	0xbfa309db1b494070	-0.037184569435908865
16	0x3fa7fc74e9078217	0.046847966619456276
17	0x3fa389a9ee311c1a	0.038159666372443904
18	0xbfa2d5f6fbe1aaae	-0.036788671729330744
19	0xbf4dfe397c3cd45d	-0.0009153156938511809
20	0x3fa039aae14766a4	0.03168996810900396
21	0xbfb104a5e33b2aec	-0.06647717282900673
22	0x3f9a40d71ffe4295	0.025637971236906216
23	0x3f93887b3298ccec	0.019075322116077695
24	0xbfa6821935337041	-0.04396132254052577
25	0x3fb16aba702f3e5e	0.06803479422455314
26	0xbfa96d668db899cd	-0.04966278533929689
27	0xbfb40dcf61749582	-0.07833572510988598
28	0xbfa0bee5cba77295	-0.03270643340122096
29	0xbfa51d7052035687	-0.04124022484908801
30	0x3fa356a6cb83430f	0.03777047380720521
31	0x3fb5287899fa7997	0.08264878997076718
32	0xbfb4d5dfa8bf7b8d	-0.08138845319579797
33	0x3fa7bb26faedb411	0.046349733477519924
34	0x3f98af58b1828547	0.024106393656102367
35	0xbfabcc42f6a1aec8	-0.054292767149346555
36	0xbfb2830075a495be	-0.07231142875806193
37	0x3fb25be28bce1291	0.07171455300528808
38	0x3f886bdd45c976fc	0.011924484913091053
39	0xbfaced4baa873acd	-0.05649792153018538
40	0xbfb128558781c970	-0.06702169950748327
41	0x3f82e5049b55133a	0.00922587966000209
42	0x3fb1d1d7b7d12878	0.06960819471092516
43	0xbfac94de352e062c	-0.05582327269713647
44	0x3fa25d59ad277227	0.03586845625588735
45	0x3fb2c885726b74d3	0.07337221187067948
46	0xbfb801ec0a25a25e	-0.09377932784776408
47	0xbf7f6eb681b188f4	-0.007673943439927767
48	0xbfb402d40fd393f6	-0.07816815744770608
49	0xbf7c619f5903d5ad	-0.006929037525187293
50	0x3fad1f969911b9c0	0.05688162439843181
51	0xbfac9c9c8411f663	-0.05588235008415834
52	0xbfb88b0071d1b226	-0.09587099818026754
53	0xbf972487d04efc28	-0.022600290383476246
54	0x3fb2ab8613aee309	0.0729297445349283
55	0xbfb2ed6c4b14d7eb	-0.0739352877907035
56	0xbfb648d9a6bc8908	-0.08704910584177494
57	0xbf7528e668abcadf	-0.005165958437589351
58	0x3fb611e54a3acd92	0.08621056616066472
59	0xbf9f1fea0224ddc3	-0.030395180111751473
60	0x3f9e45930ea6a3b9	0.02956228043482032
61	0xbfa61a363ddae36a	-0.04316873078409496
62	0x3fa23bec97cbe84d	0.0356134352968672
63	0x3fa1ebdfd80c74b9	0.03500270378411003
64	0x3fb6c4ac18e3384d	0.08893848044974213
65	0xbf999604afbfc409	-0.02498633692443167
66	0xbfb879f9b7493fe6	-0.09561119770773949
67	0x3fb29c38826e56e1	0.07269623932219417
68	0xbfa2c3ac8fc5f3cc	-0.03664912467045375
69	0xbf86ae6a4180c7b7	-0.011074857830042235
70	0xbfa056ad46ed946d	-0.03191129198857188
71	0x3f8154e0429ee0d2	0.008462669404125132
72	0xbf8ebd8b13322b00	-0.015009962580980751
73	0x3fa6e61601a47713	0.044724166584485435
74	0x3fb26daa902ef760	0.07198587436775261
75	0xbfb5b2134551744d	-0.0847484630807724
76	0x3f80a04ea5078fb0	0.008118261729528203
77	0xbfb530733e0efd82	-0.08277054085828264
78	0x3fb61a54e0c0412b	0.08633928763470482
79	0x3f96aa44e726549d	0.022133900268802454
80	0x3fb52458dc8a21e6	0.08258586296336254
81	0x3f9735d93f62afab	0.022666353696578472
82	0xbfb4e464bb8a7b45	-0.08161000803600611
83	0xbf8b9b8a1ca92766	-0.013480261802346138
84	0x3fa2bb009856f870	0.036582964512022254
85	0x3fab1bcaac61e3e4	0.05294640878941673
86	0xbfb349eaaec3c407	-0.07534662977901983
87	0x3f9cd3c61f108b7b	0.028151603361162608
88	0x3fb632becdf492d4	0.08671181228835262
89	0xbfae5a7cdaa005e7	-0.05928411644709879
90	0x3fb6b1061611a540	0.08863866843025381
91	0xbf8ff3c2593bd667	-0.015601652477452889
92	0x3fa851b1f9251c46	0.04749828497238488
93	0x3fa8bc5a99aebfae	0.04831202627190066
94	0x3fb7ace025706d7b	0.09248162187616586
95	0x3fac9617515bcff8	0.05583260410449492
96	0x3faa2e71c9487b4e	0.05113559324330784
97	0xbfb2cf1b399cb651	-0.07347269207522202
98	0x3fa705e932df9d6b	0.044966971836226964
99	0xbf69ff1f52a3a7f5	-0.003173409631121333
100	0xbf95d0df2c09a451	-0.021304595053525614
101	0x3f9312c3a2afb7ae	0.018626267246808652
102	0x3fafcee22a7e8d20	0.06212527054528949
103	0x3fa28571739462cd	0.03617434059032618
104	0xbfb4abf0e86282e0	-0.08074861215073836
105	0xbfb8088ae059a599	-0.09388034798907653
106	0x3fb1bc205b6125a4	0.0692768309683261
107	0xbfae9f4a393e76b7	-0.059809035766404
108	0xbf9a3e1900970959	-0.025627508793840324
109	0x3fa35a2c11021990	0.03779733379001293
110	0xbfb2ba786c5adc11	-0.07315781255134392
111	0x3fb00700caea66aa	0.06260685876841401
112	0xbfb68d3c454bab09	-0.08809258167063318
113	0xbfa60bb063519b80	-0.043057930110811604
114	0xbfb3a01323c4ab76	-0.07666129706619337
115	0x3fa4f948c191d8df	0.04096438753997388
116	0x3fa54ac9c9740da3	0.04158621391436703
117	0xbf955031c25d030d	-0.020813729751583177
118	0xbfb3e99ce8da5737	-0.07778340039143648
119	0x3fb376abee76e824	0.07602953502546989
120	0x3fb60878bcff419a	0.08606676687418827
121	0xbf9aaa1ca81ca8ef	-0.026039550553073217
122	0x3fb726dc45091eca	0.09043671307983484
123	0xbfb64a774ca51a57	-0.08707376118864239
124	0xbfacfb8d15eb755b	-0.056606682706596266
125	0x3fa859b481bddfee	0.04755939563523258
126	0xbf94c893375eb32c	-0.020296383146774108
127	0x3f7775478a0a2f31	0.005727080774373936
128	0x3fa96104358a930f	0.04956830171184922
129	0xbfb29794a5831729	-0.07262543717214655
130	0xbfa0a8351934d4a6	-0.032533320738744195
131	0x3fadd67882c7e185	0.05827690693326119
132	0x3f8a2f7723af6e69	0.012785845543411516
133	0xbfb59395574f0a5c	-0.08428319341241192
134	0xbfb78f53c8ed60be	-0.09203075080347653
135	0x3fa4ac9f5e3bec9c	0.04037950539892529
136	0x3f9afd5abae62956	0.02635709539166816
137	0xbfafbfe26a022542	-0.06201083702132816
138	0x3faff5a9ae1fcf61	0.062421133523371315
139	0xbf9b40637b9b9f48	-0.026612810534884873
140	0x3f99f2b7106b9dff	0.02533994710657161
141	0xbfa5b4a31873accf	-0.04239377664074483
142	0x3fb8af98f17d8ca0	0.09642940421831492
143	0xbfb2fdffaaecebfe	-0.07418821261391881
144	0x3fa0d579f29b6d97	0.03287869535935355
145	0x3fb64362044706bf	0.08696568111829615
146	0x3fb1ef4f8101e63f	0.07005783938975528
147	0xbfa6adc889232384	-0.044294611683262125
148	0xbfaf4a43b3c97433	-0.06111346788086571
149	0x3f94d92e335a37e9	0.020359727749159538
150	0xbfa2d4f34ac462f9	-0.03678093230900532
151	0xbfa2d1bfce5608f5	-0.03675650972128778
152	0x3fa15e6a762486ba	0.0339234608857288
153	0xbfb105d223a92e52	-0.06649506922365703
154	0x3fb0a5c950e0a19f	0.06502969955966485
155	0xbfab86b5f9b798a3	-0.05376213715844471
156	0xbfa575863090014a	-0.04191226332477756
157	0x3fb245dd05271ff3	0.07137853027154488
158	0xbfa11879a451416d	-0.033389855678822446
159	0x3fafc9ea5b31165c	0.062087367660336595
160	0x3fb56c4a3f7e839d	0.08368362474585785
161	0xbf8038ebe4e3cd88	-0.007921069071449308
162	0x3f929d05a0b78732	0.0181771163314643
163	0x3fa594e0802b3b40	0.04215146603166042
164	0xbfb1d6729a29edfd	-0.0696784616829333
165	0xbf954595730646bf	-0.02077325357965409
166	0x3f98a18212401f80	0.024053604473038614
167	0x3f9e792a40c78685	0.029759082988567904
168	0x3fb785cdc33cba37	0.09188543335469822
169	0x3f8107f1b9543d0a	0.008315933674138982
170	0xbfa8925af9b0bf32	-0.04799160287836769
171	0x3f7c2dd22cb21f68	0.0068796358056103304
172	0x3fade09fda1dd048	0.05835437333635746
173	0x3f94f67adcf629ce	0.020471496330665855
174	0x3fab4eb9b2ba173d	0.053335002009630796
175	0xbf60d7df40e544e8	-0.0020560608310594593
176	0x3f917e1b51ae7554	0.017082621441308746
177	0x3fb54f7045af227c	0.08324338628075084
178	0x3fb63485061d5385	0.08673888587266106
179	0xbfb620f7590a78c1	-0.08644052432871076
180	0x3fb5bebd88a6ede3	0.08494171701652635
181	0x3f4d352e164762b2	0.0008913493189153991
182	0xbf72fd723d1921f7	-0.004636236424240262
183	0xbf901af657d76245	-0.015727852927599057
184	0xbfa40007811ce8a0	-0.03906272364697938
185	0xbfb3424309f605f0	-0.07522982590855753
186	0xbf9141673cd3d304	-0.01685105618249151
187	0x3fb6815a4d093c48	0.08791126614345146
188	0xbfb03d2787ccae14	-0.063433142332251
189	0xbfb7f7a0805a3aa4	-0.0936222375259868
190	0x3fb3581a43ad8b4f	0.07556308891575479
191	0xbf96dc8678b4120e	-0.022325612179900083
192	0x3fa9ead559791a0c	0.05061976163101542
193	0x3f9d9682ba1de5e1	0.02889446507422189
194	0x3fa58958388c0399	0.04206348123808041
195	0x3fb547f242e6c734	0.08312906392418712
196	0x3fb0a1a0cfa48de6	0.06496625012783105
197	0xbfb3b009d3e96ae3	-0.07690488265636079
198	0x3f48151e112cc4d7	0.0007349392711601077
199	0x3fb456d95a2df56e	0.07945021106384839
200	0x3fb5b3721914d026	0.08476937401138737
201	0x3f4e87fd87676c73	0.0009317386564434829
202	0x3f82245fde5d4e5d	0.008858441327595995
203	0x3fa76f2a0f07c9a4	0.04576999124028028
204	0x3f500668e1145e62	0.0009780906878570574
205	0x3fb221eb4078e1dd	0.0708300621416877
206	0x3f9b3cb76452ecd4	0.026598802088057052
207	0x3fabcf58a4e4c834	0.054316301468489675
208	0x3fa11f964d29ea1e	0.0334441155618672
209	0x3f6d5d0d72348462	0.003584409963551625
210	0xbfb0fdf527cd2b75	-0.06637508603777838
211	0x3fabaf281a7c8b5a	0.054070714219298835
212	0x3f9ff66f648435ad	0.031213512907063357
213	0x3faa39013e23ac5a	0.051216162524575906
214	0x3fb543592db91b4b	0.08305890432630496
215	0x3fb021191fc47b0a	0.06300503755162992
216	0x3f81467e146ac5a0	0.008435235021667264
217	0xbfa9a1ac22ec330e	-0.05006158758451394
218	0x3f8ca5c453a7f8d7	0.013988050272925196
219	0xbfb512f6f9d1a07e	-0.08232062911122459
220	0x3fadf3c7bbd7a636	0.05850052040098001
221	0x3fada73347b0abd9	0.05791626215098917
222	0x3fa8a5654d2e0439	0.04813686911712307
223	0xbfb43f52ad92940c	-0.07909123170482263
224	0xbf9a66ac3d710494	-0.0257822906971837
225	0x3fb281b83dd4a658	0.07229186543977428
226	0x3fb03d7ffc95f1fd	0.0634384147323956
227	0x3fb39137e69d965f	0.07643460636389808
228	0x3fb5f0673526def8	0.08569951102878892
229	0x3f8c3dbb06ea2e8e	0.013789616726419564
230	0xbfa51a34da4a12c6	-0.04121556439080147
231	0xbf9cc14927e705df	-0.028081076679660085
232	0xbfb09fbdb4556bc3	-0.0649374547260058
233	0xbfa6ab24470db92a	-0.04427445762017819
234	0x3f9e00442e19ed47	0.02929789096240867
235	0xbfa5670a1dddea69	-0.04180175413690252
236	0x3f9cfdd4f3411f59	0.028312041613644954
237	0xbfac83f6439b8b09	-0.0556942899254605
238	0x3faf279f8c5b7a90	0.06084917629572317
239	0xbfb0c91701da6f26	-0.0655683879398877
240	0xbfb838899b2a6436	-0.0946126941511388
241	0xbfa935b1526243f5	-0.04923776751196122
242	0xbf831bc1339f2a9c	-0.009330281627531627
243	0x3f9e66decff5a1c5	0.029689294283714824
244	0x3fa54e9e7534a6c6	0.04161544018491052
245	0xbfb6ce09c3cefe29	-0.08908139257891236
246	0xbfa0a573257fbc42	-0.03251228173018507
247	0x3fa7ed5d6f714ebd	0.046732826093515346
248	0xbfb514d80c3c0ed2	-0.08234930323311154
249	0x3fa792eeac869942	0.04604287963893451
250	0x3fb2feae5a3cd997	0.07419862464016656
251	0x3faf6d0ef1e9acf8	0.061378924398775625
252	0x3fb6445c79c10ede	0.08698060963166251
253	0x3fad20479a2b606f	0.056886899537574524
254	0xbfb3d3d52e03e724	-0.07745106099528393
255	0xbfb7c9430604867f	-0.09291476151386212
