ResNet-18实现CIFAR-10图像分类/sever copy/Experiment3/model2/conv8_weight.npy (npy, 65616 bytes, 1 tensors)

array f8 [128, 64, 1, 1]
00000000: afae 2dda f089 773f 2a86 de96 0e37 c1bf
00000010: edd7 63e3 545a 98bf e0bc 2365 f776 c5bf
00000020: 677c ee4d f33e bc3f db1b 5c21 45fa c43f
00000030: 627b de95 2c7f c23f f659 d18d 6713 afbf
00000040: 8dd1 c03b eaa1 bdbf 7589 dd23 d1da c4bf
00000050: a081 e84a 90d5 81bf 63a5 1059 e58b c03f
00000060: 86fc 7bae 9a86 c53f 12e2 af37 73ce b1bf
00000070: 4cfb 4f5d 2fd0 8a3f 9784 3fcc 4da7 c4bf
00000080: f1e0 217a 80b8 c5bf c5de 69eb 440b c1bf
00000090: 89c9 9e70 9409 babf 8071 0c0d bd21 b03f
000000a0: 2dcf ac5b 1cf9 c0bf 462f 75f1 0a82 b9bf
000000b0: ab60 6cc8 806d c63f 1e1c b4ea 1b4b 873f
000000c0: 057f ac15 1223 bb3f cfca d59f 68bd b7bf
000000d0: 4489 c546 6f54 c0bf 4f03 4626 1a5a 9cbf
000000e0: f3b2 1466 5db8 c5bf c562 967a 22ea b73f
000000f0: 8809 ce95 3298 aa3f 4b1c c91a 3228 96bf
00000100: 86f1 f6a5 b945 9fbf a286 fe5a 2de7 b9bf
00000110: a1b8 b24b f9ba c23f 4dbd 5af3 5037 b63f
00000120: fd17 f2b8 ebe1 b2bf 61e0 70f5 9396 a0bf
00000130: 3493 f995 eee9 c33f 86a3 0be6 b980 c53f
00000140: 5077 57c7 e3d6 b3bf f2f0 47ae 8257 c53f
00000150: 0fe8 168a 2633 bbbf a41a 9b8c fe0e c5bf
00000160: 7b6c 1e15 b3bd 9ebf c5df 9122 82fc 6abf
00000170: 0b30 15b5 12a1 bfbf e399 7bd2 a610 be3f
00000180: d1ea 4cc6 e536 c3bf 220b 38d2 318b bf3f
00000190: 9d63 82c9 c6eb 9c3f 8890 127e b134 c43f
000001a0: 3f44 dfce b13f 973f 8371 2b1a 7002 c63f
000001b0: 2579 e0e7 8ad9 b33f 8c90 affb 0c2f ad3f
000001c0: 41cf 8f31 e573 943f cff2 5dee 6fe7 bd3f
000001d0: 48b7 89b4 bf6c b73f 4914 0f3a c18e c33f
000001e0: af07 ee19 2354 74bf f099 d55f 2231 a0bf
000001f0: 0487 a0fe 9b3a c33f 73e4 b07c 8f49 ae3f
00000200: de42 5e7e 9161 b13f 5b2b 888c 28a5 9bbf
00000210: f787 4c8c 279a ac3f f181 7ee3 6422 ba3f
00000220: 340f f89f c4b7 c5bf 5920 6e88 1103 a1bf
00000230: cdaa 8a34 db17 c53f 57e7 a547 87d8 b7bf
00000240: 5dfe efde c105 81bf b560 d460 6cbd c6bf
00000250: 4188 fdef 938d a83f 2833 d57e ef06 a23f
00000260: 0bbf 8436 6aa0 b4bf ede6 5841 35bc a2bf
00000270: 1d9a f62d 6b41 c2bf be6e 244d 7c62 95bf
00000280: ebf6 4db4 2e03 77bf 69f6 edb8 e7fc af3f
00000290: 1428 2af5 e5b4 9f3f c6a4 c687 8be1 bdbf
000002a0: bfd7 7e35 5a29 a1bf 21b9 5e53 3e4a bd3f
000002b0: 362c 5b50 d4d5 c13f a36f b603 e10f b4bf
000002c0: 5e98 c3b4 233d 9abf 3e85 cf35 a299 a8bf
000002d0: b11b 67a6 55e6 c03f 93f0 ecbf a194 c0bf
000002e0: 59f3 8d03 a244 afbf d349 7e13 3c92 bc3f
000002f0: 6916 d4f8 1b7e b9bf 74a8 5930 eebd a2bf
00000300: 338d 7337 27db a03f 118f 809b bcbb b6bf
00000310: d0e3 28e0 1c40 c1bf c26f 5a1a 1a79 c3bf
00000320: bf58 ea2c 2811 a4bf 762f e2f8 52bd 823f
00000330: 7206 949e e768 913f 27e0 c93d f71e c33f
00000340: f634 92e7 f88b c3bf 6a38 37c3 0498 ac3f
00000350: 4d3f 8950 062f bdbf 1ed2 2676 3480 b5bf
00000360: b56e f61a 634c afbf 84b1 f357 fa56 b3bf
00000370: b206 5ec2 1c14 c0bf 4e94 19d3 2bcd b9bf
00000380: 4bcf b152 1765 c63f ff5b 7cc0 6560 a03f
00000390: c0a7 de92 ae63 bb3f 3b7f 645d ed86 b3bf
000003a0: f5e0 c4ee 20a5 b5bf 5000 d877 5dd4 c13f
000003b0: a83c 1088 a785 9f3f 9ef0 1dd7 b104 bc3f
000003c0: 6a9c ce28 ec92 babf ea11 3a80 150b bdbf
000003d0: d238 cf81 f08b a9bf 6495 fd35 6dc5 bf3f
000003e0: 901b 7eec 7f65 ad3f 4bfe fc2c 9b67 a8bf
000003f0: 203a 9a1d bf06 a0bf a9df 182c 8ac5 c23f
00000400: 7098 a3d0 f184 a4bf 1ae9 c72e 8f5f b63f
00000410: a5b3 be06 f5b3 7b3f dd21 c60c 518c c13f
00000420: ff7d e099 6729 b73f 4b0f 71cf 4e65 c3bf
00000430: abe6 ab8c 90b8 b53f 097e b6ed 9cd9 95bf
00000440: 94f9 4c2b 4ad8 bebf 51a1 33ab 3b89 c0bf
00000450: d65b 710d 7616 b5bf 0ae6 e480 dd58 913f
00000460: 3cae 9d40 682a c3bf 7d46 0151 cec0 bebf
00000470: e374 a9b9 2f4c c03f c04a a9b1 4b5c c13f
00000480: 2538 4deb 33c8 843f 4154 32d6 ee43 a23f
00000490: 9004 fb7a 34d5 9cbf b212 e9e9 db13 c03f
000004a0: 2af3 10cd 224e c53f 0c53 1e99 6dae c33f
000004b0: c417 36f7 b6e0 bbbf b3bd bc61 9b09 bb3f
000004c0: 7e8b 8d52 003d bebf 5647 f98a 6306 933f
000004d0: 2ad1 0a0a e4d9 bfbf 4b65 7b5b 9a1c aabf
000004e0: 6d49 5edb 1a17 98bf a052 e304 298d b43f
000004f0: 395d 3d3d e8e3 ac3f 5dbe 487a 9c2b c13f
00000500: 7563 99b7 1345 b13f 2742 325e 2cda babf
00000510: 4fca a1b4 c5ba c53f 509d 3fb4 9545 b4bf
00000520: 095a 2f67 cbb8 bf3f 4237 aaaa b115 b73f
00000530: 36fd 6ab8 0cb9 c53f 3fa7 23f7 0be7 adbf
00000540: 4a54 fc73 fb16 b2bf 29fc ec2a 56b5 bcbf
00000550: 4e59 6649 a435 a53f ada7 d7c2 1a74 bd3f
00000560: 14bd d2bd c1a2 a63f 733f 536b 3c83 bebf
00000570: 281a 1a25 269e b33f 90f2 50f8 6b68 c0bf
00000580: 53bb 28b3 eed3 b0bf 2278 ee6e 5f39 893f
00000590: 56e0 db98 5427 b2bf 8d40 0821 f5aa bd3f
000005a0: 0ce4 c749 990c c13f 87f0 7caf 84c8 bc3f
000005b0: abcc 3d42 521f c53f 056e 1ea5 ff1c b03f
000005c0: d979 f142 8470 c53f eeb4 fa17 b835 b73f
000005d0: 3f14 258d df3c a8bf d3f6 99d9 cdd8 933f
000005e0: f0cb 9b2a 79dc 923f 1382 9bd5 667c 8a3f
000005f0: 2700 1abb 0e34 ad3f f87b c75d 24fa babf
00000600: 7969 b0f4 57c8 b4bf df6f 21bc 59b5 c63f
00000610: dc0f c58a d481 a33f 79cd f49a 86bc b73f
00000620: 9b5f bc51 ab2f c1bf 723e 6701 0645 a1bf
00000630: f23a 24a1 3f00 a6bf fb02 cd97 bb05 b9bf
00000640: 0e7e 77be d83e bdbf 5dc2 a4b9 3603 c6bf
00000650: a112 5ea2 6f75 b43f 3784 686c b6ff bb3f
00000660: 4ef5 ad7a 208c b7bf a6f1 2467 25a8 bcbf
00000670: 8f1a 1355 b05f b0bf cdee 33ef f6f7 a4bf
00000680: 5e2e 7d43 1d81 9cbf 3454 8593 7417 a2bf
00000690: ad99 c7f0 1d68 c4bf 5724 c8ec 54c7 5cbf
000006a0: f692 36fb 52e8 b23f 5de0 dde8 93b0 bb3f
000006b0: a0cb 727d 607a 92bf 5345 6e5b bba8 c03f
000006c0: 49b7 179a 7418 b13f 9fde 4b03 1b02 c03f
000006d0: b190 ec64 9144 c13f b2b8 dc0c 2257 c13f
000006e0: 4d98 0a3a 705e a93f eec7 9343 5ae9 b1bf
000006f0: c86f d98e 4d06 c1bf 3c4c 99e5 9f2d c5bf
00000700: e924 6fde 3ec8 c43f 39c8 56c3 a1a8 94bf
00000710: f145 f093 5d5c b33f f42d d36b fad2 b8bf
00000720: e3d3 3963 66da a53f 1f6e 6ed7 fd86 b13f
00000730: eb47 c087 320d c2bf efd8 2256 dd4c be3f
00000740: 21ac bf7d 84cc aa3f 17d5 ff14 d819 c43f
00000750: 79b7 02b4 2307 c63f 2ec9 a86a 686a a63f
00000760: 0e45 8cd0 b15a 9a3f 9882 816f 6093 b73f
00000770: 820c 0919 b40e c53f 16f6 415d a339 bfbf
00000780: 77f1 4886 d822 b7bf cf40 0a3b ee0c b53f
00000790: 55f4 8e92 e294 c1bf fa5f 8981 233c b9bf
000007a0: 8729 ab57 6bcb b5bf d9b8 e600 a700 bc3f
000007b0: a162 476d 5faa be3f 1467 7ded c546 c43f
000007c0: ab44 cb82 1c94 c53f 6f3a ac7e 3329 aebf
000007d0: a063 0a3e f3fe c33f bd8d 598d 81b5 c43f
000007e0: 3e1d f213 c72e a43f 9b43 3e46 28ac c23f
000007f0: 2a89 490c 9180 c53f 3f22 adc2 3187 c1bf
0.005746785000933548 -0.13449270598089075 -0.023782087687287335 -0.16769306601006573 0.11033554699541669 0.16388763550659644 0.14450604741883938 -0.06069491964506206
-0.11575187643831537 -0.16292776347388452 -0.008708121572511385 0.12926928376081567 0.1681702949499348 -0.0695564280466743 0.013092393908662146 -0.16135570977261146
-0.1696930500363645 -0.13315640921404373 -0.1017086768104375 0.06301480835504059 -0.13260225750274782 -0.0996405448433367 0.17521676813408268 0.011373727893909499
0.10600388554712133 -0.09273389723038437 -0.1275767417492465 -0.0276874624119075 -0.16968886837403083 0.093416361740661 0.05194242552444722 -0.021637709507811114
-0.030539417986561478 -0.10118373366870029 0.14633098789403667 0.086781558430393 -0.07375977769160609 -0.03239881869416262 0.1555765373515442 0.16799091084183376
-0.07749770752658702 0.16673310766044086 -0.10624924537015111 -0.16452009072800877 -0.030020521320335263 -0.0032942334842651377 -0.12355153008428503 0.11744158400288245
-0.15011284048690368 0.12321769125268792 0.028243166016725153 0.15785807281384145 0.02270391297480878 0.17194939878289625 0.07753818665557739 0.056999593470920734
0.019973355436334165 0.1168127018881464 0.09150312574066988 0.15279403052241694 -0.004963051905066892 -0.03162486476758264 0.150226115541095 0.05915497204882394
0.0678950246349461 -0.026997216775309734 0.055863605381333 0.10208731226021663 -0.16967065630898903 -0.03322653570563778 0.1647905355979077 -0.09314771174640889
-0.008311762443553744 -0.17765574195869296 0.04795515350885227 0.03520916388752077 -0.08057273703593297 -0.03659216330238544 -0.1426214193754313 -0.02088350506629299
-0.005618269385079459 0.06247638828697861 0.030963509644188106 -0.11672279419748852 -0.03351861861248961 0.11441411528969471 0.13933805392875492 -0.07836729374542854
-0.02562385359569707 -0.0480471316038895 0.13202925324568818 -0.12953588363041443 -0.06107050221814942 0.11160636402045236 -0.09958052468217606 -0.036605304147841716
0.032922006148306336 -0.08880213543357864 -0.13476906724261406 -0.15213323866634992 -0.03919339702876944 0.009150169582674766 0.01700174241432823 0.14938250081081714
-0.15270911509688972 0.05584730990413862 -0.11399878946508331 -0.08398750195085156 -0.06112966255315425 -0.07554592749847272 -0.12561377993192974 -0.1007869139080679
0.17496005571194426 0.03198545431785504 0.10698977552115618 -0.07627757577983811 -0.08455091313669867 0.13929336883302534 0.030783288650181234 0.10944663526419382
-0.10380435940042934 -0.11345037823236451 -0.04989577850902695 0.12410624092225003 0.057415006273962566 -0.04766545223401105 -0.031301472056942226 0.1466534343069246
-0.040076786726601976 0.08739561931716758 0.006763417371911472 0.13709462283828958 0.09047553545723729 -0.1515291703127509 0.08484748300898086 -0.021337940224496452
-0.12048781926293933 -0.1291880212732033 -0.08237397983735603 0.01694055651862495 -0.14973166613650501 -0.12012948491726579 0.12732502522968678 0.1356291406142045
0.01014748155435192 0.035674537322087925 -0.02815706253636968 0.12560604974182393 0.16644701970099024 0.15376062370764776 -0.10889762435371525 0.10561534057773407
-0.11811830535365961 0.01857905898788855 -0.12441849942371577 -0.05099947325443085 -0.023525638236216496 0.0802789341863197 0.05642629382662751 0.13414340945154182
0.06746028168107705 -0.10489156055178538 0.169762337874618 -0.07918677950475694 0.12391349095501182 0.09017477432845758 0.16970976834088852 -0.05840337173306275
-0.07066318113022976 -0.11214197681418682 0.04142487903588919 0.1150528646172961 0.044210485860611964 -0.11919000263446637 0.07663191228685007 -0.12818669915022385
-0.06573383211137455 0.012316461155759188 -0.07091263515383281 0.1158898549695115 0.1331969843156745 0.11243466648460486 0.16501835092967573 0.06294248372289964
0.1674962355491079 0.09066343865807244 -0.04733942602118945 0.019381729513489553 0.018419163919087767 0.012932589906484748 0.05703779252962731 -0.10537936486751664
-0.08118200038771829 0.17740937887253858 0.038099901141805254 0.09272042544471572 -0.13426724902160178 -0.0337297321999558 -0.04297064630565285 -0.09774372535776969
-0.11424021387164648 -0.1719730764830442 0.07991693224000553 0.1093706144970533 -0.09198191638093542 -0.1119407059495133 -0.06396009518639743 -0.04095431966740435
-0.02783628200931642 -0.035335200317299004 -0.15942739731617675 -0.0017565087647446653 0.07385748513349796 0.10816311297628674 -0.018044955879939928 0.13014928783790455
0.0667794109537826 0.12506425534205776 0.1349050276559232 0.13547158840214518 0.0495486327029516 -0.06996692800365142 -0.13300485110346316 -0.16545485220794542
0.16236101017992802 -0.020174529597803057 0.07562813627034594 -0.09696927196926436 0.04268188439610989 0.0684660578685272 -0.1410277521941333 0.11836036065037424
0.05234159503000791 0.1570386984382501 0.17209287919598262 0.043780577678619856 0.02573659739852468 0.09209254000007616 0.1645112154238611 -0.12197323824690218
-0.09037545469704421 0.08222855512053971 -0.137356111108519 -0.09857389366641192 -0.0851351822886156 0.10938495418551798 0.11978718202534334 0.15840982528862269
0.16858250032831754 -0.058908089840873916 0.15621796159100843 0.16178912546011573 0.03941938513258457 0.14587882451862985 0.16798604106868115 -0.13693830495528123
