ResNet-18实现CIFAR-10图像分类/sever copy/Experiment3/model2/conv13_weight.npy (npy, 262240 bytes, 1 tensors)

array f8 [256, 128, 1, 1]
00000000: 3aaf b3e4 ee7b b2bf 617a 38d6 4ba0 9ebf
00000010: aa80 5622 f04e b4bf 48b4 f1fd 6e42 ba3f
00000020: d32d ed3c 08ea bdbf e315 80ac 0528 bdbf
00000030: 10ae cae1 1fbe b9bf 1eba 6c40 260d 55bf
00000040: bb6f ba87 55a4 50bf a015 aaf9 e48f 8a3f
00000050: 3efd 8c19 0ad1 6abf 7913 0642 d5d1 b13f
00000060: c4ed cff8 bd83 aebf 6227 f780 1b5e bbbf
00000070: afed 4a89 bde4 86bf 3184 2e9f b326 ae3f
00000080: 93d4 a7fe 2c29 983f 1634 13ce 29e7 a3bf
00000090: 0cad 6eef 83a8 b8bf 30d9 4f5a 92fa b9bf
000000a0: 92f6 ca19 a012 703f 2ba3 b44e 9a60 babf
000000b0: 5c6a 8d34 ac7d 653f 9c0c 2164 6f48 b9bf
000000c0: b0e9 41f4 cc38 a0bf bf05 665b c43e a73f
000000d0: 7d54 326c 3890 b0bf 51ed d4dc 10a2 b43f
000000e0: 79a3 42c8 a060 82bf 48c7 cfa1 bbab 9fbf
000000f0: 7f3a 028e 7f2b b03f 5527 a967 f325 bf3f
00000100: 3a14 3628 6407 b73f 2d6e e0be c977 babf
00000110: 4f16 1694 c5e6 b23f bf17 4ad2 a604 a8bf
00000120: 3384 317e c8d6 b03f eda0 35b4 03ef b6bf
00000130: 448d 6380 26c6 b53f 8876 9688 4b14 adbf
00000140: 5d3e edea a4d9 bebf 8984 cdb8 57c5 99bf
00000150: 9fed 83cb 52a3 a0bf ac12 fc25 5102 b03f
00000160: eda1 ae88 3122 a13f e729 a934 0037 82bf
00000170: 0095 bc11 9d50 a8bf 3ff2 a24f 6c92 bc3f
00000180: 5653 4efb 52c5 b5bf e5ac 445e a02f bb3f
00000190: be12 9e6e 7c55 a0bf b291 8e35 d3cb ad3f
000001a0: f34e 9f99 07c0 bf3f f467 9969 9ac0 b0bf
000001b0: 7210 9680 3f61 ad3f 0b47 3046 2447 7ebf
000001c0: ba33 b0b5 5e6e ba3f f0ad f0cc 9cc9 943f
000001d0: 6a27 a6ed c893 a4bf fa27 e4be b2ca b5bf
000001e0: c004 04a3 a9e3 b1bf 78fe ba6c 8fd1 bd3f
000001f0: 2507 9f8b 3e89 a7bf 9a60 4f89 4a97 b23f
00000200: 5f5a a2d8 5891 953f 338a d4c5 0569 b13f
00000210: 1ac4 fa1f 41f3 bdbf 0df7 99d1 4a0b ba3f
00000220: b0f7 5fe7 b4cb bcbf e915 66d4 cddc 903f
00000230: 425e b81b 9901 a0bf df5d 849e 40f3 a13f
00000240: 1b5d 352e f026 b23f 5bac a8a0 7be7 bb3f
00000250: 04b3 f208 36f9 a3bf 49ae 9ad2 b700 a13f
00000260: dcf6 b8f4 0504 b9bf 0867 ccb0 d483 a13f
00000270: 3bba c66c 6193 bf3f 102b aeb2 fe78 b8bf
00000280: 7a3d 1de3 0349 b93f 1b3e 0b51 0a3f b13f
00000290: c5b9 7f2a 505d b9bf 6eb5 18a3 53c4 b13f
000002a0: eb4f 8067 2130 a7bf d9bb 4b2d 7c82 b6bf
000002b0: 1e49 f55b 772e a6bf 34c4 7ea8 f226 97bf
000002c0: c74d 4047 3495 a2bf 4a3a e886 e1df b9bf
000002d0: b1d2 e629 9e12 b93f 233c 3810 4c39 383f
000002e0: 0d24 81d8 e03c b8bf c813 19e7 6529 aebf
000002f0: b893 c6b0 594d bcbf b59e 7513 4f87 bc3f
00000300: 2eae d45e c8f5 903f fbf2 73c3 e9e6 bd3f
00000310: 8688 cce1 04c0 b5bf 2fae cde0 048f b13f
00000320: 994c bf72 63b1 913f 7020 88df 4d78 bb3f
00000330: 77be 77fd 88e2 953f a9ff 9a17 843b bd3f
00000340: 637c 62d9 8899 be3f d371 14eb a600 7a3f
00000350: 5c27 7145 258f 573f a05e 5ea8 d9f0 ab3f
00000360: ea00 86b0 41fa ba3f d275 0dfb 9632 b1bf
00000370: b099 989c 9e9e b7bf 1b51 c6f1 d65d 763f
00000380: 7f39 c06e accb aebf 062c adaa 634f 99bf
00000390: b724 1298 f8b0 bbbf dfec da85 feb0 b43f
000003a0: e504 4621 5db0 b63f 2887 c1be d712 bbbf
000003b0: c621 6b88 d362 babf ed45 17a1 aab7 b6bf
000003c0: 07d8 e3a2 00f0 693f 1205 5c86 d63a a83f
000003d0: ac51 0bc1 902a a6bf 072d 4cee 0429 babf
000003e0: a650 0cc4 faa8 babf f0df 9e9b bfba bb3f
000003f0: 9da9 8d9c 9c74 a33f 6ff3 cafb 78ed 8fbf
00000400: c203 c8b1 cff6 ba3f cb43 7198 7071 b8bf
00000410: 2328 6495 f888 b7bf cec1 a021 2b64 b6bf
00000420: f697 26fc 8ea2 ad3f e43f c79c a11a bdbf
00000430: 2d99 e7e9 cc34 aebf c001 fb9d 75c2 ba3f
00000440: 1443 f504 aafc 71bf 672b 2627 972d bb3f
00000450: 2487 13bd 07ed a13f e945 7263 60f0 bfbf
00000460: d32e 3071 0f58 a9bf f06d 1637 9a68 b83f
00000470: de40 9c80 fdd9 a63f df1a 2a0a f0ed 663f
00000480: 85c4 56d5 9acc b33f 621d 87c4 1567 bfbf
00000490: 8fa2 275f 6521 913f f735 89cb 1a3f bd3f
000004a0: cb02 fd4f 15a8 bdbf 580a d645 95a0 bcbf
000004b0: 4e02 d0b2 1493 b93f d0c9 11f1 f9a6 a13f
000004c0: 27ce 1ba7 7428 b63f 076e 11d5 ea08 b03f
000004d0: be03 4781 d385 babf 47cb ff73 5ba0 b13f
000004e0: e80a fe74 2218 84bf e45b f8d9 18f1 963f
000004f0: 43f3 23c9 0ddc b73f 6566 7097 2875 91bf
00000500: 4303 a167 b11c a3bf 6a8b 015c bcec b4bf
00000510: a727 a141 cc03 813f 50e1 3b68 7036 923f
00000520: d06f af81 44c6 b7bf c6ce 47a8 471d 82bf
00000530: 27b2 721e a017 b43f e7d0 641e 8aac bf3f
00000540: d89e 21c4 7381 be3f 8376 b0a6 a114 9cbf
00000550: 06d9 94d4 e81d b4bf a279 cdc4 ca97 bc3f
00000560: 058e 5a56 6f09 b03f 68a7 51d5 144a b5bf
00000570: 9e77 f22c bf6e acbf e68a 26fb 959a b63f
00000580: dd29 0d15 7979 8d3f 2deb 3c71 a16a b5bf
00000590: 3f7e 6151 ac21 973f 1c6c a90e 531d ac3f
000005a0: 6784 1783 2f42 a9bf 2fb4 a740 14ed a93f
000005b0: f77d edc4 6924 883f e89c 7f60 201e b3bf
000005c0: c871 e39a 9841 86bf 6b67 7748 c494 b93f
000005d0: 101e 954e 3764 91bf dbae e015 4529 a4bf
000005e0: 2eba 11ed b0ad b63f 8ce7 6b10 2604 b83f
000005f0: 3bb5 4605 5105 a0bf 8487 5777 efca a0bf
00000600: 865f 087a ec8e b9bf e744 6b40 2ccc bf3f
00000610: 5838 7e7f 3c74 b43f 3669 6c47 bc77 bc3f
00000620: 399e dc50 bbc4 ab3f 8a05 561a 3745 be3f
00000630: fb2e d294 c110 ae3f ca63 0f4d 7d6b 86bf
00000640: 69a2 f2dd 87c3 a03f 4a49 dc38 5bf9 b13f
00000650: ff7d e082 c3be 9bbf 69fc fe1d 9014 a3bf
00000660: 9800 1038 2937 b6bf fb00 eff0 0b3e aabf
00000670: f848 f224 1a4b b9bf 4e4b cc59 e482 abbf
00000680: 0b8f af1b 2b36 a9bf 3566 bf26 ab40 b1bf
00000690: 7f68 2f00 6866 b0bf 9a4f bdaa e8eb b6bf
000006a0: 41bf 78ec 4509 b2bf 1be2 3da8 7e94 b3bf
000006b0: 89c8 a1cd aca6 90bf 91a5 f08a bcf1 bf3f
000006c0: e832 4c18 b7d4 9b3f 7402 6d1b ad3b bc3f
000006d0: 3af7 9583 9594 813f 834e 397e a15b b1bf
000006e0: 3701 a148 6cbf 7d3f 685a 4d98 843a b03f
000006f0: bd8b f6a1 1b80 a13f 3474 0340 aec6 753f
00000700: d4eb 1131 9ece b33f e8c3 0070 593b a8bf
00000710: cc6b d238 27ae a7bf 6476 40a6 deef b0bf
00000720: 588e 4a2a 7b2a 8f3f e14c a204 113d 56bf
00000730: 0cf6 4b0f 19cd adbf c741 8cba 7fd0 69bf
00000740: e326 0055 8c8e a1bf 5497 cb83 a7fe 65bf
00000750: ea9b 7196 8cc3 bb3f 95eb 9d6e 83c8 93bf
00000760: 0371 341c 4679 b1bf dcea ded0 937c b53f
00000770: a492 ea5a 0300 9d3f a5a6 37d5 8bd1 bdbf
00000780: 00c1 55bd 4b57 b4bf 13f2 dfed ae24 bbbf
00000790: c020 253e 4005 94bf f66f 2f05 8433 bd3f
000007a0: 7378 dccf cb87 b2bf 142e 3136 b68a ac3f
000007b0: 7482 28eb 199e a2bf 1731 9b8e 63a2 98bf
000007c0: 8137 e385 caa3 a1bf bcb0 9345 fb87 be3f
000007d0: eff0 772d f463 b9bf f9a8 ff88 efce bbbf
000007e0: ec9a d601 0738 82bf d7bb c234 e009 a6bf
000007f0: 63e4 e0e0 49df bfbf eddf 49ac 1bb4 83bf
-0.07220357020895288 -0.029908356618870594 -0.07932949865653663 0.10257619571503185 -0.11685229766333487 -0.11389193974908766 -0.10055732023709418 -0.0012848733474119032
-0.0010157428031680588 0.012969769353058436 -0.0032735059034220406 0.06960804807574829 -0.059598862288079896 -0.10690471552439143 -0.01117847514375722 0.058889020139084265
0.023594573061889234 -0.038873011022225665 -0.09632134051814861 -0.10147967057114182 0.003924012559478067 -0.10303654119037435 0.0026234019646101236 -0.09876152224119256
-0.031683354202829306 0.04540074935631421 -0.06470062867659183 0.080597928918839 -0.008973365889987527 -0.03092854666824188 0.06316373078355218 0.12167283325939356
0.08995653135032536 -0.10339032087397788 0.07383379807841915 -0.04691048924455243 0.06577733117002608 -0.08958457135816263 0.0850547851037407 -0.0567954639657105
-0.12050848708644808 -0.025166865019290916 -0.032496058791333875 0.06253535439834462 0.03346400063975694 -0.008893968207435555 -0.04749003259193252 0.11160923904658036
-0.0850421775379123 0.10619547177764195 -0.0319022069007011 0.05819568661471254 0.12402389050049205 -0.065438891202035 0.057382568785244184 -0.007392064758293913
0.10324661193608523 0.02030034066062386 -0.040190009126560636 -0.08512417946272413 -0.06988010625720431 0.11647888569404496 -0.04596896604881654 0.07262101986214234
0.021062267515470242 0.06800876693572704 -0.11699301748991822 0.10173480622503579 -0.11248331688690771 0.016467300499717927 -0.031262192376911205 0.03505899367354081
0.0709066498578647 0.1090008990510553 -0.039010704605379615 0.03320860334255522 -0.09771764015837497 0.03420891435798806 0.1233425989691818 -0.09559623586953259
0.09877037329464669 0.06736816862689247 -0.09908009564944738 0.06940195781563371 -0.045289081463266566 -0.08792854410033558 -0.043323259330138905 -0.02260951188481304
-0.03629458780065025 -0.10107240241652807 0.09794033549298821 0.0003696261121328167 -0.09467892919305161 -0.05890959211368557 -0.11055527272999555 0.1114396498211317
0.016562586582194942 0.11680470487403831 -0.08496122849149587 0.06858854759564602 0.017278245810143564 0.10730444629018776 0.02137197539371846 0.11418939186387313
0.11953025157207402 0.006348278069051766 0.0014379371621253334 0.054571916392146536 0.10538111266760422 -0.06717818860257488 -0.09226409266611912 0.005460586191834228
-0.06014765598239346 -0.024716908733619668 -0.10816911423366347 0.08082571762035994 0.08862859785405737 -0.10575626761558665 -0.10307046967057606 -0.08874002869494975
0.0031661999156495954 0.047323898221302355 -0.04329349857804074 -0.10218840425311636 -0.10414092336970046 0.10831830548602261 0.037999052153128356 -0.015589661773782485
0.10532854166377972 -0.09548095437754893 -0.09193376204726227 -0.08746594973559427 0.05788084819805299 -0.11368761136623068 -0.05899658541948081 0.10452971560426416
-0.004391349924234306 0.10616440492428368 0.03501152213153905 -0.12476160457506293 -0.04949997193042823 0.09534610600388027 0.044631883573062345 0.0027990043902862273
0.07734077175588723 -0.12266670272867011 0.016728958065785945 0.11424415082111482 -0.11584599688377321 -0.11182530360205456 0.09990052571812066 0.03447705333464379
0.08655480460930019 0.06263606740815685 -0.10360452562510056 0.06885310728084192 -0.009811658091853429 0.022404087356416982 0.09320150528578801 -0.017048486941439473
-0.03732828512193589 -0.08173730131379178 0.00830802512441038 0.01778579364960936 -0.09286907354493157 -0.008844909499181052 0.07848549598083619 0.12372649423633995
0.11916278398859548 -0.027422452734859448 -0.07858138265587308 0.11169116310836683 0.062643965322927 -0.08316164215071142 -0.05553243087454905 0.08829629308324236
0.0143918475674995 -0.08365830435370177 0.022589390246478876 0.05491122774102328 -0.049333081009316264 0.05063689507719748 0.011788202593094417 -0.07467844348831287
-0.010867302157230876 0.0999262501640296 -0.01698385636453109 -0.03937736408292177 0.08858781612227837 0.09381330395618032 -0.03129056157500051 -0.0327982743435902
-0.09983709315599584 0.12420918057184203 0.07989862549422477 0.11120201820123018 0.05423531877596272 0.1182436408326081 0.05872158948576885 -0.010947207369030116
0.03274178108523957 0.07021112573810231 -0.02709489332494108 -0.03726625791704736 -0.08677919024194336 -0.05125462833484736 -0.09880221750271179 -0.053733001672432765
-0.04924139702759874 -0.06739301391589765 -0.06406259541054914 -0.08953718346066211 -0.07045399687990274 -0.0764846001383223 -0.016260814715174852 0.12478235618677604
0.02717863164712045 0.11028558654380466 0.008584182813816111 -0.06780442554127757 0.007262633307675784 0.06339291303934547 0.034180511017687355 0.005316429771679277
0.07737148950575029 -0.0473277997229003 -0.04625055855395707 -0.06616012152559275 0.015217745044828465 -0.001357332820167305 -0.05820539771773889 -0.0031511778546546606
-0.03429068124394321 -0.0026849052213603706 0.10845259354537942 -0.019319585443991 -0.06825674236865002 0.08393215035804807 0.028320362495508747 -0.11647867160322763
-0.07945702907978003 -0.1060284929989808 -0.01955128077796142 0.11406731726259509 -0.0723845846627869 0.05574578677677891 -0.03636246677001945 -0.02405696447276381
-0.03445275196428011 0.11926241348891414 -0.0991814242369775 -0.10862633795446532 -0.008895926231003291 -0.043044096413147485 -0.12450086345860849 -0.009620872683839788
