ResNet-18实现CIFAR-10图像分类/sever copy/Experiment3/model2/fc_weight.npy (npy, 41040 bytes, 1 tensors)

array f8 [10, 512]
0.008604222544855907 0.0774063286005404 0.07951181246605922 0.0853598238532252 -0.04065885592649584 0.08363818979377832 0.008824421488066498 -0.04595055563377645
-0.07418028041969439 -0.053522622242844424 0.015795927127204266 0.0334647695853199 -0.06186276971383308 -0.013603764235842449 0.06426560462374283 0.04115341659058278
0.03902354950091087 -0.11014689366882259 0.013774619861048712 -0.01662928970747273 -0.05947408114418542 -0.06921605828367863 0.03715520694054273 -0.037921899813233906
0.04955113558262895 0.01023942085965383 0.05188802539888821 0.02107914244116313 -0.03730985350416221 0.03544899947911934 -0.0622236495583383 -0.01931330736860395
0.0813861228227168 0.034099527731171024 -0.04996566836970857 -0.05498511488476044 0.04965264868519003 0.06114107163916593 -0.03270551151297238 -0.09705943543060527
-0.0842672009897531 0.04521970464358895 -0.029367302750685463 -0.05104955616669465 0.08569313153807277 0.09346429425952599 -0.06855444817831924 0.05576824825995853
-0.03190810588327363 0.002947921179165198 -0.0313260094500478 -0.10483155067819726 0.008309441241529526 0.11061791613596508 0.055442229621452774 -0.07010986241738329
0.06917217589304415 -0.06154765076881136 -0.028888228667392195 -0.010076226225921582 -0.03575999694807375 -0.02706318511491271 0.08200128789751321 -0.0430422617745722
0.03876414470130378 0.06620938526438909 -0.04678140737730274 -0.06741709441232442 0.041705842260717774 -0.05743261788289422 0.041714331065591144 0.02999112495697257
0.08883132567259014 -0.07449393302611483 0.002483552350874435 -0.027837246610684426 -0.08645391770400827 -0.011069368173624429 0.06295950517415115 -0.10482066231558652
0.03303777235382052 -0.10531951700126442 0.055157885902846045 -0.05489932825953435 0.08398286457038577 0.03111668303072591 0.032128642750897544 -0.024696909346426356
-0.1157046292869335 -0.0472122446657523 -0.009628203002176618 -0.08413687704144612 -0.07254804527728166 0.08471713701956626 0.03803884231092157 -0.1071416136536026
-0.10125558192877959 0.0869872301838125 -0.02822590819178884 -0.03615567192094222 -0.10891821094748669 -0.06702417049945057 0.0349080482001493 0.003343022486187213
-0.11280141311001478 0.0020196698606073753 0.011259822774588911 -0.008871432421400084 0.012615995810365469 -0.09136585736925912 0.1061817668734919 -0.03606533877010091
-0.056872430024413924 -0.0016799229011455186 0.022690550241486116 -0.11608618769331953 -0.031001186813574905 0.06951030764614241 0.018751485629339197 -0.060441135732781516
-0.05383957566468383 -0.0968843335348982 -0.057501793999194604 -0.01893796126101195 -0.023705760635157384 -0.10925674991521639 -0.1124425209314794 0.06880374847020736
-0.11094958640070604 -0.07908359210847475 0.0010548030407854995 -0.041064935162232155 -0.10446849410164384 0.005934061010302785 0.005189036433764817 -0.08209734910477168
0.07227292077407325 0.03532420445031464 -0.044771402254742444 -0.09681428094661851 0.09845424879851004 -0.09986377111662527 0.026371036336830484 -0.07525080710534959
-0.06753792416092137 -0.09986750473086578 -0.031755544049791654 -0.10817681571396212 -0.11022911024953815 -0.11457350884502665 -0.09636383356444661 -0.08354774354413912
0.049305553485291156 -0.029221028541764116 -0.02019576106076911 -0.09749683028353254 0.01547709027673057 -0.1177400667722327 0.026162071096597322 0.028078113022549922
-0.016668691105735947 -0.030240529565922523 -0.12191312368720547 -0.012378879059444767 -0.04585124277401085 -0.0328567510056003 0.04495669472092682 -0.045335564737647514
0.04109308580635339 0.05573889152289739 0.05541620015878185 0.021276199177187913 -0.07443106560138885 0.07925952202205194 -0.009256645519510897 0.049289180369955596
-0.10187998898014039 -0.00839768744603552 -0.088837290794592 0.030157108954439203 0.08293605082746516 -0.06655311611629097 0.059407350517157044 0.07300799071067497
0.05712317093724268 0.10149095008098644 0.0660555225782297 -0.024740722990032018 0.07218168944591236 0.07013650599337345 -0.02011263666194613 -0.02272909642948741
0.0816221780499174 -0.05984010948805467 -0.09737841888571713 -0.10356928637075541 -0.11360923601423115 0.05230475483040266 -0.09822314736294321 -0.10180320147471697
0.024393595290566367 0.06348381160381206 0.0003721114418658994 0.03031401836537425 0.0013856769326421518 0.02352306717715121 -0.04381727861177622 0.09495420516136055
-0.030959123829521092 -0.02828018024531973 -0.0032390511157970214 -0.05633539689414116 -0.02133665920260891 0.07262377437998946 0.05126530319005432 -0.02985026185401746
-0.11332713791718926 0.037638654348145145 0.008917125678141903 -0.01417671045758617 0.03967748543290147 -0.1148532815636442 -0.11393840000347565 0.005704861265937813
-0.06143601799326844 0.02804709143745916 -0.10997119283257878 -0.061260823356029434 -0.09758074801234562 -0.09598320039031408 0.026504166560235798 -0.06526969493698503
0.08817216378480501 -0.018706320133305258 -0.08526764875366405 -0.0961724306538036 0.01716264110622491 0.039593609572788596 -0.005187899129342647 -0.05183258733193985
-0.09952188561338826 -0.009251484900513904 0.005165396288705552 -0.04860895685328068 -0.039396772423977156 0.04584031867085061 -0.045315888009370434 0.08758271761698785
-0.009790119094945055 -0.01974961515967841 -0.0038235409418441906 -0.03871238002215367 -0.11255642920197248 0.02594811957011007 0.04258385917315125 -0.09896906079565039
00000000: f154 8033 179f 813f 7fbe d7b1 e6d0 b33f
00000010: 11fa 2fda e25a b43f 4388 d733 24da b53f
00000020: ab80 fed0 3cd1 a4bf 2e65 dcf9 4f69 b53f
00000030: 3d34 94cd 8912 823f dc35 5ccb d486 a7bf
00000040: 6923 6996 7afd b2bf bf23 4230 5167 abbf
00000050: 2974 afb9 ce2c 903f c7ce df55 4b22 a13f
00000060: af93 8519 7aac afbf 11a8 f653 4adc 8bbf
00000070: 3ddc 1dee b573 b03f 6d1c c084 0f12 a53f
00000080: 0ab0 c209 e5fa a33f f146 103a 9632 bcbf
00000090: 9b56 8b2e de35 8c3f 8e16 ccbd 4407 91bf
000000a0: 83a6 f202 6373 aebf dab9 afc2 24b8 b1bf
000000b0: bd19 5fdd 0106 a33f b003 00cf 7f6a a3bf
000000c0: 1536 9d35 c45e a93f 560d c7cd 67f8 843f
000000d0: f9d3 4838 1191 aa3f f86b a64d c595 953f
000000e0: 17e4 3cf1 461a a3bf 59a2 e00a 5f26 a23f
000000f0: 961a c837 c7db afbf 275e 1a1e dec6 93bf
00000100: cd2e df8f b8d5 b43f 772f d448 7e75 a13f
00000110: 2930 249f 1995 a9bf 61c9 644c 0227 acbf
00000120: 7f7c 866c 126c a93f 8fe5 43ee e14d af3f
00000130: fcbf b1dc c6be a0bf 0a53 f11c e3d8 b8bf
00000140: ec5e 6008 8992 b5bf e371 2881 0927 a73f
00000150: e62f 8b53 7612 9ebf 672b 6cdc 2a23 aabf
00000160: 37a6 722d fcef b53f fa39 30a7 46ed b73f
00000170: 48d4 ebc8 c88c b1bf d20b dde4 a78d ac3f
00000180: 2eef 7d5e 4256 a0bf f54b c821 3d26 683f
00000190: fd4b 3474 f609 a0bf 8777 c091 3dd6 babf
000001a0: b410 0b53 8a04 813f 12d8 27ac 7451 bc3f
000001b0: 863a 1586 ec62 ac3f 42b0 354e b8f2 b1bf
000001c0: 01f8 4089 44b5 b13f 8835 6576 2c83 afbf
000001d0: 4b99 7635 e094 9dbf a104 dc30 d8a2 84bf
000001e0: 6048 cb62 224f a2bf e900 fa9b 73b6 9bbf
000001f0: 54ec bf51 09fe b43f 57d7 55a5 a209 a6bf
00000200: f6bf 7fdb e4d8 a33f c518 6628 19f3 b03f
00000210: 0024 7e8d bbf3 a7bf 1d39 b127 3f42 b1bf
00000220: a8b3 1fd9 775a a53f 50b7 0fdf ce67 adbf
00000230: b907 67af 945b a53f ea18 7153 feb5 9e3f
00000240: 02c5 9f56 a6bd b63f d7fa 18ce 0812 b3bf
00000250: 7342 ff03 6358 643f bfdc 36ff 5d81 9cbf
00000260: b358 260d d821 b6bf e744 5872 89ab 86bf
00000270: 9f00 b237 1d1e b03f 412b 97e4 86d5 babf
00000280: 2caf 95af 53ea a03f 71a4 2649 38f6 babf
00000290: 3971 2388 a73d ac3f 2ee6 e4c6 c31b acbf
000002a0: 8313 c1a8 e67f b53f c369 e83f 0ddd 9f3f
000002b0: bf8b c25b 2a73 a03f 2a1a d287 254a 99bf
000002c0: b17e c88e d19e bdbf d8cc 9e0d 342c a8bf
000002d0: 0ed9 1b88 f3b7 83bf 60d4 478f fe89 b5bf
000002e0: 79ca da39 8292 b2bf dee7 e8b4 05b0 b53f
000002f0: eefd 67bf d379 a33f e5d1 aefe a16d bbbf
00000300: 28eb ebc4 e2eb b9bf 1921 cf8c cb44 b63f
00000310: 83a3 55a2 40e7 9cbf a942 ee08 ff82 a2bf
00000320: 2252 f559 10e2 bbbf e32f 56fc 7e28 b1bf
00000330: f60e c6ba 77df a13f d857 ef87 d362 6b3f
00000340: 7f06 40ac 8de0 bcbf 9835 0000 8e8b 603f
00000350: 39dc 9ad4 630f 873f fadd f280 2f2b 82bf
00000360: d5c2 4b4b 6ad6 893f 5439 5fb9 c063 b7bf
00000370: 7034 2770 ba2e bb3f 25d0 12f5 2777 a2bf
00000380: a570 ff15 621e adbf 7be8 e47a 1b86 5bbf
00000390: 1999 dc0c 313c 973f f5fd a80b d3b7 bdbf
000003a0: c586 016e c6be 9fbf 7838 1372 6dcb b13f
000003b0: ce21 1ee6 9633 933f 8d5c 9cfa 23f2 aebf
000003c0: f7b0 6b61 dc90 abbf e6f2 0664 69cd b8bf
000003d0: 7b30 6009 e070 adbf 946a 1311 7964 93bf
000003e0: 3e85 9eaa 5246 98bf 80cb c017 40f8 bbbf
000003f0: 9d9b 1476 08c9 bcbf 7391 8559 1f9d b13f
00000400: a683 182d 3167 bcbf f38f c181 d23e b4bf
00000410: 5edb 1624 2a48 513f ca7b 1193 7606 a5bf
00000420: 8101 a17d 72be babf 6929 8c5f 504e 783f
00000430: 280b 7e5c 1941 753f 3448 7ef5 5404 b5bf
00000440: 5b6d 1c67 7a80 b23f 871d be9d 0316 a23f
00000450: 15da f5f8 46ec a6bf 5a94 731a d2c8 b8bf
00000460: bfe9 bd32 4c34 b93f 614a 000f ac90 b9bf
00000470: e564 834a 0201 9b3f 58dc 830b a343 b3bf
00000480: 65c9 8257 2a4a b1bf c68f c0b2 ea90 b9bf
00000490: a232 523e 4342 a0bf 6a48 adcd 79b1 bbbf
000004a0: 15c5 9697 f937 bcbf 0434 7a81 b054 bdbf
000004b0: 242e add9 4cab b8bf 6b3a 2d8a 6263 b5bf
000004c0: aa04 76d7 933e a93f e0f9 c407 1eec 9dbf
000004d0: d667 1895 32ae 94bf 1a0c 8861 8df5 b8bf
000004e0: a93b 9be4 73b2 8f3f 4831 3788 3624 bebf
000004f0: 08a5 05df 3aca 9a3f a035 a944 82c0 9c3f
00000500: 9440 aaec 9811 91bf c957 ff95 5ff7 9ebf
00000510: 7c93 30cf b235 bfbf f289 c505 195a 89bf
00000520: ad02 6468 d079 a7bf 5632 0b9e 99d2 a0bf
00000530: e511 205b 9004 a73f 8bab c91f 3936 a7bf
00000540: 9e90 4227 270a a53f a68a 69d8 ce89 ac3f
00000550: 587c b31e 835f ac3f fcc8 988e 6dc9 953f
00000560: 3c7c 9010 ea0d b3bf cc36 fb1e 5a4a b43f
00000570: 0639 37ee 25f5 82bf 26a1 7873 6e3c a93f
00000580: e85a c994 ce14 babf bbc1 8a87 ce32 81bf
00000590: 8fc5 a06a 0abe b6bf f60d ce52 81e1 9e3f
000005a0: 8a9e f609 4c3b b53f 9696 2a01 a009 b1bf
000005b0: 1df5 39e7 a36a ae3f 07f3 72d4 a6b0 b23f
000005c0: 69de 098e 3f3f ad3f 0214 7097 4ffb b93f
000005d0: 6b95 31c5 03e9 b03f 3780 7cd0 a155 99bf
000005e0: fc4b 8acb 7f7a b23f 944b 7f4f 77f4 b13f
000005f0: b12c cc32 6898 94bf e540 54d7 4b46 97bf
00000600: 8449 5ae9 30e5 b43f 9602 7be2 5ca3 aebf
00000610: bc49 73c4 caed b8bf a41b d549 8483 babf
00000620: 2265 34b1 7e15 bdbf 5200 d856 b0c7 aa3f
00000630: c64f a2f5 2625 b9bf 2e46 f64c c60f babf
00000640: 58f5 0478 a2fa 983f acee a99e 7940 b03f
00000650: 00f9 2879 fe62 383f 7660 f555 a30a 9f3f
00000660: 59fc f146 f3b3 563f 55ef e850 6e16 983f
00000670: 134c 46e5 376f a6bf d024 c935 eb4e b83f
00000680: 0f43 71a1 bfb3 9fbf 1952 1dc5 7af5 9cbf
00000690: e9f2 9853 c888 6abf e4f7 883e fed7 acbf
000006a0: 30a6 ecf5 46d9 95bf 78c7 dfbf 7897 b23f
000006b0: 84da 3d21 723f aa3f 319a c229 1191 9ebf
000006c0: 2686 1adf 0103 bdbf 2c41 fbaa 5f45 a33f
000006d0: e1a7 4b59 2443 823f 3fd6 3dde ad08 8dbf
000006e0: abc6 a47c 9b50 a43f 2b75 2750 0667 bdbf
000006f0: b703 c625 112b bdbf e9f5 0b09 fb5d 773f
00000700: 5bb5 27b0 8a74 afbf d321 e371 60b8 9c3f
00000710: 2cd1 b774 1227 bcbf fe2b ae21 945d afbf
00000720: 60a7 6e49 0dfb b8bf e24d a4e2 5a92 b8bf
00000730: e0f6 5582 e823 9b3f 7c9b 2cc5 83b5 b0bf
00000740: 2390 df6f 7392 b63f b1e0 cde4 bf27 93bf
00000750: fcc5 cdc2 19d4 b5bf 8c56 6fa4 c19e b8bf
00000760: 0490 0e59 1593 913f f4ce 7d14 9d45 a43f
00000770: 440f 8711 e83f 75bf a05d ea06 cd89 aabf
00000780: 081d f22b 447a b9bf 1879 b248 71f2 82bf
00000790: 440b 1882 4f28 753f ec7c f4ef 45e3 a8bf
000007a0: f803 4252 d02b a4bf 731d 0fdb 6178 a73f
000007b0: 7a98 fae1 a433 a7bf 9e19 dc2b d26b b63f
000007c0: aaa1 b18a d70c 84bf 99ab e03c 3e39 94bf
000007d0: aaba 9ae9 8b52 6fbf 8a7b 4aec 1bd2 a3bf
000007e0: ce83 6086 7fd0 bcbf 3208 c9d3 2492 9a3f
000007f0: 35e9 f834 8dcd a53f 31e3 6e4f 0956 b9bf
